model/saved_models/ANN_35_151.pt (torch, 2447 bytes, 3 tensors)

fc1.weight f4 [40, 3]
00000000: 64df 9dbe 70a5 a4be 815b 0d3f 8ed8 f63e
00000010: 55a5 cd3e 464c 6ebe afa1 543e a40b 213e
00000020: 0f4b 56bf ec8e 9cbd 477c 88bc 1667 46be
00000030: 53d3 22bf e1e2 1fbe 47f6 d0be a34b 603e
00000040: 7345 473d 0795 893d 25f0 323e 46ff 4abd
00000050: 75e1 983e e283 96be a6de bcbe 397b bf3c
00000060: 518f 4fbe bd5d 97be e75c bfbc 121a b93e
00000070: 9347 243d 95f3 033d bd17 18bf d8da cb3d
00000080: b697 d3be 3d4d f13e a83b 163d 146f e23d
00000090: 84b8 123e 6334 87be dfc6 dbbd 0ba2 cebe
000000a0: d4b4 e1be f924 923c e8c8 1bbd e07c e6bc
000000b0: da67 263d 0922 4e3f ab18 0e3d 1adc 1bbf
000000c0: 1af8 8c3f 7bf4 973d da6a 74bf 5004 77bd
000000d0: 4277 b4be 4557 12be 89b0 ab3e 18c6 ee3e
000000e0: 3a74 c0bd 0d2f 7b3f 5d2d be3d b839 5bbf
000000f0: ae49 203f 5133 b7be c9ec 09bf 42f2 91be
00000100: 5a42 9dbe abf0 39bf 2750 d13e 229f f9be
00000110: 5ec1 bd3d 1d77 e2bd fa1e 2dbd 80c6 093e
00000120: a87d 7a3e 9260 67be e842 9b3e 0132 a73f
00000130: b457 423d d5a6 84bf 7ec9 383e ee26 273e
00000140: e96b 1b3e 142f b63e d958 eabe 9903 dbbe
00000150: 0d79 573e 62d6 e6be 34d4 bf3e 91f5 753e
00000160: 83d3 07be 333b 8b3e bc60 c3be 4d9c 213d
00000170: d109 113e 244f 823f f566 103e daa6 84bf
00000180: f3e0 2ebe 92b2 e73e 2dc9 983e 19ea 1abe
00000190: 9deb 283f 63f1 f8be dbcd ebbe d4a5 db3e
000001a0: c28c a83e ff67 96bc bf4c 91bd 6523 2b3e
000001b0: 2c2d ab3e b56d 5f3e d2ef a93d 2498 d4be
000001c0: e289 19bf 8883 78bd 1a45 b83d e02b 6a3e
000001d0: ed6f cf3e 3655 e1bd 0d31 61be 9516 aa3c
-0.30834496 -0.3215747 0.5521775 0.48212093 0.401652 -0.23271284 0.20764802 0.15727097
-0.8370828 -0.07644448 -0.016660823 -0.19375262 -0.63603705 -0.15613891 -0.40812895 0.21903853
0.048650216 0.06717878 0.1747442 -0.049559854 0.2985951 -0.29397494 -0.36888617 0.023374187
-0.20269515 -0.29563704 -0.023359729 0.36152703 0.04010732 0.03221472 -0.5941122 0.099538505
-0.41326684 0.4712924 0.036677986 0.11056343 0.143282 -0.26407155 -0.10731291 -0.40358004
-0.44083273 0.017839896 -0.038033396 -0.028135717 0.040626384 0.80520684 0.034691494 -0.60882723
1.1013215 0.07419678 -0.9547554 -0.060306847 -0.35247236 -0.14291103 0.33533123 0.4663551
-0.093971685 0.9811867 0.09285996 -0.85634947 0.62612426 -0.3578134 -0.5387693 -0.2850514
-0.30714685 -0.72632855 0.40881464 -0.4875422 0.092653975 -0.11057875 -0.04226587 0.13454628
0.24461997 -0.22595432 0.30324483 1.3062135 0.04744692 -1.0363413 0.18045613 0.16323444
0.15177883 0.35582793 -0.4577091 -0.42776182 0.21042271 -0.45085436 0.37466586 0.24019457
-0.13264279 0.27193603 -0.3815974 0.0394557 0.14163901 1.0180402 0.14101775 -1.0363419
-0.17077999 0.45253426 0.29840985 -0.15128364 0.6598452 -0.48621663 -0.46055493 0.42899954
0.3291989 -0.018360136 -0.07094716 0.1671272 0.334329 0.21819194 0.08297695 -0.41522324
-0.5997602 -0.060672313 0.08997555 0.228683 0.4051508 -0.11002581 -0.21991368 0.020762721

fc1.bias f4 [40]
00000000: 73b5 023d cf92 083f a6ce cdbe e266 8d3e
00000010: d10a 9e3c 9c63 e5bd 3fa7 e2be 0c2a 8fbe
00000020: ab97 b4bd 3414 f4bd 3cb3 843e b091 ea3e
00000030: bdae 44bf 141b 8c3e 124c 963e c584 d8be
00000040: 5afb 4dbf 9665 1c3f ace0 90be 06cb 21bf
00000050: 7893 433c 634b 43be c0e6 9f3e 4e14 a4be
00000060: f896 2b3f 8fd6 87bf da48 34be 34d1 043e
00000070: 408a 963e 1759 a83e 04fa 2dbe 3a8f 00bf
00000080: a976 893e a3dc f33e 8827 753e aae4 9d3e
00000090: ecbb 883e 622b 3ebe 8821 20bf 2725 1c3f
0.031911325 0.5334901 -0.40196723 0.27617556 0.019292267 -0.112006396 -0.44268224 -0.27961767
-0.08817991 -0.11917916 0.25917995 0.45814276 -0.7682913 0.2736441 0.29354912 -0.42288795
-0.8046166 0.6109251 -0.2829641 -0.63200414 0.011937015 -0.19071727 0.31230736 -0.3204674
0.67027235 -1.0612353 -0.17605916 0.1297043 0.2940235 0.3288047 -0.16989905 -0.50218546
0.26848343 0.4762927 0.23940861 0.3083852 0.26705873 -0.18571237 -0.62551165 0.6099419

fc2.weight f4 [1, 40]
00000000: 57d1 343e 80d6 343e ebc6 9b3e 1b75 9bbc
00000010: 8417 bfbd ce0d c93d e5ce 9e3d 286a 85bc
00000020: 3c3f c6bd 784f 213d be73 d83d 39b0 69be
00000030: 1f5c 5d3e 3ca1 9abc c269 4f3c 173b 333f
00000040: fe1d 903f b291 bebd 34d7 993d 76da a73f
00000050: 6292 213e bfa5 e83d 720b 183e 7bcc a03c
00000060: f84e cebd cd66 6d3f b604 9cbb 697c 263e
00000070: 9f86 303d c2d6 0e3a 0bfa dfbd 36f2 403f
00000080: 6374 06bd 39d6 3c3e 8f3f 993d 2f07 b9bd
00000090: bcc6 2abe 7a32 9abe 9d59 973e e14e c9bd
0.17657982 0.1765995 0.304252 -0.018976739 -0.09330657 0.09817086 0.07754306 -0.01628597
-0.0968003 0.039382428 0.10568951 -0.2282113 0.21617173 -0.01887571 0.012659492 0.7001204
1.1259153 -0.09305133 0.0751175 1.3113544 0.15778497 0.113597386 0.14848116 0.019628754
-0.10073656 0.92734987 -0.004761304 0.16258396 0.043097135 0.00054488715 -0.10936364 0.75369585
-0.03282584 0.18441094 0.07482826 -0.09034573 -0.16677374 -0.30116636 0.29560557 -0.09829498
