model/saved_models/ANN_nonscale_5_58.pt (torch, 2447 bytes, 3 tensors)

fc1.weight f4 [40, 3]
00000000: c8f3 853d 6385 f2be 5e29 2bbe 61bb abbe
00000010: beda 9dbd 7be5 edbe e05d e0bd 4036 ce3d
00000020: 3059 7c3d 24fc 7f3e bd96 0ebf 241a 3e3e
00000030: 0220 dabe 70e8 b23e eb2a debe 805a 69be
00000040: 40e6 f2bd c4b2 c63e 601d ab3d 1f16 013e
00000050: cc4d 44be 303f eb3d e6be 943e 88e7 afbe
00000060: d347 03bf d934 393d ee3c b2be 7636 f23e
00000070: 6dda ccbe 3382 b93e e24f 09bf 448f d73e
00000080: b093 f6bd 0c0b 173e aafc 36be c83f 93bd
00000090: ea13 7bbe 347f 6cbe aca8 093f d228 0a3f
000000a0: f9db 3b3e 9e9e 9abe 3494 94be 486f e5bd
000000b0: 4a58 933e eb99 f33e 503b 573e b03f 9bbd
000000c0: d6d5 54be ee9d 0e3f a18e a4be 149f 0bbf
000000d0: 100a c03e b054 053e 9ce6 8b3e 8c45 d8be
000000e0: 609c f03c 0c7b ffbe 2534 a03e a27b 853e
000000f0: de9f babe 0095 01bf b009 12bd 046e b9bd
00000100: 3e70 a13d 69a1 173f c82d 05be a07d 35be
00000110: 4601 ba3e f3e2 ae3e c6cc fbbe f569 f8be
00000120: 4979 83be 9d39 04bf d2a3 cfbb 2347 073f
00000130: 77ae f73e fab8 29be 4a1b 153f d55a d73e
00000140: 2ef3 39be f0d5 6f3e 1fa6 9fbe ec98 a9be
00000150: fc0a 113f 0956 463e 48dd c3bd ea30 683e
00000160: 92ee 68be f7cd 9ebe 62fc 16bf 1a8b b1be
00000170: b7de babe e64e ccbe c032 033f 013b f7be
00000180: 28b4 cdbd 763a cdbe 9826 873d c9be 0cbe
00000190: f66c e23e d7ad ee3e 6fe2 b7be 001b d1bc
000001a0: d45a 833e 281a 8b3d b00d 0dbf c0e7 aa3c
000001b0: 9e36 d63e 5ef1 99be 4e58 cc3e 4cec 15be
000001c0: e0d4 0fbd 0024 6bbb 80ba e43d d0b1 86bd
000001d0: 8cd3 bfbe e272 e13e 3d26 0c3c c344 ff3e
0.06540638 -0.4736739 -0.16714999 -0.33541396 -0.077077374 -0.46464142 -0.10955405 0.10068941
0.061608493 0.24998528 -0.5569876 0.1856466 -0.42602545 0.3494296 -0.4339212 -0.2278843
-0.11860323 0.38808262 0.08355212 0.12606095 -0.19170302 0.114866614 0.29051894 -0.34356332
-0.5128147 0.045216415 -0.3481211 0.47307175 -0.40010396 0.36232147 -0.53637516 0.4210149
-0.12039888 0.14750308 -0.17869821 -0.071899 -0.24519315 -0.23095399 0.53773 0.53968537
0.18345632 -0.3019914 -0.2901932 -0.11202866 0.28778297 0.47578368 0.2101872 -0.07580507
-0.20784697 0.5570973 -0.32140067 -0.5453961 0.37507677 0.13020587 0.27324378 -0.4224056
0.02937144 -0.49898565 0.31289783 0.26070887 -0.36450094 -0.5061798 -0.03565377 -0.09054187
0.078827366 0.5923067 -0.13005745 -0.17723703 0.36329097 0.34157524 -0.49179667 -0.4851834
-0.2567847 -0.5165041 -0.0063366676 0.5284292 0.48375294 -0.16574469 0.58244765 0.42061487
-0.18159172 0.23421454 -0.31181428 -0.33124483 0.56657386 0.19368757 -0.095636904 0.22674909
-0.22747257 -0.31016514 -0.58978856 -0.3467644 -0.36498043 -0.39903945 0.51249313 -0.48287204
-0.10044128 -0.40083665 0.06599158 -0.13744654 0.44223756 0.46617004 -0.35914943 -0.02552557
0.25655234 0.06792098 -0.5509901 0.02086246 0.41838545 -0.3006696 0.3991112 -0.14640921
-0.035115123 -0.0035879612 0.111683846 -0.06576884 -0.37466085 0.4403296 0.008554039 0.4985715

fc1.bias f4 [40]
00000000: 5a55 9abe c48a 7c3e 9ce3 06bf 68fc 60be
00000010: 9ea5 96be 83b9 82be a0eb 193d 9570 bcbe
00000020: 3def e53d 33d9 ca3e a496 95be 6758 0abf
00000030: c8a1 44be 4254 653e c2c8 99be cc0a 8c3e
00000040: ca56 c03e 2028 cdbe e2d9 06be 56eb 313e
00000050: 4bf0 04bf 725b 183f f4ad 2f3e 02b7 993e
00000060: 4b63 393e 74a8 68bd e4bc 99be 2174 fcbe
00000070: 5925 efbd 0e87 c13b 6a77 333e f645 f3be
00000080: c004 51bc cb5c d03e 30c8 6cbe 1a8c aebe
00000090: 8c51 db3d c45d eebd 551b afbe 4574 b3be
-0.30143243 0.2466231 -0.52691054 -0.21971285 -0.2942323 -0.2553216 0.037578225 -0.36804643
0.11227272 0.39618835 -0.29216492 -0.5404114 -0.1920234 0.22395423 -0.3003598 0.27351987
0.37566215 -0.40069675 -0.13169053 0.1737493 -0.5192916 0.59514534 0.17156202 0.30022436
0.18104284 -0.056801274 -0.30026925 -0.4930735 -0.116770454 0.0059059924 0.17526022 -0.47514313
-0.01275748 0.40695795 -0.2312324 -0.34091264 0.10708913 -0.11638978 -0.3420054 -0.35049644

fc2.weight f4 [1, 40]
00000000: f46a 0e3d c70e 0dbb 20c9 eabd 5c3b cebd
00000010: 8548 fcbd 8c33 1abe 8cfd b9bd 204b 253c
00000020: d9bb 273d 645a 323e 2c90 84bd f6fe a3bd
00000030: 6ee1 f23d afcc f9bd c0dc 5fbc bc8e 74bd
00000040: dfc9 263e 50bd ad3c 0bbe 1b3e b4b1 3a3e
00000050: d438 1cbe deff 1c3e 7aeb babc d677 50bc
00000060: 1a9d 86bd d233 ec3d d8ea 1f3e 2c43 50bd
00000070: 6c2a ff3d 14c6 03bb 5a88 e7bc d859 afbd
00000080: 9cb4 243d f2e3 80bd 8c89 a93d de8c b13d
00000090: d09a fe3d 48f7 89bc 5074 c23c d528 093e
0.034769967 -0.00215237 -0.11464143 -0.10069916 -0.123185195 -0.15058726 -0.09081563 0.010088712
0.04095063 0.17417294 -0.06472811 -0.08007614 0.118594036 -0.121972434 -0.013663471 -0.059706435
0.16287945 0.021208435 0.15209214 0.18231851 -0.15256053 0.1533198 -0.022817362 -0.012723884
-0.065729335 0.115333214 0.1561693 -0.05084531 0.12459263 -0.0020107077 -0.02826326 -0.08562058
0.040211305 -0.06293477 0.08278188 0.086694464 0.12431872 -0.016841546 0.023737103 0.13394482
