model/saved_models/ANN_v2_log_log_34_1000.pt (torch, 2447 bytes, 3 tensors)

fc1.weight f4 [40, 3]
00000000: dbaf 07bf 4896 213e 4a88 febe 68b6 ffbe
00000010: 38ec c1bd 1476 09be 5179 cb3e fc9c 513e
00000020: d15c f5be 1c3a 9f3d c21a d63e 15ea 343e
00000030: 16ab c43e 9252 263e bc54 c5be 7e3a 933e
00000040: 4047 083d 90fa f93d fbcd a2be d448 bbbe
00000050: 1450 5fbe 3896 0dbf 4e28 7d3e 8610 f3be
00000060: 3e2a fc3e 4d2c 90be bb84 003f b24c b23e
00000070: 4793 fbbe 8006 e13e 40c1 ea3d 9659 03bf
00000080: c072 0f3c 50e1 7fbe 660a 08be 9011 c23d
00000090: 8b0d b2be 0089 323d 3db6 eabe d91e 8abe
000000a0: 7ca3 a03e 2b01 c8be c787 18bf bd75 413e
000000b0: 47ae 9bbd e04c 133b 0a66 013f 0aa3 48bf
000000c0: 9015 e6be 7bea 02bf 6007 db3c 7529 88bf
000000d0: 146c ae3e b78b 1cbf e832 2a3e bf9e 0e3f
000000e0: ecf6 1c3e 50c5 a93e 0f2a 0a3f 3210 be3c
000000f0: b376 44bf 07e3 033f eaa9 d93e 98a2 d53e
00000100: 0497 11be a6ef a7bd b470 1a3f fb1d 56bd
00000110: 04b3 993e 5306 cc3e 3c8c 2cbd 9f7e 223e
00000120: 3472 13be 4775 0d3f 4c2b 0c3f 709e 473f
00000130: 46cd aabe 3940 ba3d fb73 eabd f571 b73e
00000140: 0c96 88be b0fa 7d3d 78b4 a13d 68f5 e83d
00000150: 21ea 40bf 0f06 d23e 8b55 7ebe 9755 03bf
00000160: 86c1 ad3d 32f6 ffbd 962c d8be 0f34 023f
00000170: f1b4 4f3d 24f1 4b3e 00b8 a13a 283f 0f3e
00000180: 53b9 e7be 77d7 90be 4ab9 11be fcee 7ebe
00000190: 1cc1 f13e 5e89 12be c43a 13bf 4cad 92be
000001a0: 3c74 463d acaa b63e e2f6 aa3d 3c68 21be
000001b0: 3172 f2be adf1 b23d edb5 cebe dc05 fdbd
000001c0: bf4d 9cbe 76a9 0dbf 3766 9bbe 4582 073e
000001d0: e53f 963e ee6a ee3e 3de5 a33e 997d 1a3f
-0.5300271 0.15779984 -0.49713355 -0.49943852 -0.09468883 -0.1342395 0.39740995 0.20470041
-0.47922376 0.07774755 0.4181729 0.1766742 0.38411778 0.16242436 -0.3854121 0.28755563
0.033271074 0.12205994 -0.31797776 -0.36579 -0.21807891 -0.5530734 0.24722406 -0.47473544
0.49250978 -0.281588 0.5020253 0.3482414 -0.491358 0.43950272 0.11462641 -0.5130857
0.008755386 -0.24988294 -0.13285217 0.09476006 -0.34775957 0.043587685 -0.45842162 -0.2697666
0.3137473 -0.3906339 -0.5958218 0.1889257 -0.076016 0.002247624 0.50546324 -0.7837378
-0.44938326 -0.5113904 0.026736915 -1.0637652 0.34066832 -0.6115069 0.16620982 0.5571098
0.15328568 0.3315835 0.53970426 0.023201082 -0.7674362 0.5151829 0.42512447 0.41725612
-0.14217764 -0.08200006 0.6032822 -0.052274685 0.3001939 0.39848575 -0.042125925 0.15868615
-0.14399034 0.55257076 0.54753566 0.7797613 -0.33359736 0.09094281 -0.11447903 0.3582913
-0.26676977 0.062006652 0.0789575 0.113749325 -0.7535725 0.41020247 -0.2483732 -0.51302475
0.08484177 -0.1249813 -0.42221516 0.50860685 0.05070967 0.19916207 0.0012338161 0.13988936
-0.4525858 -0.28289387 -0.14230838 -0.24895853 0.47217643 -0.14310214 -0.57511544 -0.2864784
0.048450693 0.35677087 0.083478704 -0.15762419 -0.47352746 0.08737502 -0.40373173 -0.12354633
-0.30528066 -0.553367 -0.3035142 0.13233288 0.29345623 0.46565956 0.32010832 0.60347897

fc1.bias f4 [40]
00000000: 9ce0 febe f088 633d 07bd ae3e ba34 95be
00000010: fe93 0e3f abcf 11bf 82e9 273f c2f3 de3e
00000020: 47f5 793e 58c5 e4be 47dd 0bbf f9ad a4be
00000030: 9e18 a83d 3a96 253e 4c4b 073f 8115 8e3d
00000040: a786 0bbf 91ab 043f c9c7 c3be ef45 9abc
00000050: faf8 0fbe 6b2d 0d3f 36ca bfbe 4789 993d
00000060: a60d 133f f219 38be 136e 083e b045 b2be
00000070: 00ad 973e bf79 0c3f ec71 f03e d6fb 0abf
00000080: 90d0 0fbd a31c 06bf 1fbb 183f 3609 ab3e
00000090: 98b3 e53e ff2c a63c 4174 153e 4cda f9be
-0.49780738 0.055550516 0.3412859 -0.2914179 0.5569457 -0.569575 0.6559068 0.43545347
0.24409972 -0.4468181 -0.5463452 -0.3216398 0.0820782 0.16170588 0.5284927 0.06937695
-0.5450234 0.5182429 -0.3823836 -0.018832175 -0.14059821 0.5514743 -0.37458962 0.07496887
0.574427 -0.17978647 0.1332324 -0.34818792 0.29624176 0.5487327 0.46961915 -0.5429052
-0.03511101 -0.52387446 0.59660524 0.33405465 0.44863582 0.020285128 0.14595129 -0.4879936

fc2.weight f4 [1, 40]
00000000: acf5 cabd 5b55 1cbe e6b9 36bd acb6 9f3d
00000010: 23b9 963c 3479 d3bd e17d 31be 177f 2fbd
00000020: 7526 653e fc15 7b3d f15e 03be 00e5 09be
00000030: 43dc cebd d5eb 83be 0b0d e8bd e482 babe
00000040: d059 6f3d b96b a43f 9fed 3e3e 8a62 d8bd
00000050: 8e9d 12bf c17c f5bc 7ceb aa3e 257e 82bd
00000060: 30b8 213e 52ce 8c3e 2903 2abe acbd 1a3d
00000070: 84d8 49be 143d 87bb e7f9 863d e80a 0abd
00000080: 834b a3bd a0ad a33d b66c cebe 71e8 5d3b
00000090: f8d1 d8be dd3a eabd 6124 783d ae59 0e3e
-0.099101394 -0.15266936 -0.04461088 0.07798514 0.018398827 -0.10325852 -0.17333175 -0.04284581
0.22377951 0.061300263 -0.12829186 -0.13466263 -0.10100605 -0.25765863 -0.11330613 -0.36427987
0.05843526 1.2845374 0.18645333 -0.1056567 -0.5727166 -0.029966714 0.33382785 -0.063717164
0.15792918 0.2750116 -0.16602768 0.03777854 -0.197115 -0.004127154 0.06590634 -0.033701807
-0.07973387 0.07992101 -0.40317315 0.003386047 -0.42347693 -0.114370085 0.06058157 0.13901398
