model/saved_models/ANN_17_217.pt (torch, 2447 bytes, 3 tensors)

fc1.weight f4 [40, 3]
00000000: e2d9 523e 7227 4bbd 7706 15be 5978 553e
00000010: c666 003f cf4d 0b3f a19e 44bf 7c89 273f
00000020: efa4 68bf dd9d b93d d5c5 183f 2547 7dbe
00000030: 2f11 293f ae72 2d3d 639e 7d3f f6b4 893e
00000040: 940f aa3f 4039 6cbf 5e3d dfbe dc74 f73e
00000050: 9657 ebbe 4c03 273f 5624 853e 695d b8bf
00000060: be14 ca3e 10bf 113f d205 b6be 43c2 3fbf
00000070: c542 a83e 9f6f be3e 2c0b a23e 0b13 773e
00000080: caec 283f e73a 29bf 4f96 80bc 7012 a4bf
00000090: 0ca2 073f b4bd a73f c406 46bf 6705 ad3d
000000a0: a187 153f 8ddd a93d ca67 9a3d 1149 e13f
000000b0: 6e2e 88bf 19fc 503e 0b8c f4bc 148c 12bd
000000c0: 4b06 ec3e baba a0be b26e 203d 8515 c6bd
000000d0: f709 3a3e f918 ed3e f863 7c3f 8229 03bf
000000e0: 19c4 35bf 6362 03be 54b4 1a3f c06a c43d
000000f0: 6ce9 7dbe 9954 8c3f 0b7d af3e 93c0 f3bd
00000100: 36cd 003e ef24 263d f8a1 24bf 3483 74bc
00000110: 2704 053f 755b 00bf 7021 193f 09de 71bf
00000120: d1ed 2fc0 1b34 393f e37a a93e b794 c93e
00000130: 2958 d9bb 7f81 273f 0682 82bf cfc7 da3e
00000140: adbc 053f e079 4c3e da67 d93d 0763 ea3d
00000150: 9230 2abf 4f9b 343f e198 4b3f 052b 6cbf
00000160: b347 b63e f39c 7bbf 93d7 363e 06fe 443e
00000170: 8995 343f f783 0a3f d3a6 47bf 9201 afbe
00000180: 1fba 09bf 19ea 0fbf 5643 13be 9f6d 083f
00000190: 246f 8c3e e2e9 d93e 583f aabe bd5a 3dbd
000001a0: fa28 25bf db5d 163f eca1 af3f 1627 49bf
000001b0: 628c 15bf d2e7 d03e 3ba7 d13e 0cd7 b9be
000001c0: 5309 c5be 4939 7a3e 0f2a 793f 5447 fabe
000001d0: 4322 dbbe 5411 1dbf cc58 2e3e 5bca 3ebf
0.20590928 -0.049598165 -0.14553247 0.2084669 0.5015682 0.544156 -0.7680455 0.6544416
-0.9087667 0.09063313 0.5967687 -0.2473417 0.66041845 0.042345695 0.99069804 0.26895875
1.3286004 -0.92274857 -0.43601507 0.48331344 -0.4596526 0.65239406 0.26004285 -1.4403507
0.3946895 0.56932163 -0.35551316 -0.74905795 0.3286344 0.37194535 0.31649148 0.24128358
0.6598631 -0.661055 -0.015696673 -1.2818127 0.5298164 1.3104768 -0.77354074 0.08448296
0.5841008 0.082942106 0.075393274 1.7600423 -1.0639169 0.20408668 -0.029851934 -0.03577812
0.4609855 -0.3139246 0.039168067 -0.09672073 0.18167864 0.46308115 0.9859004 -0.5123521
-0.71002346 -0.128305 0.6043141 0.095906734 -0.24796075 1.0963317 0.34275088 -0.11901965
0.12578282 0.040562566 -0.64309645 -0.014923859 0.5195946 -0.5013955 0.59816647 -0.94479424
-2.7488902 0.7234513 0.33101568 0.39371273 -0.006632824 0.6543197 -1.019593 0.42730567
0.5224102 0.19968367 0.10615511 0.11444669 -0.6648036 0.7054948 0.7953015 -0.9225314
0.35601577 -0.9828636 0.17855673 0.19237527 0.7054067 0.5410761 -0.7798893 -0.34180886
-0.53799623 -0.5621658 -0.14381155 0.5329227 0.27428544 0.4256125 -0.33251452 -0.046229113
-0.6451565 0.5873696 1.372129 -0.78575265 -0.5841733 0.40801865 0.409479 -0.3629688
-0.38483676 0.24435915 0.973298 -0.48882544 -0.42799577 -0.61354566 0.17026061 -0.7452752

fc1.bias f4 [40]
00000000: 1f33 cbbe 2a5c 8f3e 6155 17bf a0f0 803f
00000010: cbf7 883d 626f 64bf e215 1cbf 87fc 6abe
00000020: a395 333f 884c 513f 1999 173e 4b6d 42bd
00000030: b092 79bf e3f0 b8be 7d72 3fbf 626e 803f
00000040: c0c5 cebf 9e57 203e dbf3 e0be 7eaa 583d
00000050: 92e0 2b3e 6627 893f 11d6 193f 8bce a9be
00000060: f54e f83e 4227 353d a1f6 883f 5df4 0d3f
00000070: 285e c2bd 1417 103f 633e ee3e 9d70 a9bf
00000080: 7a76 943e f7d9 10bf b84e afbc 9984 88bf
00000090: 2a59 9a3d 1af7 af3e 8b0d 9bbf afe3 00bf
-0.3968744 0.28000003 -0.5911465 1.0073433 0.06687888 -0.89232457 -0.6097089 -0.22947894
0.701502 0.817574 0.14804496 -0.04746751 -0.9748945 -0.36121282 -0.7478407 1.0033686
-1.6154099 0.15658423 -0.43936047 0.05289697 0.16784886 1.0715148 0.60092264 -0.33165392
0.4849774 0.044226892 1.0700265 0.55450994 -0.09490615 0.56285214 0.46531972 -1.3237492
0.2899664 -0.5658259 -0.02139984 -1.0665466 0.07536538 0.3436821 -1.2113508 -0.5034742

fc2.weight f4 [1, 40]
00000000: c174 dbbd 1769 56be fa26 20bf d458 84be
00000010: e56f 39be 7ba1 bd3f e3db 413e 90ce 2d3f
00000020: 0293 babe f316 8c3f dbb6 cbbd 90c9 32bf
00000030: 7161 2a3f 2aed 903e 732e 173f c6d2 31be
00000040: 8c3d bdbe 48e1 643c 807b 273f 80cf 29be
00000050: 66be 37be 2da9 c2be a4b9 833e 5b7b c1be
00000060: 739e 27bf 7ee7 58be 0a07 083f b909 11be
00000070: fdd4 233f a7af bc3e dfa1 6ebe 8a78 1cbf
00000080: a061 1b3e 4ab1 b03e 5a2d 05be 0c8d 233f
00000090: 8a63 533e a13b 8d3e 4bd1 2b3f bd1a e2be
-0.107156284 -0.20938526 -0.62559474 -0.2584902 -0.1810909 1.4814905 0.18931536 0.67893314
-0.36440283 1.0944504 -0.09946986 -0.6983881 0.66554934 0.28305942 0.5905525 -0.1736556
-0.3696102 0.013969727 0.6542282 -0.16583061 -0.17943725 -0.38019696 0.2572757 -0.37789425
-0.6547615 -0.21182057 0.5313574 -0.14163865 0.6399687 0.36852762 -0.23303936 -0.6112143
0.1517396 0.3451026 -0.13005581 0.63887095 0.2064344 0.27584556 0.6711623 -0.44161025
