model/saved_models/ANN_24_68.pt (torch, 2447 bytes, 3 tensors)

fc1.weight f4 [40, 3]
00000000: 7085 cdbe 167e b63e a89a 3fbe 3550 8d3e
00000010: a0c7 273e 1b49 6d3e 82a5 863d 7639 873d
00000020: 39dd 713e 9750 193f 76f3 ef3e 175f 21bd
00000030: 240e 88bd c41c acbe d02f 0e3d 2b9e 9bbe
00000040: 3b20 d9be ea29 1fbf 3768 bbbe a55e eabe
00000050: cfde e4be b8ff da3c cb7b febe 398c 603e
00000060: cc25 1cbf dcd0 48bd bef8 2f3e 9288 3b3e
00000070: 7041 f43d 5d21 093f 7916 1f3f 3c6d e93e
00000080: b023 993e 1413 afbe 8a31 993e 3e28 8b3e
00000090: fa2b 863e 9111 efbc 4f2a 2f3f 1c66 ac3e
000000a0: df15 0f3e c9e0 343f de79 c73d 58e7 083f
000000b0: 9914 1bbd a24b 3abc 02e0 0fbe 2a95 e3be
000000c0: 2e28 353f 26bd 103f 1c63 6f3b f1d7 3fbe
000000d0: f057 923e 9ab0 e8bd 991b cdbe 80f7 0fbe
000000e0: c42d 8c3e e654 f93e 242c fd3e 3531 133e
000000f0: 2988 283e dfce 263d a93e ecbe 8be8 e3be
00000100: a904 d8ba 2d2e 23bf 7ea1 843e fcc6 a1be
00000110: f222 813e 1c17 933e 1727 cfbe e55d cfbe
00000120: c067 8dbd ae16 21bd 8db0 043f f206 92be
00000130: 1c48 8fbe 0003 24be 57b8 97bc 792f 1dbf
00000140: 91a6 d93a aebc 433e be4b 683e d87d 183f
00000150: 17a3 403f 09fb db3e d51f a1be 04d1 0bbe
00000160: f71d 013f d6aa 703d fb66 08be 1c6c bc3d
00000170: edac 483d 41e3 533f b74b 903e 37f4 26be
00000180: 9089 283f 6d43 aebe 5e9c c8ba d03b 1f3f
00000190: 26af 983e 77db da3e d2e6 bc3e a9cd fabe
000001a0: 98d1 d33d 64df fbbe ef1a 063f 3214 aebe
000001b0: 7629 0e3f e0c2 ef3e 4786 a43d 357b e13d
000001c0: 9b37 113e e6a8 f23d 9b9d 453e 6ac8 88be
000001d0: 28bf c8be c2da 93be b5c3 12bf 64a8 f23e
-0.40140867 0.3564307 -0.1871134 0.27600256 0.16384745 0.23172419 0.06574537 0.06602757
0.23619546 0.59888595 0.46865433 -0.039397325 -0.06643322 -0.33615696 0.034713566 -0.3039411
-0.42407402 -0.6217333 -0.36602947 -0.45775333 -0.4470124 0.026733264 -0.49703822 0.2192849
-0.60995173 -0.04902731 0.17184731 0.18313816 0.11926544 0.53566533 0.62143666 0.45591152
0.2991004 -0.34194243 0.29920608 0.2717914 0.26205426 -0.029183181 0.6842393 0.33671653
0.13973187 0.70655495 0.09740041 0.53478 -0.03786144 -0.011370571 -0.14050296 -0.4444974
0.70764434 0.5653862 0.003652758 -0.18734719 0.28582716 -0.11361809 -0.40060118 -0.14059258
0.27378666 0.48697585 0.4944774 0.1437424 0.16458191 0.04072463 -0.46141556 -0.44513354
-0.0016480881 -0.63742334 0.2590446 -0.31597126 0.25221974 0.2872857 -0.4045951 -0.40501323
-0.06904554 -0.03932827 0.51831895 -0.28520924 -0.27984703 -0.1601677 -0.018520517 -0.6140056
0.0016605427 0.19114944 0.22685143 0.5956702 0.75248855 0.42964962 -0.31469598 -0.13653952
0.5043635 0.05875667 -0.13320534 0.09200308 0.04899304 0.82768637 0.28182766 -0.16304098
0.65834904 -0.34035817 -0.001530539 0.6220064 0.29821128 0.42745563 0.36894852 -0.4898503
0.10342711 -0.4919387 0.5238485 -0.33999783 0.55532014 0.46828365 0.08033424 0.11009828
0.14181368 0.11848621 0.19298403 -0.26715404 -0.3920834 -0.28877836 -0.57329875 0.47394097

fc1.bias f4 [40]
00000000: e33b 29be cc91 e1bd 415b a5be 384a 873e
00000010: 99b4 29bd a25d 883e c62b ffbe 1bbb c53d
00000020: c76c 80bd 334d 1bbf 7ee8 81be c365 f6be
00000030: 3f61 fabe ffc4 383f 41ce 16bf b7ab e83e
00000040: 5a7f aa3e f0bb 683e 37f5 b6be 53c5 d53e
00000050: 9be5 b53d 9f6b 11be a862 243e 458e 02bf
00000060: 911b 23bf 164b 63be 9163 7ebc 08ae 4dbf
00000070: 98d3 a3be 588e 19bf 176d f4be 134c 0cbe
00000080: dd93 20be e177 34be 45a1 95be 0ed5 ad3e
00000090: 6b73 38be d559 23bf da18 4e3e 9abe 3ebe
-0.16526751 -0.11014137 -0.32296184 0.26423812 -0.041431997 0.26633936 -0.49838084 0.09654828
-0.06270748 -0.6066467 -0.2537269 -0.48124513 -0.48902318 0.7217559 -0.5890847 0.45443508
0.33300287 0.22727942 -0.3573396 0.4175211 0.088816844 -0.1420121 0.1605326 -0.50998336
-0.6371394 -0.22196612 -0.015526668 -0.80343676 -0.3199737 -0.59982824 -0.4773948 -0.13700895
-0.15681405 -0.17623855 -0.292246 0.3395161 -0.18012778 -0.6380895 0.20126668 -0.18627396

fc2.weight f4 [1, 40]
00000000: 429d 95be 3370 8c3e 35da d9bd d5bf 25be
00000010: 2cd5 95bd a19c ce3d e074 8ebe 053a b73d
00000020: 10f3 303e 3626 b8be e5f8 a73e c524 ac3d
00000030: 41b5 d8be 17d7 5fbe d524 2b3e 36e5 f6bd
00000040: 4271 acbd 3083 903e 70dc 01be 0eec 1ebd
00000050: 0d92 0ebd 6ee0 ea3d 47f5 a5be 1592 c4bd
00000060: 1818 eebd 200d 6abe dd1c cbbd fec9 e8be
00000070: 930f 953e a377 273e 9901 653b 8f6b ed3e
00000080: d43f c13e d737 593e 913d 0a3f a4ef 883d
00000090: e7d3 523e fd9d 393f 3d3a a0bd d8ac a93e
-0.2922154 0.2742935 -0.10637323 -0.1618646 -0.0731605 0.10088468 -0.27823544 0.08946613
0.17280221 -0.35966653 0.3280708 0.08405451 -0.42325786 -0.21859394 0.16713269 -0.12055437
-0.0842004 0.28225088 -0.12681746 -0.038799338 -0.034807254 0.11468588 -0.32413694 -0.095981754
-0.11625689 -0.2285657 -0.099176146 -0.45466608 0.29113445 0.16354232 0.003494358 0.46371123
0.3774401 0.21212707 0.5400019 0.06686333 0.20588647 0.72506696 -0.07823608 0.33139682
