model/saved_models/ANN_v2_26_24.pt (torch, 2447 bytes, 3 tensors)

fc1.weight f4 [40, 3]
0	0xbe168ec3	-0.14702897
1	0x3e1ba6ec	0.15200394
2	0xbe9d3100	-0.30701447
3	0x3d056e00	0.032575607
4	0xbeae9279	-0.34096125
5	0xbcb7e640	-0.022448659
6	0xbe614f8c	-0.22003001
7	0xbf095efb	-0.53660554
8	0x3d630e60	0.05543363
9	0x3d989be8	0.07451612
10	0x3e5d81cc	0.21631545
11	0xbea8eef4	-0.32994807
12	0x3ede38dc	0.43402755
13	0x3dccc074	0.09997645
14	0x3d925180	0.07144451
15	0xbc4c4900	-0.012468576
16	0x3c84a6a0	0.016192734
17	0x3e382268	0.17981875
18	0xbd45e220	-0.048311353
19	0xbf0efee1	-0.55857664
20	0xbdc77488	-0.097390234
21	0x3ef4c578	0.47806907
22	0xbdd12ecd	-0.10214005
23	0xbed17a18	-0.40913463
24	0xbef560cd	-0.47925416
25	0xbf0163bd	-0.50542814
26	0x3dcd2660	0.10017085
27	0x3e8cd578	0.27506614
28	0xbedd0aca	-0.43172294
29	0x3f0b931e	0.5452136
30	0x3f02bb45	0.51067
31	0xbed34545	-0.41263786
32	0xbe6f8004	-0.23388678
33	0xbd3ed4f1	-0.046589796
34	0x3ea3ed89	0.32017162
35	0xbd3fe61b	-0.046850305
36	0xbebefcab	-0.37302145
37	0x3e8dddfe	0.2770843
38	0xbef62c06	-0.48080462
39	0x3d584eb0	0.052809417
40	0xbe32500e	-0.17413351
41	0xbe84344a	-0.25821143
42	0x3e7314d0	0.23738408
43	0x3f08ccce	0.5343751
44	0xbe2618aa	-0.16220346
45	0x3ec169ee	0.3777613
46	0xbe4a525d	-0.19757982
47	0x3e10be1a	0.14135018
48	0x3e6705b7	0.22560774
49	0x3c570c27	0.013125456
50	0xbd2cb701	-0.042166714
51	0x3ef71466	0.4825775
52	0x3da0f1ce	0.078586206
53	0x3ede966c	0.43474138
54	0x3ecbc6db	0.39800152
55	0x3eac4090	0.33643007
56	0x3e6c42c3	0.23072343
57	0xbedfb432	-0.43692166
58	0xbecab62a	-0.39592105
59	0xbec389e2	-0.38191134
60	0xbe95e010	-0.2927251
61	0xbd6b1171	-0.05738968
62	0x3ef1f5ee	0.47257942
63	0xbef6a9b8	-0.4817636
64	0x3f002330	0.5005369
65	0xbe40dec0	-0.18834972
66	0xbe8497c7	-0.25897047
67	0x3ee8db3e	0.4547977
68	0x3eb8261c	0.35966575
69	0xbe363929	-0.17795242
70	0x3eb542cf	0.35402533
71	0xbe8d9457	-0.27652237
72	0x3ebb197d	0.36542884
73	0x3e0acd05	0.13554771
74	0xbe8fb176	-0.2806508
75	0xbc367aeb	-0.011137704
76	0x3f0ca560	0.5493984
77	0x3e987ac4	0.29781163
78	0x3c3c41a5	0.01149026
79	0x3cba6e90	0.022757798
80	0x3f100c69	0.56268936
81	0xbd645a50	-0.05575019
82	0xbe4ab52e	-0.19795677
83	0xbd75aef0	-0.059981287
84	0xbe84e796	-0.25957936
85	0x3e3d1946	0.18466672
86	0x3da383af	0.07984101
87	0x3f066de9	0.5251146
88	0xbe4ad7f3	-0.1980894
89	0xbde85a09	-0.11345298
90	0x3e316863	0.17324977
91	0x3ee4da0f	0.44697616
92	0x3ee4d8d1	0.44696668
93	0xbda388f0	-0.07985103
94	0xbdfad85c	-0.122482985
95	0xbee30b39	-0.443445
96	0xbe8816ce	-0.265799
97	0x3df9d2cf	0.12198412
98	0xbf000a60	-0.5001583
99	0xbed4ebd6	-0.4158618
100	0xbe054fe6	-0.1301876
101	0x3e1f44bc	0.15553564
102	0x3e81ca04	0.25349438
103	0xbdbc76a2	-0.09202315
104	0xbea38300	-0.31935883
105	0x3eca5446	0.3951742
106	0xbd14c434	-0.036319926
107	0xbacdd99e	-0.0015705114
108	0x3edccb8d	0.43124047
109	0xbed8e31c	-0.4236077
110	0x3e9b971b	0.30388722
111	0xbea59cbe	-0.32346147
112	0x3e3f2014	0.1866458
113	0xbe9192d3	-0.2843233
114	0x3a1aa016	0.00058984885
115	0x3ca537ae	0.020168152
116	0xbe4de412	-0.20106533
117	0xbe8bcb3c	-0.27303493
118	0x3e2bcd64	0.16777569
119	0xbdf6b2f0	-0.12045848

fc1.bias f4 [40]
0	0x3ebc3461	0.36758712
1	0xbecac237	-0.396013
2	0xbec7d464	-0.3902923
3	0xbe8e663d	-0.27812377
4	0x3e2a4cf6	0.16630921
5	0xbee858e3	-0.45380315
6	0xbe9471a7	-0.2899296
7	0xbe788508	-0.24269497
8	0xbefdcb44	-0.49569142
9	0x3eee6ef8	0.46569037
10	0x3eaa7830	0.3329482
11	0x3edc8bea	0.43075496
12	0xbcf1b972	-0.029507373
13	0xbe962e1b	-0.2933205
14	0xbcc38bf5	-0.023870448
15	0xbbddc396	-0.0067677004
16	0x3e9da5c9	0.30790547
17	0xbf08f342	-0.5349618
18	0x3f144c3d	0.5792883
19	0xbe099d9c	-0.1343903
20	0x3d2cecf6	0.04221817
21	0xbd76f1ba	-0.060289122
22	0x3ea0d257	0.31410477
23	0xbe8fd4e5	-0.28092113
24	0x3daeda06	0.085376784
25	0xbec70ae0	-0.38875484
26	0x3f0ef5e0	0.55843925
27	0xbe21990a	-0.15781036
28	0x3d2a3106	0.04155066
29	0xbeb9943f	-0.36245915
30	0x3e2b134c	0.1670658
31	0xbdc0b328	-0.09409171
32	0x3dbabbc6	0.09117846
33	0xbe609fcc	-0.21935958
34	0xbe50a42f	-0.20375131
35	0xbdbd3375	-0.0923833
36	0x3eb82067	0.3596222
37	0xbee540fd	-0.44776145
38	0x3d9ae840	0.075638294
39	0xbeebc1a7	-0.46046183

fc2.weight f4 [1, 40]
0	0xbdbfa137	-0.09356921
1	0xbd10f01c	-0.035385236
2	0xb9d0fc00	-0.00039860606
3	0xbd957748	-0.07298142
4	0x3d34aea9	0.04411188
5	0xbe05e92f	-0.13077234
6	0x3d2eb604	0.042654052
7	0xbc0c7153	-0.0085719405
8	0x3defb25a	0.1170394
9	0xbd9c2b85	-0.07625488
10	0xbde07407	-0.109596305
11	0x3e08eaae	0.13370773
12	0xbd819ef3	-0.06329145
13	0x3dd978a6	0.10618715
14	0xbd8c902a	-0.068634346
15	0x3e3afda3	0.18260817
16	0x3d715c98	0.058926195
17	0xbc5ae507	-0.013360268
18	0xbd249400	-0.040180206
19	0xbdee6f3e	-0.116423115
20	0xbce02fc2	-0.027366523
21	0xbdb6e08a	-0.08929546
22	0x3d497aa3	0.04918922
23	0x3c551afa	0.01300692
24	0x3dce6a60	0.10078883
25	0xbe17c349	-0.14820589
26	0x3d218086	0.03942921
27	0xbcf83418	-0.030298278
28	0xbe28149d	-0.16414113
29	0xbc70b319	-0.014691138
30	0xbd1321c9	-0.035920892
31	0x3c3212d0	0.010868743
32	0x3d6e60f9	0.05819795
33	0xbd5ebdf4	-0.054380372
34	0xbd2a126f	-0.041521486
35	0xbd5b7f52	-0.05358822
36	0x3db92cd0	0.090417504
37	0x3daf55e4	0.08561304
38	0x3e08e246	0.13367566
39	0x3ce6aa20	0.028157294
