model/saved_models/ANN_v2_minmax_22_500.pt (torch, 2447 bytes, 3 tensors)

fc1.weight f4 [40, 3]
0.27441013 0.13796146 0.3144826 0.14778586 -0.32279676 0.14061126 -0.3084251 0.009188771
0.13014483 0.014781833 -0.42515743 -0.098793715 0.51218224 -0.10932383 -0.4747238 -0.34407952
-0.20382392 0.07705808 -0.0660935 -0.039426688 0.2153456 0.14807853 -0.032924782 0.010557971
0.063477516 0.26902443 -0.50374365 0.43317765 -0.93131125 0.28409353 0.20334965 0.45024803
-0.24808653 0.31626046 -0.32767043 0.48088744 0.1135083 -0.17834622 0.012716202 -0.51164824
-0.5207049 0.11408502 0.6015452 -0.036802057 0.4502789 0.35716 0.20754842 0.6080858
0.13568014 0.19271791 -0.18352124 -0.25050527 -0.5722224 -0.00493078 -0.26486316 0.5553442
0.053170145 0.2943956 0.3581671 0.33825487 -0.19220722 -0.553741 -0.4111045 0.045599177
0.31158084 -0.39321348 -0.6142884 0.31520644 0.34543985 -0.5002753 0.6015431 0.046407055
0.25338858 -0.41211987 -0.4882309 0.38099015 0.016965702 -0.10977071 0.33211333 -0.0034765452
0.4481157 -0.1926325 0.44670272 -0.55147785 0.19280683 -0.20487985 -0.32527465 0.13132638
-0.29574254 -0.47800422 0.16107547 0.49365884 0.16282049 0.086932294 0.5809024 0.36006543
0.11625811 0.50335383 0.33865535 0.4764986 -0.48320684 0.15185435 0.1433824 -0.21516295
-0.27962443 -0.2769193 -0.2231779 -0.52038974 0.51415014 0.4128161 -0.57673484 0.80061036
0.09910921 -0.54006237 0.09421111 -0.52874017 0.18014947 0.41197655 -0.39797312 -0.054565184
00000000: 7c7f 8c3e c545 0d3e dd03 a13e 2d55 173e
00000010: 9e45 a5be 66fc 0f3e e5e9 9dbe 808c 163c
00000020: b044 053e 802f 723c 3cae d9be 5c54 cabd
00000030: 601e 033f 2ce5 dfbd ff0e f3be 312b b0be
00000040: 38b7 50be a0d0 9d3d 075c 87bd e17d 21bd
00000050: 8f83 5c3e e6a1 173e 23dc 06bd 57fb 2c3c
00000060: 8000 823d 92bd 893e 58f5 00bf 76c9 dd3e
00000070: 6a6a 6ebf b574 913e e43a 503e e986 e63e
00000080: 650a 7ebe e4ec a13e 6bc4 a7be e136 f63e
00000090: 0a77 e83d 64a0 36be 9e57 503c 61fb 02bf
000000a0: eb4c 05bf 68a5 e93d defe 193f c1bd 16bd
000000b0: f58a e63e addd b63e 9387 543e 83ab 1b3f
000000c0: bcef 0a3e d857 453e feec 3bbe 3a42 80be
000000d0: 2b7d 12bf 6192 a1bb 259c 87be 0a2b 0e3f
000000e0: f0c8 593d 05bb 963e ae61 b73e be2f ad3e
000000f0: f8d1 44be f8c1 0dbf 4a7c d2be 34c6 3a3d
00000100: 8687 9f3e 4753 c9be 0142 1dbf bd62 a13e
00000110: 7edd b03e 0b12 00bf bbfe 193f 5315 3e3d
00000120: 26bc 813e 6001 d3be 67f9 f9be 2411 c33e
00000130: a8fb 8a3c 77cf e0bd c20a aa3e c0d6 63bb
00000140: 6c6f e53e 7441 45be 38b6 e43e a72d 0dbf
00000150: 276f 453e 06cc 51be 668a a6be 6c7a 063e
00000160: 916b 97be f8bc f4be f8f0 243e dac0 fc3e
00000170: 6aba 263e 8f09 b23d 05b6 143f 7f5a b83e
00000180: bb18 ee3d ccdb 003f 3c64 ad3e a0f7 f33e
00000190: e366 f7be b57f 1b3e d6d2 123e ad53 5cbe
000001a0: ef2a 8fbe 5ec8 8dbe bf88 64be 4338 05bf
000001b0: 589f 033f a25c d33e e5a4 13bf cdf4 4c3f
000001c0: c5f9 ca3d 8741 0abf c1f1 c03d 845b 07bf
000001d0: 1a79 383e 97ee d23e 22c3 cbbe be7f 5fbd

fc1.bias f4 [40]
0.5164147 0.41558143 -0.25249693 -0.35068658 -0.53233916 -0.0712232 0.16286583 -0.15182742
-0.46852288 -0.12386473 0.25885144 -0.5447944 0.562082 -0.4005826 0.2466083 0.25016078
-0.32136118 0.086216204 -0.48648667 0.19569811 -0.5236564 0.33166876 -0.032779854 0.31960475
-0.018005908 -0.35165462 0.34068853 -0.3396577 0.14398517 -0.16885906 -0.36375383 0.096368395
0.253122 0.23940562 0.017014427 0.46799216 0.08891007 0.00023768836 -0.12840913 -0.056686215
00000000: c133 043f 17c7 d43e 4747 81be 318d b3be
00000010: 6147 08bf 78dd 91bd 4dc6 263e a678 1bbe
00000020: 3be2 efbe cbac fdbd 2d88 843e a577 0bbf
00000030: 9be4 0f3f 2a19 cdbe e386 7c3e 1315 803e
00000040: 7489 a4be 1f92 b03d c814 f9be 1665 483e
00000050: 590e 06bf 7dd0 a93e 2b44 06bd 3ca3 a33e
00000060: 2081 93bc 130c b4be ba6e ae3e 9de7 adbe
00000070: d970 133e 64e9 2cbe f13d babe cb5c c53d
00000080: 3599 813e bf26 753e d761 8b3c ab9c ef3e
00000090: 7c16 b63d fc3b 7939 af7d 03be ce2f 68bd

fc2.weight f4 [1, 40]
0.10508199 0.13320437 -0.07862523 -0.0011433661 -0.04428941 0.14548205 0.08263561 -0.105295524
-0.0148705095 0.4538797 -0.09778753 -0.059246074 0.0900073 0.092712834 0.08811211 -0.119967386
0.060013756 -0.15115952 -0.091126256 -0.07843353 0.010744542 0.034651842 0.3595058 -0.03716296
-0.044146806 -0.1041655 -0.044232376 -0.044288754 0.16834837 -0.028071508 -0.06460323 -0.10396497
0.042578626 0.047124416 -0.0582796 -0.12018565 0.20278811 0.46693787 -0.08259923 0.21693015
00000000: 3a35 d73d ba66 083e 4406 a1bd 00dd 95ba
00000010: d068 35bd 3ff9 143e dc3c a93d 2ea5 d7bd
00000020: 70a3 73bc ec62 e83e d444 c8bd 03ac 72bd
00000030: bf55 b83d 3ae0 bd3d 1f74 b43d 76b1 f5bd
00000040: fcd0 753d 90c9 1abe 67a0 babd c2a1 a0bd
00000050: e009 303c 17ef 0d3d 2511 b83e 3038 18bd
00000060: 48d3 34bd b954 d5bd 022d 35bd 2068 35bd
00000070: 8463 2c3e 38f6 e5bc b34e 84bd 96eb d4bd
00000080: ed66 2e3d 8805 413d 97b6 6ebd e523 f6bd
00000090: b0a7 4f3e 7b12 ef3e c929 a9bd f022 5e3e
