model/saved_models/ANN_v2_7_31.pt (torch, 2447 bytes, 3 tensors)

fc1.weight f4 [40, 3]
0.15419428 0.2660412 -0.029617306 -0.26067534 -0.48819354 -0.18121848 -0.2617883 0.4439504
0.2659342 0.081949435 0.053946413 -0.13639848 0.13324684 0.3003024 -0.5736953 -0.32679284
-0.36959493 0.05744636 -0.09671694 0.19891943 -0.14706644 0.022662103 0.19353461 0.52568483
0.42901132 0.028976275 0.44282484 -0.35961798 0.38720888 0.48046508 -0.14323795 0.04997939
0.12213498 -0.38644058 -0.49492505 0.45040682 -0.25101572 0.32065788 0.21483402 0.2606619
-0.5176683 0.09250069 0.5489149 0.17947054 -0.44449705 -0.07313139 -0.15573007 0.06262887
0.36407056 0.163214 -0.2085547 0.21961413 -0.33031505 -0.033596694 -0.5408121 -0.040590823
-0.24572203 -0.3690269 0.33663696 -0.48225844 -0.41572276 -0.42593688 0.18233979 0.10573672
-0.11532672 0.497144 -0.49133295 0.06202656 0.2001813 -0.5340032 0.2088281 -0.2511289
-0.47274253 -0.19277143 -0.49264342 0.53240323 0.12609237 -0.26218858 -0.13378838 0.5146627
-0.23726705 0.013681172 0.25601947 0.101229705 -0.12828746 -0.069137886 0.13751322 -0.4475975
0.4502595 0.09469872 0.3848089 -0.17589295 0.4504516 0.56565744 -0.016687151 0.20725974
-0.34821442 -0.4111731 0.33420634 -0.47813267 -0.2909096 -0.45772016 0.34345576 0.07709226
0.4068051 0.21632929 0.31295344 0.54161966 0.3639204 -0.2901126 0.3810897 0.5375083
0.21701044 0.53317255 0.04459909 -0.18603945 0.21093328 -0.15290277 0.39945304 0.36227685
00000000: 1be5 1d3e 8d36 883e fe9f f2bc 3d77 85be
00000010: 81f4 f9be 5691 39be 1e09 86be 784d e33e
00000020: 8728 883e 1bd5 a73d eaf6 5c3d 0bac 0bbe
00000030: dc71 083e 3cc1 993e b2dd 12bf 6451 a7be
00000040: 8c3b bdbe e04c 6b3d 8813 c6bd 89b1 4b3e
00000050: 9698 16be e0a5 b93c f02d 463e 4893 063f
00000060: 5fa7 db3e a75f ed3c f0b9 e23e d91f b8be
00000070: 3e40 c63e 85ff f53e f8ac 12be 30b7 4c3d
00000080: e821 fa3d 8adb c5be d166 fdbe b99b e63e
00000090: 2285 80be 452d a43e 73fd 5b3e 7a75 853e
000000a0: e985 04bf 0071 bd3d b085 0c3f 20c7 373e
000000b0: 1e95 e3be e9c5 95bd b477 1fbe 9143 803d
000000c0: 7567 ba3e 9221 273e 5d8f 55be 87e2 603e
000000d0: 0e1f a9be b09c 09bd a972 0abf 9042 26bd
000000e0: 8e9e 7bbe 18f1 bcbe ae5b ac3e 94ea f6be
000000f0: 9dd9 d4be 6614 dabe 48b7 3a3e 7e8c d83d
00000100: 6a30 ecbd a989 fe3e fe8f fbbe 900f 7e3d
00000110: 54fc 4c3e 6fb4 08bf 09d7 553e f893 80be
00000120: 4f0b f2be e065 45be c23b fcbe 944b 083f
00000130: 5c1e 013e 953d 86be d2ff 08be efc0 033f
00000140: 22f6 72be ff26 603c fc14 833e 8551 cf3d
00000150: ca5d 03be 2a98 8dbd 44d0 0c3e 802b e5be
00000160: 6a88 e63e 67f1 c13d ac05 c53e 481d 34be
00000170: 98a1 e63e edce 103f 7eb3 88bc e63b 543e
00000180: 2949 b2be 4885 d2be 181d ab3e cecd f4be
00000190: 1af2 94be 4c5a eabe 6fd9 af3e 8ce2 9d3d
000001a0: c248 d03e 6d85 5d3e 6f3b a03e 96a7 0a3f
000001b0: c653 ba3e a489 94be 301e c33e 259a 093f
000001c0: fc37 5e3e ff7d 083f 89ad 363d 2081 3ebe
000001d0: e5fe 573e 8b92 1cbe 1c85 cc3e 5a7c b93e

fc1.bias f4 [40]
0.26710582 -0.3063003 -0.19031097 0.46277413 -0.34991965 -0.45603862 -0.0683308 -0.56039333
0.5123728 0.5214623 -0.27867994 0.5025959 0.14070925 -0.10813308 -0.53209925 0.355513
0.42010683 0.04647051 -0.14551502 -0.40241343 -0.11139339 -0.1619553 -0.38720614 0.45619467
0.20369734 0.41413274 0.34327176 -0.21766506 0.46175396 0.34052604 -0.5652706 0.5801632
-0.0618531 0.52526754 0.21766378 0.5061677 -0.3506409 0.018368475 0.051942006 0.37293363
00000000: 18c2 883e 65d3 9cbe e1e0 42be bbf0 ec3e
00000010: ab28 b3be e57d e9be 05f1 8bbd f075 0fbf
00000020: dd2a 033f 8e7e 053f 23af 8ebe 20aa 003f
00000030: 1616 103e e074 ddbd a837 08bf cd05 b63e
00000040: 3e18 d73e dd57 3e3d e401 15be 2209 cebe
00000050: 3822 e4bd 9cd7 25be e23f c6be 5992 e93e
00000060: 0996 503e 3509 d43e 51c1 af3e 97e3 5ebe
00000070: 046b ec3e 6e59 ae3e 93b5 10bf 9385 143f
00000080: ad59 7dbd ef77 063f 41e3 5e3e 3594 013f
00000090: 3487 b3be 7c79 963c 24c1 543d 28f1 be3e

fc2.weight f4 [1, 40]
0.12582771 0.14388128 0.13063243 0.07517718 -0.06201087 -0.07991075 -0.016937383 -0.048306905
-0.15346514 -0.089939535 -0.13695507 0.027955534 -0.114689365 -0.04136005 0.058373407 0.10208291
-0.08187393 -0.11424435 -0.02695264 0.13006823 0.069318265 0.0020972192 0.062115863 -0.081215665
0.06852474 -0.1141468 0.013839171 -0.00060504675 -0.08149101 -0.05435326 0.00075121224 -0.025003908
-0.042287447 0.123073675 0.106757656 0.09717475 -0.0443357 -0.05455611 -0.14595653 -0.010866851
00000000: fbd8 003e 9d55 133e 82c4 053e 7ef6 993d
00000010: 1cff 7dbd 3fa8 a3bd 44c0 8abc 76dd 45bd
00000020: f725 1dbe 3832 b8bd f33d 0cbe 0103 e53c
00000030: 42e2 eabd 2869 29bd f418 6f3d d810 d13d
00000040: 85ad a7bd f1f8 e9bd c8cb dcbc 9b30 053e
00000050: bcf6 8d3d 8071 093b 346d 7e3d 6654 a6bd
00000060: b356 8c3d ccc5 e9bd b1bd 623c 009c 1eba
00000070: c2e4 a6bd 86a1 5ebd 00ed 443a ffd4 ccbc
00000080: 9a35 2dbd 0d0e fc3d c2a3 da3d 8e03 c73d
00000090: 5a99 35bd 3a76 5fbd a175 15be e00a 32bc
