model/saved_models/ANN_24_91.pt (torch, 2447 bytes, 3 tensors)

fc1.weight f4 [40, 3]
-0.9778451 -0.21916884 0.5295913 0.5694648 0.37091902 -0.41757077 -0.48719838 -0.39446652
-0.11761202 -0.021445228 0.19925845 -0.7546462 0.33580318 0.22918588 0.35353693 0.027880823
0.004942227 0.0981537 0.13725582 -0.60911196 0.37106508 0.8543378 0.53066945 -0.4668744
-0.3485239 0.2229476 -0.273913 -0.6946768 -0.027749239 -0.25149477 -0.57028335 0.318292
-0.013797633 -0.51730794 -0.26786005 -0.72209764 -0.20747791 -0.15072913 0.25147668 0.2989487
0.21523301 0.16062069 -0.048091713 -0.54170775 0.13645388 -0.03440118 0.27167112 -0.2253063
-0.027563144 0.44587225 0.3868289 -0.15850319 0.32103518 0.080418006 -0.41992936 0.26119763
-0.29293776 -0.18404993 -0.08105721 -0.7723313 0.44807687 0.5756765 0.2918092 -0.2143092
-0.45419657 -0.0879067 0.024605002 0.2721813 0.707239 0.666266 -0.74143475 0.05398088
0.019839816 0.7034462 -0.52189386 0.07689047 0.39856294 0.24134405 -0.35935166 0.48885587
-0.7090293 -0.6328363 -0.62398696 -0.34710655 -0.5718969 -0.21550542 -0.58179414 -0.40903512
-0.31592828 -0.5388741 -0.51913816 -0.1411538 -0.5807564 0.18236884 0.6651983 -0.7124118
0.14074084 -0.083304375 0.6550533 -0.14209473 -0.118992075 -0.25603142 -0.33623177 -0.2680223
0.71460164 0.20903754 -0.11648021 -0.7335083 -0.50494206 -0.662566 -0.5691536 0.7352178
-0.3699716 -0.14267409 -0.49746558 -0.07176446 -0.07632945 -0.051177304 0.07576191 -0.05273158
00000000: 0e54 7abf cc6d 60be 4c93 073f 72c8 113f
00000010: 19e9 bd3e d6cb d5be 1172 f9be 84f7 c9be
00000020: 92de f0bd e7ad afbc 680a 4c3e 7e30 41bf
00000030: 65ee ab3e b4af 6a3e cb02 b53e 5366 e43c
00000040: 68f2 a13b cf04 c93d ca8c 0c3e c3ee 1bbf
00000050: 3efc bd3e e2b5 5a3f f4d9 073f 290a efbe
00000060: ba71 b2be 604c 643e 533e 8cbe 57d6 31bf
00000070: 5f52 e3bc ecc3 80be 17fe 11bf 2bf7 a23e
00000080: 780f 62bc 4b6e 04bf f424 89be 64db 38bf
00000090: 1775 54be bd58 1abe 8dc1 803e ce0f 993e
000000a0: 0b66 5c3e c079 243e d1fb 44bd 5cad 0abf
000000b0: 91ba 0b3e 40e8 0cbd 7a18 8b3e b2b6 66be
000000c0: 1acc e1bc 5e49 e43e 700e c63e a94e 22be
000000d0: b95e a43e 32b2 a43d fb00 d7be b2bb 853e
000000e0: f0fb 95be 9677 3cbe 5301 a6bd 81b7 45bf
000000f0: 556a e53e 895f 133f 0468 953e df73 5bbe
00000100: 748c e8be 6e08 b4bd 6e90 c93c 595b 8b3e
00000110: 9d0d 353f 6990 2a3f abce 3dbf 0e1b 5d3d
00000120: 1c87 a23c 0d15 343f d69a 05bf c078 9d3d
00000130: 7110 cc3e e522 773e f1fc b7be 514b fa3e
00000140: f282 35bf 8f01 22bf 9cbd 1fbf f3b7 b1be
00000150: d667 12bf 74ad 5cbe 76f0 14bf 0d6d d1be
00000160: 5ac1 a1be a7f3 09bf 3de6 04bf 9f8a 10be
00000170: 74ac 14bf e6be 3a3e 704a 2a3f 9f60 36bf
00000180: 5e1e 103e 7c9b aabd 93b1 273f 4881 11be
00000190: 1eb2 f3bd 8d16 83be 9226 acbe 383a 89be
000001a0: 22f0 363f f00d 563e 2d8d eebd 33c7 3bbf
000001b0: e243 01bf ed9d 29bf 0db4 11bf 3c37 3c3f
000001c0: eb6c bdbe 2819 12be cfb3 febe 3ff9 92bd
000001d0: 9d52 9cbd 4b9f 51bd 0f29 9b3d 12fd 57bd

fc1.bias f4 [40]
-0.22644725 0.34598708 0.18783899 -0.692979 -0.13965936 -0.48961174 -0.39342493 -0.20183471
-0.61707675 -0.28286794 -0.5783924 0.1878261 0.41734004 -0.12443378 0.40149376 -0.47916764
0.3079397 -0.41720948 -0.7182491 0.6989485 -0.20955175 0.37523714 -0.74746174 -0.4838117
-0.22144833 0.26112103 0.2030346 -0.47796232 0.040952973 0.15314706 -0.06989869 0.41244766
-0.4078278 0.36679193 0.44361016 -0.5318993 -0.56132865 -0.21492949 -0.50330085 -0.53965646
00000000: cae1 67be 3825 b13e dd58 403e 1267 31bf
00000010: dd02 0fbe 64ae fabe fe6e c9be c2ad 4ebe
00000020: bef8 1dbf 11d4 90be 8611 14bf 7c55 403e
00000030: 98ad d53e 23d7 febd 9790 cd3e 7655 f5be
00000040: 46aa 9d3e 7b9c d5be 2cdf 37bf 4aee 323f
00000050: bc94 56be 151f c03e a759 3fbf 2bb6 f7be
00000060: 5ac3 62be a8b1 853e 4de8 4f3e 7ab7 f4be
00000070: 4ebe 273d 95d2 1c3e 0b27 8fbd 572c d33e
00000080: cece d0be 27cc bb3e df20 e33e 8d2a 08bf
00000090: 3cb3 0fbf 7a16 5cbe 53d8 00bf ed26 0abf

fc2.weight f4 [1, 40]
0.47119907 0.09712991 0.27534795 -0.9108703 0.12883078 0.061733395 0.25020358 0.41153133
-0.40422285 0.0751621 -0.17380299 0.2961434 -0.026280282 0.06901976 -0.13662258 0.06833787
-0.036278285 0.3506685 -0.7297119 -0.34797317 0.13941057 -0.020376015 -0.27156708 0.40171504
0.20283735 -0.13892843 -0.12764509 -0.2863972 0.18242602 0.15528746 0.24080078 0.14858781
-0.32881597 -0.28194427 -0.18083341 -0.71363145 -0.27035376 0.24262983 -0.19572851 0.034873176
00000000: 0141 f13e 0cec c63d 68fa 8c3e cc2e 69bf
00000010: 37ec 033e 28dc 7c3d af1a 803e 3cb4 d23e
00000020: 4cf6 cebe 96ee 993d 69f9 31be 1ca0 973e
00000030: bf49 d7bc 3b5a 8d3d cae6 0bbe baf4 8b3d
00000040: 8a98 14bd d28a b33e 66ce 3abf 8a29 b2be
00000050: a5c1 0e3e 9aeb a6bc d70a 8bbe 98ad cd3e
00000060: 98b4 4f3e 4143 0ebe 65b5 02be a7a2 92be
00000070: e3cd 3a3e ad03 1f3e 7b94 763e 6727 183e
00000080: 915a a8be 005b 90be 652c 39be 8db0 36bf
00000090: cf6b 8abe f473 783e 0e6d 48be 2dd7 0e3d
