model/saved_models/ANN_v2_log_7_86.pt (torch, 2447 bytes, 3 tensors)

fc1.weight f4 [40, 3]
00000000: 88e4 2bbe 4f50 b23e eb76 e53d 8f2f bdbe
00000010: 00bc 7e3e e444 ad3e ab4a 4cbe 891a 063f
00000020: 387b 1fbe 5cb9 193f 6fcf d03d e5a6 bbbe
00000030: 5bc0 013f 2d35 103f 6a01 0ebe 2cff 603e
00000040: ecb0 e33e eb64 97be 7840 80bd 567f 10be
00000050: fc98 03bf fff9 c43e e997 99be 23f0 973d
00000060: 8a43 573b a6b0 063f 532f 4b3e e596 10bf
00000070: 4c8a c33d f3c0 28be 22fe 58be 9499 4dbe
00000080: 0160 a7be f4b8 063f 615a d8bd bbee 0a3f
00000090: b82a 18be 0c55 c83e 1480 fc3e 3735 b1be
000000a0: a988 0dbf f4e3 043e 9191 063f 20e1 0d3f
000000b0: 183b 143f 3804 fcbe cd04 ed3e c018 f8be
000000c0: 6ea5 f2be 7a20 d93e 7a74 1e3d 58a4 d63d
000000d0: 64ee 1c3e 6488 eebe 0423 b63e 38b7 83bd
000000e0: 92e0 c9be 0c59 1a3e 1e82 0fbf e8a5 073f
000000f0: cc9f 873e 4400 273e c835 46be 3e16 cfbe
00000100: 488a 353e 035d 46be f9f6 c63e bfe3 00be
00000110: 8405 8ebe 0287 bf3d e519 b33e 905c bebe
00000120: 4b09 933e b3d9 c3be 7fd0 f1be 2366 78be
00000130: ddce ecbe b3ea e0bd 0cc2 81be b0b1 8bbe
00000140: e217 c7be 9d9c 9dbe f61e 293e cb27 55bd
00000150: 9cf0 663e 2820 c03d d2cd 02bf 629b 39be
00000160: 3c1f 08bf 08b1 f43e 106b 0b3f 22b8 973e
00000170: 2395 11bd d4bb fd3e 83a3 7f3d 7bc8 dc3e
00000180: 2049 b73e 19f6 91be 1333 f13e 7cb0 10be
00000190: a031 f33e 6c7a fd3e 59f3 ecbb e5b2 4abd
000001a0: 581b 02bf 69bb f9be e5f5 c7be a0f6 d83d
000001b0: 0123 d13e e6aa 113f 986c 60be 9053 e53e
000001c0: c497 8ebd ea37 cc3e fff8 03bf a2f1 973e
000001d0: 2fb5 91be 5c2c 113d 9f83 a83e d0ff 23be
-0.16786397 0.34826896 0.112043224 -0.36950347 0.24876404 0.33841622 -0.19950359 0.5238424
-0.15574348 0.6004846 0.10195815 -0.36650768 0.50684136 0.5633114 -0.13867727 0.2197234
0.44470918 -0.29569182 -0.062622964 -0.14111075 -0.5140531 0.38471982 -0.2999871 0.07418849
0.0032846653 0.52613294 0.19842272 -0.56480247 0.095478624 -0.16479854 -0.21190694 -0.20078117
-0.32690433 0.52625966 -0.105641134 0.54270524 -0.14860046 0.39127386 0.49316466 -0.34610912
-0.5528665 0.12977582 0.52565867 0.5542164 0.5790267 -0.4922197 0.46292725 -0.48456383
-0.47391838 0.4240759 0.0386853 0.10480565 0.15325314 -0.46588433 0.3557359 -0.064314306
-0.39429146 0.15073031 -0.5605792 0.5298753 0.26489103 0.16308695 -0.19356453 -0.40446657
0.17728531 -0.19371419 0.388603 -0.12586878 -0.27738583 0.093519226 0.34980693 -0.37179995
0.28718027 -0.3825203 -0.47229382 -0.24257712 -0.46251574 -0.10982265 -0.2534336 -0.27284002
-0.3888541 -0.3078355 0.16515717 -0.052039903 0.22552723 0.09381133 -0.51095307 -0.1812568
-0.5317266 0.47791314 0.5446024 0.2963267 -0.03554262 0.49557364 0.062411796 0.43121704
0.35797977 -0.2850807 0.4710928 -0.14129823 0.47498798 0.49507463 -0.0072311577 -0.049487013
-0.50822973 -0.48775795 -0.3905479 0.10593915 0.40847018 0.56901395 -0.21916425 0.44790316
-0.06962541 0.3988641 -0.5155181 0.2967654 -0.28458545 0.035442695 0.3291292 -0.16015553

fc1.bias f4 [40]
00000000: bdfb 823e eb24 91be 8565 07be 734e 59bd
00000010: af9a 883e dba4 00bf 4087 dbbc 4115 b13d
00000020: 3bdc 4d3e a292 e23e 0eef 7abe 1a54 a33e
00000030: e4a5 a5bd 96c8 0bbf 357d 0abe 2649 c63d
00000040: 8a4b 843e 1ec9 35be 16e9 49be bbff ffbe
00000050: de6a cbbe 87fd c53e 36e6 d93e 2344 cf3e
00000060: 0ebe 863e da39 823e 52d5 b9be 7187 f03e
00000070: f63e 24be 708e ebbe 3682 d93e 5399 3b3e
00000080: 0e11 e13e d273 09bf 2998 c23e 7841 b3be
00000090: 1c5c babe 5ab6 a63e 5c56 f2be 8fd8 b7bd
0.25582686 -0.2834848 -0.1322232 -0.05305333 0.26680514 -0.5025155 -0.02679789 0.08646632
0.20103543 0.44252497 -0.24505255 0.31900102 -0.08088282 -0.54602945 -0.13524325 0.09681921
0.25838882 -0.17752501 -0.19717821 -0.49999794 -0.3972997 0.3866999 0.4255845 0.40481672
0.26316875 0.25434762 -0.36295563 0.46978334 -0.16039643 -0.4600711 0.42482156 0.18320207
0.43958324 -0.5369235 0.38006714 -0.35010886 -0.363984 0.32560998 -0.47331512 -0.08976852

fc2.weight f4 [1, 40]
00000000: d517 713d 7cda 4a3d da00 c8bd cb8e 503e
00000010: 5a4a 2a3e e772 0b3e a4ba 73bd 3fcc 913d
00000020: 83c9 00bd 3ff6 f4bc 089f 02bd 40c6 d43c
00000030: 1fef dd3d ae7c ea3d a8dd 3d3e 6aab 99bd
00000040: 2970 0b3e 13c7 9fbd 9849 743d 98ae b53d
00000050: b234 adbd e44b 543e e162 0a3c 72d7 d1bc
00000060: edd2 513e df75 e3bd 4c66 85bd bb0b 283c
00000070: 7493 1bbe 20a6 a7bb 74cc ce3c 07e0 233e
00000080: 2ef0 423e eacc 1ebe a0e1 703d e0e2 bc3b
00000090: c7cf 593d e46d d8bd 1e5d f8bd 355a ebbd
0.05886062 0.04952477 -0.097657874 0.20366971 0.16629925 0.1361805 -0.059504166 0.07119035
-0.031442177 -0.029902576 -0.031889945 0.02597344 0.10836624 0.11449562 0.18541586 -0.07503398
0.13617004 -0.07801642 0.059640497 0.08871192 -0.084573165 0.20732075 0.008446426 -0.025615428
0.20490618 -0.111064665 -0.06513652 0.010256703 -0.15192968 -0.005116239 0.025243975 0.16003428
0.19036934 -0.15507856 0.058808923 0.0057643503 0.053176668 -0.10567835 -0.12127136 -0.11491815
