model/saved_models/ANN_nonscale_24_102.pt (torch, 2447 bytes, 3 tensors)

fc1.weight f4 [40, 3]
00000000: 5eec a93e 86f0 edbe 7f86 f1be 1029 833d
00000010: 20e5 e63e cf84 8bbe 5517 21bd c59d 713e
00000020: 1d1b bbbe 68ff a43e 16ae 0bbe bcb3 963e
00000030: 6a6b e73c e2e9 073f 75e5 fd3e cbf3 d03c
00000040: 42f3 423f b215 8abe 8c23 e0be 899d 4f3f
00000050: 0154 50be 9c0b 41be f4a9 63bf 2c34 5e3e
00000060: 6783 58be 46de 4abd ea3f c93e 956e 2ebf
00000070: 4a21 d73d 2469 8abc e2ce 053e 661a 613d
00000080: dfe7 a53e 2f0e b5be 01b0 963e ab76 963e
00000090: 6fb7 123e 9f3f 913e 7174 c9be b76b 07bf
000000a0: 9758 0f3f f286 c2be ebd1 0fbf 0412 98be
000000b0: 5f6b 3c3e c331 2b3e fa4a eb3e 3ac7 df3e
000000c0: 490b 52be 9d2f 40bd 03a6 47be 53ee 7dbe
000000d0: 3e82 943e 5643 713e c5e6 a2bd f88c 0bbe
000000e0: 352a 86bd d96a dfbd 95a0 8d3e 33d7 193e
000000f0: 3144 ff3e 4586 fcbe ede5 b83e d5b3 1bbf
00000100: 0368 31be 6834 573e 6f3e a6be cac2 543f
00000110: 8bbe 7fbd 8eb9 9cbd 6c94 bd3e 3141 8dbe
00000120: 5d9c 803e da36 c13e 12f0 01bf 948b b3be
00000130: b27b 343f 71a6 dc3d 5b05 053e 0512 64bc
00000140: a1e7 443e 5681 d8bd 4d0a ff3e a2a1 d93e
00000150: 22fa af3d d15d 453e 3191 68be 7a99 cc3e
00000160: 259f 073f 0b5a ac3e a7e2 46bf 8515 4c3e
00000170: 7397 f63b fac7 713e d645 7abe 16bf 05bf
00000180: 6bd6 e43d 9007 c43e ab4c 8fbe 836c 0ebf
00000190: fff6 523f 8070 27be 4a59 193d 6e4a 653d
000001a0: b7eb 68bb d392 c7be 6cb4 b43e 7451 b6bd
000001b0: 7b28 a0be 4721 d7bc 89af 04bf e049 1cbe
000001c0: 7ecb 003e efe5 4abe 5eb1 9dbe a0c9 ee3e
000001d0: 09d4 f2be b2aa 793e a77c d8bb 466b c13e
0.33188146 -0.46472567 -0.47172925 0.064043164 0.45096684 -0.27249762 -0.03932889 0.2359534
-0.36544123 0.3222611 -0.13640627 0.29434 0.028249461 0.5309125 0.49589124 0.025506875
0.7615243 -0.26969677 -0.4377712 0.81099755 -0.20344545 -0.18852085 -0.889312 0.2169959
-0.21143876 -0.049528383 0.39306575 -0.68137485 0.10504396 -0.016895838 0.13067201 0.054956816
0.32403466 -0.35362384 0.29431155 0.2938741 0.14327787 0.28368852 -0.3934665 -0.52898735
0.5599455 -0.3799358 -0.56179684 -0.29701245 0.18400334 0.16718201 0.4595564 0.43706685
-0.20512117 -0.046920408 -0.19496922 -0.24797945 0.29005617 0.23560843 -0.07954172 -0.13627994
-0.06551019 -0.109090514 0.27661577 0.15023498 0.49856713 -0.4932119 0.3611292 -0.60821277
-0.17324834 0.21016085 -0.32469508 0.83109725 -0.062437575 -0.07652579 0.370273 -0.275888
0.25119296 0.3773716 -0.50756943 -0.35067427 0.70501244 0.10773934 0.12990324 -0.013920312
0.19228984 -0.10571544 0.49812546 0.4250613 0.08592631 0.1927407 -0.22711636 0.39960843
0.5297721 0.33662447 -0.77689594 0.19930084 0.0075253784 0.23611441 -0.24440703 -0.522447
0.111737095 0.3828702 -0.2798818 -0.55634326 0.82408136 -0.16351509 0.03743867 0.055979185
-0.0035540888 -0.38979205 0.352939 -0.08902255 -0.31280884 -0.026260985 -0.51830345 -0.15262556
0.12577626 -0.19814275 -0.30799383 0.46638203 -0.47427395 0.24381521 -0.0066066566 0.37777156

fc1.bias f4 [40]
00000000: 0b2d 05bf e218 27bf 38ab f0be 711e de3e
00000010: f33a dd3e 8bbb 4ebe 5ab4 523e 04e1 0e3f
00000020: 7bc2 683e 954a 613d 11b4 debc 4e0b 81be
00000030: 9c9e 3b3e 070f 87be 3b98 343f a570 233f
00000040: 63fb a9bd c33e 8abe b70a 223f 3a89 3abd
00000050: 1c10 43bd 9975 2bbc e593 0ebe 26e1 23bf
00000060: e24b ebbe f169 55be 6fbd b5bd b742 18be
00000070: 1cde b73e 1910 853e 3705 173e 27c0 a2be
00000080: 8a05 1cbf fbda 883e 56d0 93be e433 e33e
00000090: 596a 34be e8ae 933b 864e c5bd fc75 3bbd
-0.52021855 -0.65272343 -0.4700563 0.433826 0.43209037 -0.2018873 0.20576611 0.55812097
0.22730438 0.055002768 -0.027185472 -0.25203937 0.18322223 -0.26378652 0.70544785 0.63843757
-0.08299901 -0.27001008 0.632976 -0.045541026 -0.047622785 -0.010465049 -0.13923605 -0.64015424
-0.45956331 -0.20841195 -0.08874022 -0.148692 0.35911644 0.25988844 0.14748083 -0.31787226
-0.6094595 0.2672957 -0.28869885 0.44375527 -0.17618693 0.0045069344 -0.09634118 -0.045766816

fc2.weight f4 [1, 40]
00000000: b33b ecbd 7b49 393d 474e d6bc 2eb3 303e
00000010: 851b aa3d a5ed df3e 765c c43e 0237 ee3e
00000020: 2f13 dd3c 805d 40be 4561 bb3c 023f c23e
00000030: 0857 f13e baf4 76be 8230 ab3e 1309 1f3e
00000040: 4883 37be adec d53e 2676 603e 6212 083d
00000050: 3b99 4abe 5f93 8bbe 3833 fc3e 5a0d cb3b
00000060: 47f9 a33c f9b9 563e d8cb 143b 427b a73d
00000070: 00c8 dd3d 1317 b23d 2ae8 fabe 952d c7bd
00000080: fda5 f03c f0b8 dd3e 871f 953b ff7c 983e
00000090: 4574 a8bc dbde c1bd 5d5e 65be 3c9b c03d
-0.11534824 0.045236092 -0.026160372 0.17255852 0.0830603 0.43735996 0.38351792 0.46526343
0.026986687 -0.18785667 0.02287353 0.37938696 0.47136712 -0.24116793 0.33435446 0.15530805
-0.17921174 0.41782132 0.2192007 0.033220656 -0.19785015 -0.27260873 0.49257827 0.00619666
0.020016326 0.2096938 0.0022704508 0.081778064 0.108291626 0.08695807 -0.49005252 -0.09725491
0.029376024 0.4330516 0.0045508775 0.29782864 -0.020563254 -0.094663344 -0.22399278 0.094046086
