model/saved_models/ANN_v2_minMAXX_16_21.pt (torch, 2447 bytes, 3 tensors)

fc1.weight f4 [40, 3]
0.27465987 -0.330369 0.328707 0.18996029 -0.47532246 0.40692398 -0.2841188 0.106269
-0.56150395 -0.20632787 -0.071969904 0.28835115 -0.1519579 0.287234 0.024251735 -0.5518205
0.04379156 0.29054067 0.09794724 0.09754282 -0.40305156 -0.46394467 0.13680607 0.5825571
0.52799416 -0.09010488 -0.19334699 -0.31408668 -0.30377105 0.5382086 0.06421882 -0.47985038
0.43479276 0.33528534 -0.012667564 0.046154212 -0.26531345 -0.2992481 0.0023942275 0.09289434
-0.4242945 -0.19964223 0.2073155 0.19782877 -0.2825322 0.5737705 -0.12599668 0.00033038855
0.49414212 0.18881626 -0.07847796 0.47252285 -0.29746324 0.13285579 0.30655986 -0.4771647
-0.43357605 -0.43182057 0.0986467 0.19393319 -0.23123293 0.20923382 -0.5595456 0.040287185
-0.5157216 0.40764862 0.46004444 0.0896339 0.18205684 -0.14621052 0.08511692 0.434366
0.21133268 -0.0355813 -0.2566265 0.18192554 -0.5379125 -0.46387655 -0.5715292 -0.484589
-0.2465862 -0.2070307 -0.5567998 -0.15111098 -0.44824845 0.33140337 0.53745615 0.116526514
0.19203702 -0.20508942 0.37081018 -0.29643813 0.103232816 0.22511506 -0.485322 0.112323225
0.5297073 -0.38814473 -0.5332371 0.5528345 -0.4747666 0.0044601047 -0.3738707 0.35866794
-0.36944067 -0.28274533 0.050350487 0.21440113 0.16871929 0.16283548 -0.52761 0.40392965
0.07794265 0.40939924 -0.17942438 -0.075589456 0.21525922 0.09115568 -0.14365575 -0.23086545
00000000: 38a0 8c3e 2026 a9be 494c a83e f384 423e
00000010: 775d f3be 5758 d03e 0578 91be 90a3 d93d
00000020: b9be 0fbf 9d47 53be f564 93bd c3a2 933e
00000030: da9a 1bbe 5610 933e 93ab c63c 1c44 0dbf
00000040: c75e 333d bfc1 943e 9098 c83d 88c4 c73d
00000050: c65c cebe 288a edbe e416 0c3e 7622 153f
00000060: a02a 073f e888 b8bd c1fc 45be f8cf a0be
00000070: e187 9bbe 0ac8 093f 2885 833d f3ae f5be
00000080: 289d de3e 85aa ab3e 9d8b 4fbc 330c 3d3d
00000090: 2ad7 87be 0c37 99be 79e8 1c3b 633f be3d
000000a0: 213d d9be 036f 4cbe 844a 543e a093 4a3e
000000b0: 0fa8 90be a0e2 123f 4605 01be 0038 ad39
000000c0: 3200 fd3e 0d59 413e 0db9 a0bd 84ee f13e
000000d0: 1a4d 98be 590b 083e 6af5 9c3e ee4e f4be
000000e0: aefd ddbe 9617 ddbe 4807 ca3d 6c96 463e
000000f0: 53c8 6cbe 6441 563e 613e 0fbf 2d04 253d
00000100: 5506 04bf 52b7 d03e f28a eb3e fa91 b73d
00000110: 1c6d 3a3e 36b8 15be c851 ae3d 3865 de3e
00000120: 9867 583e b2bd 11bd 8c64 83be b04a 3a3e
00000130: a2b4 09bf 3a81 edbe bd4f 12bf 0d1c f8be
00000140: 1881 7cbe dbff 53be 6f8a 0ebf d6bc 1abe
00000150: d280 e5be b4ad a93e ba96 093f 74a5 ee3d
00000160: 5aa5 443e f602 52be d5da bd3e bdc6 97be
00000170: ba6b d33d 9084 663e 207c f8be b809 e63d
00000180: e69a 073f e8ba c6be 3a82 08bf 9086 0d3f
00000190: 9c14 f3be 1226 923b fb6b bfbe 53a3 b73e
000001a0: 5427 bdbe ffc3 90be 503c 4e3d f88b 5b3e
000001b0: c0c4 2c3e 58be 263e 7311 07bf decf ce3e
000001c0: 65a0 9f3d c79c d13e 06bb 37be a5ce 9abd
000001d0: ea6c 5c3e d4af ba3d 7e1a 13be fe67 6cbe

fc1.bias f4 [40]
0.092895985 0.009051167 -0.37465954 0.023589335 0.4029222 0.1539052 -0.10602039 0.23654121
0.0123711005 -0.17927712 -0.23773545 0.15964915 0.35629648 0.028412478 -0.23986477 -0.40313733
0.08685433 0.24716958 0.5507666 -0.23462224 -0.1046677 0.48227182 -0.34167463 -0.5763193
0.32316142 -0.50766814 -0.21024963 0.52107275 0.1606294 0.21868369 0.5374027 -0.13404477
0.038190164 0.20866539 0.17733487 -0.40966418 -0.10848257 0.011055322 0.1443992 0.013946884
00000000: 4040 be3d 594b 143c 60d3 bfbe 6c3e c13c
00000010: d24b ce3e 5399 1d3e 3821 d9bd dc37 723e
00000020: 28b0 4a3c 6c94 37be ec70 73be 117b 233e
00000030: 7e6c b63e 49c1 e83c 1c9f 75be 0468 cebe
00000040: afe0 b13d 061a 7d3e 0aff 0c3f d040 70be
00000050: 055c d6bd 55ec f63e faef aebe a989 13bf
00000060: 6a75 a53e 8af6 01bf ae4b 57be 0665 053f
00000070: 097c 243e 9eee 5f3e 3993 093f 0843 09be
00000080: 4a6d 1c3d 61ac 553e 4697 353e 81bf d1be
00000090: 1c2c debd 6221 353c 62dd 133e 7981 643c

fc2.weight f4 [1, 40]
0.10698897 0.1475875 0.103650734 -0.019193495 -0.06445296 0.098258436 -0.078700304 0.06410443
0.111688256 0.09256841 0.0387785 -0.050192397 -0.026218386 -0.095212124 0.12516396 0.0037532002
-0.079061545 -0.008057875 -0.13726228 -0.12025544 0.07420743 0.045137834 0.042301126 -0.15460154
0.101496845 -0.08110811 -0.11826265 -0.06105816 -0.006250825 -0.02146173 -0.109113194 0.072037145
0.114037395 0.124433324 0.012869965 0.12709834 -0.060379237 -0.0962385 0.007266787 -0.14544132
00000000: 081d db3d 2d21 173e d646 d43d ad3b 9dbc
00000010: eaff 83bd b83b c93d a02d a1bd 2f49 833d
00000020: d0bc e43d 8294 bd3d 34d6 1e3d 8b96 4dbd
00000030: f1c7 d6bc 93fe c2bd fb2a 003e 40f8 753b
00000040: 05eb a1bd 2d05 04bc 7c8e 0cbe 7c48 f6bd
00000050: 11fa 973d 73e2 383d f243 2d3d de4f 1ebe
00000060: 94dd cf3d 021c a6bd b033 f2bd 1f18 7abd
00000070: b8d3 ccbb 83d0 afbc bd76 dfbd 3688 933d
00000080: 708c e93d e6d6 fe3d 8cdc 523c 1126 023e
00000090: 3850 77bd b118 c5bd 3a1e ee3b 92ee 14be
