model/saved_models/ANN_v2_minMAXX_7_35.pt (torch, 2447 bytes, 3 tensors)

fc1.weight f4 [40, 3]
0	0x3ed15c2e	0.4089064
1	0x3c0a92c0	0.0084578395
2	0xbe61c82e	-0.22049019
3	0xbe9a652b	-0.3015531
4	0x3ef6bce2	0.4819098
5	0x3ec423a7	0.3830845
6	0x3ef34eed	0.47521153
7	0xbd3ec646	-0.046575807
8	0x3d12728b	0.035753768
9	0xbeb97ac5	-0.36226478
10	0xbd638896	-0.05555018
11	0x3c4e46d6	0.012590131
12	0xbef080bf	-0.46973225
13	0x3ed6d3b1	0.41958383
14	0xbe3256f1	-0.17415978
15	0xbecd01b0	-0.4004035
16	0x3f098178	0.5371318
17	0xbe4e4d10	-0.20146585
18	0xbe9e5697	-0.30925438
19	0xbf1458b7	-0.5794787
20	0x3e5c3aaa	0.21506754
21	0xbe8bd477	-0.27310535
22	0xbea07995	-0.3134276
23	0xbf08048f	-0.53131956
24	0xbdfe9a90	-0.12431824
25	0xbe61729f	-0.2201638
26	0x3e29ea19	0.16593207
27	0x3edb6e63	0.42857656
28	0xbe3c400d	-0.18383808
29	0x3ebec010	0.37255907
30	0x3f0b05d9	0.543058
31	0x3ee0105c	0.4376248
32	0x3e9b4dcb	0.3033279
33	0xbe3a5455	-0.18196233
34	0x3d8b2b6b	0.06795391
35	0xbec587a9	-0.38580063
36	0xbee94872	-0.45563084
37	0x3e63bd47	0.22240172
38	0xbd6ac825	-0.05731978
39	0xbd66fea0	-0.056395173
40	0xbd141130	-0.036149204
41	0x3d9c5388	0.0763312
42	0x3f02e419	0.511293
43	0xbe404c9c	-0.18779224
44	0xbd84d91c	-0.06486723
45	0xbe061ce4	-0.13096958
46	0x3d4adbd6	0.04952606
47	0x3ee631c6	0.4495985
48	0xbea71fd2	-0.32641464
49	0x3f06b9b3	0.52627105
50	0xbe44d6e6	-0.19222602
51	0x3f02ccda	0.5109383
52	0xbddeda80	-0.10881519
53	0x3ed5f7b4	0.41790545
54	0xbdbfa74c	-0.09358081
55	0x3e2a06d0	0.16604161
56	0xbe9cfc43	-0.3066121
57	0xbeee4a4e	-0.46541065
58	0x3e0c5748	0.1370517
59	0x3e1985f4	0.14992505
60	0x3e9c3f90	0.30517244
61	0x3d8ce6b0	0.06879938
62	0x3f0c6372	0.5483924
63	0xbf0a1b65	-0.5394805
64	0xbefc25d7	-0.4924762
65	0xbec3e6df	-0.38262078
66	0x3ef5f7a7	0.48040506
67	0x3f0d2b23	0.55143946
68	0x3ec60a57	0.38679764
69	0x3f041086	0.5158771
70	0xbda724b3	-0.08161297
71	0x3ee38f9d	0.44445506
72	0x3f02d186	0.5110096
73	0x3e40a264	0.18811947
74	0xbec90a1f	-0.39265534
75	0x3eb7fd58	0.35935473
76	0x3ea8bb80	0.3295555
77	0x3f1381e2	0.5762006
78	0x3ed5742f	0.41690204
79	0x3ede35ba	0.43400365
80	0x3e8dd398	0.27700496
81	0x3ee65ca6	0.4499256
82	0xbed87225	-0.42274585
83	0xbdacc25c	-0.084355086
84	0xbf056932	-0.5211364
85	0x3eee5f49	0.46557072
86	0x3e30b07c	0.17254823
87	0x3d5b5b68	0.05355397
88	0x3d670c3b	0.05640815
89	0x3efc3d62	0.4926558
90	0xbe8f1077	-0.2794225
91	0x3ea7bdeb	0.32762083
92	0xbe06751b	-0.1313061
93	0xbd0f2120	-0.0349437
94	0xbf092b0c	-0.5358131
95	0x3cee23e0	0.02906984
96	0x3ec7e8a8	0.3904469
97	0x3f112411	0.5669566
98	0x3f13cb8a	0.5773245
99	0x3e5d0dc0	0.21587276
100	0x3e17a988	0.14810765
101	0xbec4857e	-0.38383096
102	0xbc7375a3	-0.01485959
103	0x3f0f2c1a	0.5592667
104	0x3f16dd10	0.58931065
105	0xbbebf600	-0.0072009563
106	0xbf01f50e	-0.5076455
107	0x3cf9c860	0.030491054
108	0x3eca0448	0.3945639
109	0x3e9eff55	0.31054178
110	0x3ec9eba3	0.3943759
111	0x3ea15cec	0.31516206
112	0xbed6f17c	-0.41981113
113	0xbe9e6665	-0.30937496
114	0xbea3cd7e	-0.31992716
115	0xbedcddf1	-0.43138078
116	0xbd73d8b0	-0.05953282
117	0xbd79d196	-0.060990892
118	0x3ddda85c	0.108231276
119	0xbed33fbc	-0.41259563

fc1.bias f4 [40]
0	0xbed59a7e	-0.4171943
1	0xbd9a7b15	-0.07543007
2	0x3e8d31a5	0.27576938
3	0x3e9943c1	0.29934505
4	0x3d83d6d0	0.064374566
5	0xbe132ce8	-0.14372599
6	0xbcaed019	-0.021339463
7	0xbef225ed	-0.4729456
8	0xbd4c0117	-0.049805727
9	0x3e187fcc	0.148925
10	0x3ef6bea5	0.48192325
11	0x3df8c952	0.12147774
12	0x3edc7f10	0.4306569
13	0xbed58104	-0.41699994
14	0xbca12eb5	-0.019675592
15	0xbe84d716	-0.25945348
16	0x3ed475fb	0.41496262
17	0xbf0a73c4	-0.54082894
18	0xbdc886fc	-0.09791371
19	0xbe5b7c7c	-0.21434206
20	0xbf0ee1fb	-0.5581357
21	0x3e66fbb1	0.2255695
22	0x3e8a25ae	0.26981872
23	0x3e71c333	0.23609619
24	0xbee3d976	-0.44501847
25	0xbeff822b	-0.49903998
26	0xbf102222	-0.5630208
27	0xbd9cd48a	-0.07657726
28	0x3edccbef	0.4312434
29	0xbd785712	-0.06062991
30	0xbd2dfe3c	-0.042478785
31	0xbeacfd8e	-0.33787197
32	0x3eaff4eb	0.34366545
33	0xbe2a4acc	-0.16630095
34	0x3edc8fde	0.43078512
35	0xbf09e055	-0.5385793
36	0x3ee33837	0.44378826
37	0xbf0eed7e	-0.55831134
38	0xbeecbf1a	-0.4623955
39	0x3dd3385b	0.10313483

fc2.weight f4 [1, 40]
0	0x3d6f1164	0.058366194
1	0x3dff5c69	0.12468798
2	0x3d15e8e5	0.03659906
3	0xbdc09366	-0.09403114
4	0x3dfd7361	0.123755224
5	0xbe089227	-0.13337003
6	0x3d0cacaf	0.03434437
7	0x3d59a3f0	0.05313486
8	0xbdea7c3d	-0.11449478
9	0xbd84de47	-0.064877085
10	0x3d6809a4	0.05664982
11	0xbe0323b1	-0.12806584
12	0x3d80b587	0.062846236
13	0x3ccf7200	0.025322914
14	0x3cf82e20	0.030295432
15	0xbbc1d2dd	-0.0059150294
16	0x3d6887a1	0.05676997
17	0xbdb5a588	-0.08869463
18	0xbe11ad6a	-0.14226308
19	0x3d5677bc	0.05236028
20	0x3e1c08a1	0.15237667
21	0x3c6610d0	0.014042094
22	0x3ddc0bf6	0.10744469
23	0xbb70abc1	-0.0036723467
24	0xbddfd728	-0.1092971
25	0xbe2ba542	-0.1676226
26	0xbb802184	-0.0039102454
27	0x3deebdf0	0.116573215
28	0x3d38f9ec	0.04516022
29	0x3be54532	0.006996774
30	0xbe1caf34	-0.1530121
31	0xbe1dc21d	-0.1540608
32	0xbd1b5855	-0.037926037
33	0xbdf21faa	-0.11822446
34	0xbd88e1f1	-0.0668372
35	0x3d1c0c24	0.038097516
36	0xbe1926a4	-0.14956146
37	0xbe1a4efb	-0.15069191
38	0x3e047397	0.12934719
39	0xbda921a1	-0.08258367
