model/saved_models/ANN_nonscale_19_376.pt (torch, 2447 bytes, 3 tensors)

fc1.weight f4 [40, 3]
00000000: 04ec a63e 06b9 1abf 7476 e13d e4c7 3d3e
00000010: 7c80 05bf e84a 0b3f 302f 33bf 54b1 5bbf
00000020: 98bd 433f addd 943e 2e0f bbbe 61f0 ab3e
00000030: d7e4 aa3e 3ae1 a0bc 7520 1bbe d0d8 8dbe
00000040: 05e2 a7be 6948 02bf e387 17bf c5b5 18bf
00000050: 1dfb 093f 8f77 363e 8ec0 e23c e391 e3be
00000060: a7e7 64bf 4e7e 583e cf33 fe3e 21d3 6a3e
00000070: a865 07bf 0982 a83e 72f5 5bbe fb65 2c3e
00000080: 1431 2f3e 2032 09bf bf1f 32bf 1a71 cdbe
00000090: da7a 093f 5fbf 99bd 643d 083f 72c1 e5be
000000a0: 2872 cd3e b0db ca3e d91e d03d 50b1 10bf
000000b0: 4703 813e 26d0 9cbe 59e3 94be bf44 113e
000000c0: 4aba 2bbf 3955 97be bd47 423e 0017 0bbf
000000d0: ff55 383f 535f 54bf 8d06 1bbe fb82 5cbc
000000e0: a41a 423e 106c 6c3e ef43 89bd 0445 003f
000000f0: 1673 e9bc 18c7 fc3d 9b36 8dbe a71a ee3e
00000100: 759c c5be dd11 69be afb6 763d 4fdf ecbe
00000110: 926e b03e 1f6e a63e c5c7 893e 305c a93c
00000120: 3f1e fb3d 939d a6be ccd8 83bd a98e febd
00000130: ce9f 013f 4cfd 993e 318b b53e f6e1 553e
00000140: 0fc4 f03d 73e5 e9bf 9bfe abbf c1ed 503e
00000150: 9b66 a1bf bf9f cb3e 9561 f2bf 3aa6 b23e
00000160: 2d58 e7be 481a ad3d e8a1 79bf 7310 0cbd
00000170: fa3e ee3d a888 a3be a087 55bf a39c 253f
00000180: 2e06 c33e ba7b 60bd 5de8 6b3e ab8d 49bf
00000190: aab1 aebe 2337 963f 96dd bc3e 483c 473d
000001a0: 0189 d73e 6801 7bbf 8926 fa3e 8b15 243f
000001b0: 98d1 0c3e 093a 8fbd 6e7e afbe a98c cabc
000001c0: 3f02 9dbe 3bc1 183f bf86 b2bd 89dd 963e
000001d0: 72f3 adbe 8cd4 2abf 8d13 3dbf 7fe3 e4be
0.3260194 -0.60438573 0.11008921 0.18533283 -0.52149177 0.5441117 -0.6999388 -0.85817456
0.7646117 0.29075375 -0.3653502 0.33581832 0.33377716 -0.019638646 -0.151491 -0.27704477
-0.32789627 -0.5089174 -0.5919172 -0.5965236 0.53898793 0.17819045 0.027679708 -0.4444724
-0.89415973 0.21141931 0.49648902 0.22932102 -0.5288949 0.3291171 -0.21480349 0.16835777
0.17108566 -0.5359211 -0.6957969 -0.40125352 0.5370308 -0.07507204 0.53218675 -0.4487415
0.40126157 0.39620733 0.10162134 -0.5652056 0.25197813 -0.30627555 -0.29079702 0.14186381
-0.6708113 -0.29557207 0.18972678 -0.5433197 0.7200622 -0.82957953 -0.15139218 -0.013458963
0.18955475 0.23088098 -0.067024104 0.5010531 -0.02849726 0.123426616 -0.27580723 0.4650471
-0.3859593 -0.2276072 0.060232814 -0.4626412 0.34459358 0.3250589 0.26910225 0.020673841
0.12261628 -0.32542095 -0.06437835 -0.12429554 0.5063447 0.30076063 0.35457757 0.20886979
0.11756145 -1.8273147 -1.3437074 0.20403196 -1.2609438 0.39770314 -1.893603 0.34892446
-0.4518446 0.084522784 -0.97512674 -0.034195375 0.116331056 -0.31940198 -0.8341007 0.64692134
0.38090652 -0.054805495 0.23037858 -0.78731793 -0.34119922 1.1735576 0.36887807 0.048641473
0.42096713 -0.9804902 0.48857525 0.6409537 0.13751829 -0.06993491 -0.34276146 -0.024725275
-0.30665776 0.59669846 -0.08717107 0.29465893 -0.33974797 -0.6673057 -0.7385796 -0.44704816

fc1.bias f4 [40]
00000000: 9b90 53be cad7 e83e 1f6b d13e 3c62 c0be
00000010: c2da 5a3f fda2 143f 368d a23e ce12 093d
00000020: 7ebf f73e 2021 03be 53d9 b5be a6ab 003d
00000030: 5042 083f e79f 4d3f c933 c73e 8531 9c3e
00000040: 2e8b a73e d160 333d 07ba 38bf 5939 863d
00000050: 3833 d13b dd40 2c3f 37e4 ecbe 10a9 303f
00000060: 7055 3a3f eb59 3d3e 14f6 a7be 9600 7cbf
00000070: 115e 0dbf 2240 c2be bf6b a43e cd86 633e
00000080: d4fa bd3e d1ed 203f c146 c6be 536a 573f
00000090: 5e4f b73e dd56 4d3f d90e 953e 073f af3d
-0.20660631 0.45477134 0.4090204 -0.37574947 0.8549005 0.580612 0.3174836 0.0334652
0.48388284 -0.12805605 -0.35517368 0.031413697 0.53226185 0.80322117 0.38906696 0.3050653
0.32723373 0.043793503 -0.72158855 0.06553907 0.0063842796 0.67286474 -0.46267864 0.6900797
0.7278662 0.18491332 -0.3280493 -0.98438394 -0.5522166 -0.37939554 0.32113454 0.22219391
0.3710543 0.6286288 -0.38725856 0.8414661 0.3580274 0.8021067 0.2911289 0.085569434

fc2.weight f4 [1, 40]
00000000: 21e2 a8bd be0b f53d b70f 223f 8a5b a4bd
00000010: 2884 853e 8b05 083f 6bfa 763f c644 11be
00000020: 766f 073f df90 87be c8ea 563d 7309 303e
00000030: 64e9 263e 5546 d43e d138 913d 68e9 1e3e
00000040: 4f91 1a3f 745b 02bf 33b4 fe3c 9b1d 203e
00000050: a7ea f6bd 3cb5 733e 85ad 8dbd cc66 863e
00000060: 000b 843e 7045 c23d eaeb 97bd e7f8 98bf
00000070: 61ae c0bf 8781 d5bb afcf b03e f2e0 803e
00000080: 1653 613e d9b0 2a3f bf44 3b3d 6a19 023f
00000090: 7bcb c23d 689f af3e b9d0 823d f813 ae3e
-0.08246256 0.1196513 0.6330523 -0.08025272 0.2607739 0.5313346 0.9647586 -0.14186391
0.5290445 -0.26477715 0.05247 0.17191105 0.16299969 0.4145991 0.07090915 0.15518725
0.60377973 -0.50920796 0.031091785 0.15636294 -0.12056475 0.23799604 -0.06917862 0.26250303
0.25789642 0.094859004 -0.07418044 -1.1950959 -1.5053216 -0.006515685 0.3453345 0.2517162
0.22004351 0.666761 0.04571986 0.5082003 0.09511467 0.34301305 0.06387467 0.3399961
