model/saved_models/ANN_30_15.pt (torch, 2447 bytes, 3 tensors)

fc1.weight f4 [40, 3]
00000000: 46a3 f7bc dbac 75be 73f8 543e 4f16 de3e
00000010: 4ac6 3abe 12f9 00be 8aed 0c3e 3792 033f
00000020: 967e a0bb 48dd 473e af09 933e e501 fe3d
00000030: e564 063f 8dfd dcbe 0b2b 193d a69a e83d
00000040: 680c e53e 5d66 c23e de57 f33e 00a0 4b3e
00000050: b467 30be 2434 a1bc 6ef7 87be 239e 62be
00000060: dc2f 473d 2e38 d6be f223 5cbe 181d c0bd
00000070: 196a 7d3e 4c4f ebbe af35 b33d ffd8 d03e
00000080: e6e9 39bd 299b b8be b54e 3f3e ca18 1e3f
00000090: dba7 883e 6a35 bebd 8c2c b1be e04f 1bbe
000000a0: 97ca 57be 2d70 e2bd f5e0 cf3e ef6b 1dbd
000000b0: ad12 a93e 2247 c3be c995 b23d 267d 1c3f
000000c0: c9fe 93bd 981b e33e f590 0b3f ce50 48bd
000000d0: b454 aa3e 1762 d3be a8ed f53d da1e c63e
000000e0: d1f8 53be d453 a0be 3ac1 6b3d 4954 a9bc
000000f0: 2b4c eb3e 3664 923e 8f57 4d3e 8a70 863e
00000100: 3f85 b93e cfad 9a3e ad43 f53e 9c8a 9d3e
00000110: cd98 9f3e c7f4 f63e 8539 ddbd dae0 05bf
00000120: 8df9 fc3d bbb6 02bf e2ef e83d c2d1 c73e
00000130: c07d d1bd 4290 2ebe 6682 ccbd 712d aa3e
00000140: 1449 b23e 8c7e ecbe 5314 aa3e b46f 193e
00000150: b1ae 813e 9305 ebbe c752 2f3e 7692 bebe
00000160: 2c29 c1be d480 153f 6f0f 1d3e 1144 63be
00000170: 6178 e9be d250 103f d67d 003e 2aed f1be
00000180: 1050 973e 2c0f a7bd b42a df3b bee6 ed3e
00000190: 30c9 6b3d 599e ee3e 9074 4a3e c046 b4be
000001a0: 538c 783e a91b bebe da2b c0bc 6dab 983e
000001b0: 635c 223e f709 54be f6d8 8f3e a9dc 8b3e
000001c0: fd91 b7be b4d5 b33e 3a9e 913d 9817 f43e
000001d0: 5612 1ebf 3076 17bf 8e31 78be 1ba0 243e
-0.030229222 -0.2399172 0.20797901 0.43376395 -0.18239704 -0.12595013 0.13762489 0.5139498
-0.0048979027 0.19518006 0.28718325 0.12402705 0.524977 -0.43162194 0.037394565 0.11357622
0.44736028 0.37968722 0.47527975 0.19885254 -0.1722706 -0.019678183 -0.2655596 -0.22130637
0.048629627 -0.41839737 -0.21498087 -0.09380549 0.24747504 -0.45958936 0.08750474 0.40790555
-0.04538908 -0.36055878 0.18682368 0.61756575 0.26690564 -0.09287532 -0.346043 -0.15167189
-0.21073376 -0.11056552 0.40601316 -0.03843301 0.3302206 -0.38140208 0.087199755 0.6112846
-0.07226331 0.4435699 0.5451806 -0.048905186 0.33267748 -0.41285774 0.1200822 0.38695413
-0.20700385 -0.31313956 0.057557322 -0.020670073 0.4595655 0.2859208 0.20052932 0.26257735
0.3623447 0.3021073 0.47903195 0.30769813 0.31171265 0.48233625 -0.108019866 -0.5229622
0.123522855 -0.51060075 0.11373879 0.3902722 -0.10229063 -0.17047217 -0.09985809 0.33237794
0.3482138 -0.46190298 0.3321863 0.14984018 0.2532859 -0.4590269 0.17121421 -0.37221116
-0.37726724 0.583997 0.15337919 -0.22193934 -0.45599654 0.5637332 0.12548003 -0.47251254
0.2955327 -0.08157191 0.0068105105 0.46465105 0.057564914 0.46605185 0.19771028 -0.35210228
0.2427228 -0.37130478 -0.02345841 0.29818287 0.15855555 -0.20706926 0.28095216 0.27316788
-0.35853568 0.3512398 0.071102574 0.4767425 -0.6174673 -0.59164715 -0.24237654 0.160767

fc1.bias f4 [40]
00000000: 3b38 b13e a68c 0cbf 05ba f2be e3b4 983e
00000010: 3d98 83be 5325 c8be ea25 d03e 8d83 20bd
00000020: 3bed d03e 6d5a 65be 098c c43d 4ed3 073f
00000030: 30f3 f93d ba9f bc3e 3237 103e 6f15 0abf
00000040: f193 c4bc de8a 6f3e 5f2d debe 94cc 04bf
00000050: c3c2 243e 6858 6ebd ec40 e3bb afca e8be
00000060: eadd fa3e 562d 9fbc d9e8 d9bd c256 983e
00000070: cfa0 d43e a6d3 ccbe c8b3 8bbe 1da4 7f3d
00000080: 8748 103e 9480 1e3b 8f58 923e 0513 b1be
00000090: 0041 d63e 074f ef3e be52 a03d 04ba e93e
0.34613213 -0.5490211 -0.47407547 0.29825506 -0.25702086 -0.39090976 0.40653926 -0.039187957
0.40805992 -0.22397776 0.09597022 0.530568 0.122045875 0.36840612 0.14083555 -0.53938955
-0.023996325 0.23392817 -0.4339399 -0.5187466 0.1608992 -0.05818978 -0.0069352295 -0.45467135
0.48997432 -0.019430798 -0.10640115 0.2975369 0.41528937 -0.40005225 -0.272856 0.06241237
0.14090167 0.0024185525 0.2858319 -0.34584823 0.41846466 0.4673998 0.07828282 0.4564973

fc2.weight f4 [1, 40]
00000000: 6989 91bd 706c 293c 3cc1 403c 1739 c2ba
00000010: 07d0 aabd a024 a93d c0c4 793d f160 0dbd
00000020: ef2d 1fbe 1704 b33d 0900 6ebd 4c3c e7bd
00000030: 09cb 02bd 92dd a23d 1b6e 0dbe 33fc 06be
00000040: a7e1 a53d a78c e13d 5308 0f3d 7c6a 0bbd
00000050: 13dc 9c3d 3d8a 1d3e a457 55bd 7ff4 a33d
00000060: 3c06 983d cc68 433d 1397 07bd ffd9 003e
00000070: c7a8 05bd b023 ba3c d213 dbbd f8fb 773d
00000080: 19be cdbc 1946 c03d eba4 ebbc f7dc 7d3c
00000090: f1ae b93d ceb5 aebd 871a 7e3e 4273 383d
-0.07106287 0.010340795 0.011764821 -0.001481804 -0.08340459 0.08258939 0.06097865 -0.03451628
-0.15544866 0.087410145 -0.058105502 -0.112907976 -0.03193191 0.079524174 -0.13811533 -0.13182144
0.080996804 0.110131554 0.034920048 -0.0340371 0.07659163 0.15384765 -0.052085534 0.08005618
0.07423064 0.047707364 -0.03310306 0.12583159 -0.03263166 0.022722095 -0.1069714 0.06054303
-0.02511506 0.0938837 -0.028765162 0.015494577 0.090665706 -0.0853077 0.24814807 0.045031793
