model/saved_models/ANN_v2_log_34_1000.pt (torch, 2447 bytes, 3 tensors)

fc1.weight f4 [40, 3]
000000 f1 dd 3b 3f c9 2b 00 3f 35 7c 48 be f6 73 6a 3e
       0.7338553 0.5006681 -0.19578631 0.22895798
000010 a2 cc 38 3e b3 1b 4f 3f a4 13 71 3e 59 f8 02 bf
       0.18046811 0.8090164 0.23542649 -0.511602
000020 40 25 4c bc 2c de 81 3e 20 2d 9d be c0 52 e3 be
       -0.012460053 0.25364816 -0.3069849 -0.4439907
000030 2b b8 de 3e be d1 d1 3d d0 c9 45 3e 0b 4c 22 3d
       0.43499884 0.10245083 0.19315267 0.0396233
000040 91 8a c4 b9 11 cb 91 3d 1e 2b 04 3f 5e 92 d5 3e
       -0.00037487273 0.0711881 0.5162829 0.41713232
000050 a8 37 7c 3f e1 bc cb 3e 52 0b 10 bf 10 e8 4e be
       0.98522425 0.3979254 -0.56267273 -0.20205712
000060 6d 42 0a 3f 81 05 14 3e 89 d9 0b 3f 29 19 11 be
       0.5400761 0.14455225 0.5462881 -0.14169754
000070 ee 43 2e 3f 4f a1 50 3e 81 e8 0a bf 74 9a e8 be
       0.680724 0.20374034 -0.5426102 -0.45430338
000080 fe b0 d8 be 4b c1 04 bf f8 6d dd be 62 68 99 3d
       -0.42322534 -0.5185744 -0.43247962 0.074906126
000090 4e 06 88 bd 32 ed a4 3c e0 c0 84 3d a4 84 8e 3d
       -0.066418275 0.020132635 0.064821005 0.06958893
0000a0 db 85 84 3e eb 2f 23 bd b2 4b d3 3e 74 da b4 be
       0.25883374 -0.03984062 0.41268688 -0.35322917
0000b0 d8 a4 36 bf 4b 23 4c 3f 57 f0 36 bd 54 5f de 3f
       -0.7134528 0.7974135 -0.0446628 1.7372842
0000c0 d9 7b 70 be 4c ef a2 3e dd 44 32 3f 57 69 6d be
       -0.23484744 0.31823194 0.6963633 -0.23184715
0000d0 82 ef 07 bf 9c 00 50 bf b6 5d 0b bf b8 6f c4 3e
       -0.53099835 -0.8125093 -0.54439867 0.38366485
0000e0 78 8c e4 3e d5 5f 43 3e 73 b5 f0 3d 2f 1a af 3d
       0.4463842 0.19079526 0.11753359 0.08549916
0000f0 61 14 2f 3f 39 1e 2a be 83 08 be 3f 94 16 c1 3d
       0.6839047 -0.16613092 1.4846348 0.094281346
000100 23 0d 1c 3f f9 3f 8c 3e 37 c4 8f 3f 64 7c 3a bd
       0.60957545 0.27392557 1.1231755 -0.045528784
000110 bb 53 cb 3f fb ed 97 bf 8a b3 2b be 3c 0f 9c 3f
       1.5884928 -1.1869501 -0.16767707 1.2192149
000120 88 60 7c 3f e5 e1 fd bd 6a eb 55 3e 15 d1 08 3e
       0.98584795 -0.123966016 0.20890585 0.13361008
000130 63 8c 0a 3f aa 39 ad 3e 55 68 8e 3f e4 f0 19 bd
       0.54120463 0.33833057 1.112559 -0.037583247
000140 c1 8c a8 3f 74 af 72 3e e0 04 7e 3e e2 b3 c2 be
       1.3167955 0.23699743 0.24806547 -0.38027865
000150 a4 32 a8 3d 2d d1 b7 3e 86 4b 04 3f 55 0d 8c be
       0.08212784 0.35901776 0.5167774 -0.27353922
000160 a0 9e ee be b0 0f 06 be f1 b7 98 be ce 61 26 3d
       -0.46605396 -0.13091922 -0.29827836 0.040620618
000170 7e 54 16 be 51 9b 71 3e e5 92 a6 be c7 2f 74 3e
       -0.14680669 0.23594405 -0.32533947 0.2384635
000180 20 6a a3 3d bc c9 55 3e 28 b9 d6 be be e4 c1 3f
       0.07979226 0.20877737 -0.41938138 1.5147932
000190 2c 39 c7 3e ec 32 21 3f c0 f6 47 bc ac 4d a3 bd
       0.38910806 0.62968326 -0.012204826 -0.07973799
0001a0 fd 95 81 be 4a 39 e0 3d b0 23 d9 3e b0 12 e9 3d
       -0.25309744 0.10948427 0.4241004 0.113805175
0001b0 45 57 f4 be 77 67 cc 3e d8 12 73 3e 40 08 93 bc
       -0.4772283 0.39922687 0.23737657 -0.01794827
0001c0 ea 61 03 3f 45 68 f7 be 68 bc 88 3d ca 1d f0 bd
       0.5132128 -0.4832174 0.06676561 -0.11724432
0001d0 27 8f fc be 81 16 52 3f b0 9f 10 bd f6 56 d2 3f
       -0.49327967 0.8206559 -0.03530854 1.6432788

fc1.bias f4 [40]
000000 e8 80 76 3e e9 d5 9d 3e 65 68 84 be 4a 2b f9 3e
       0.24072611 0.30827263 -0.25860897 0.4866584
000010 78 d3 67 3e 2b 6c 4a 3e 33 7e 05 ba c2 1f 8c 3d
       0.22639263 0.19767825 -0.00050923525 0.06841995
000020 82 ee 1c be 82 25 46 3b 57 13 e3 be 52 ea bf 3e
       -0.15325359 0.0030234759 -0.44350693 0.3748346
000030 49 8e ca 3e 63 74 34 3e 9f 7c b3 3d 99 c4 fb 3b
       0.3956168 0.17622523 0.08764004 0.0076833484
000040 c5 18 45 3e 0e 42 96 3e 47 ba a1 3e 51 91 95 3d
       0.1924773 0.2934727 0.3158743 0.073031075
000050 27 be 10 be e9 95 9e 3e 0c 38 fe 3b a1 b5 0a bb
       -0.14135037 0.30973747 0.007758146 -0.0021165388
000060 5c a9 ce 3c 67 68 ba 3e 9c 46 d1 3b d4 bb 05 bf
       0.025227241 0.36407778 0.006386591 -0.5223973
000070 30 c9 9c 3d c3 ac 98 be 42 c7 95 3e 3e 08 9c 3e
       0.07655561 -0.29819307 0.29253584 0.30475038
000080 ca 69 c9 be a0 61 15 be 1c bb 29 be c0 7c 44 3d
       -0.39338523 -0.14588022 -0.16575283 0.047970533
000090 8a a9 c2 3e 21 9e 00 bf e4 b0 9e 3d 4a fc 31 be
       0.38019973 -0.50241286 0.07748583 -0.17381397

fc2.weight f4 [1, 40]
000000 4d 06 47 3e 29 92 f5 3d c8 c1 ff 3c 53 d4 3d bd
       0.19435997 0.119907685 0.031220332 -0.046345066
000010 40 2e d0 3d 70 00 06 3e eb f5 27 3f 01 57 8a bb
       0.101650715 0.13086104 0.65609616 -0.0042217975
000020 82 15 4f be b7 46 e8 bc b0 87 2a bc 0b 1a 08 bd
       -0.20223048 -0.028354032 -0.010408327 -0.03322796
000030 8b fe 29 3d a5 65 0e 3e 7d a2 fa bc 9c 53 92 3f
       0.041502517 0.13905962 -0.030595059 1.1431766
000040 f9 07 f4 3c 3b 6c ac bd 44 ed 1b bc 79 1e 65 3d
       0.029788958 -0.08419081 -0.009517018 0.055937264
000050 70 33 84 bf 16 8f 2d 3e a4 97 39 3f 62 cd 57 bf
       -1.0328197 0.16949114 0.7249701 -0.84297764
000060 1b 10 d0 3e a4 a2 15 3d 1e d3 d6 3e 04 a9 a9 bd
       0.40637287 0.03653206 0.41957945 -0.0828419
000070 aa e0 97 3c f6 ba 0f be 4d 93 e9 bc f5 01 fc 3d
       0.018539745 -0.14036164 -0.028512621 0.12305061
000080 85 7d 17 3e 2f 86 7f bf 68 14 f1 3c 98 95 f3 3d
       0.14793976 -0.9981412 0.029428676 0.11893767
000090 88 a2 cf bd 84 4d f6 bd 1a 6c 15 bc 13 fa 98 bf
       -0.10138422 -0.12026504 -0.009120012 -1.1951317
