model/saved_models/ANN_v2_34_683.pt (torch, 2447 bytes, 3 tensors)

fc1.weight f4 [40, 3]
000000 ea 7f e9 3d b9 d3 ea be 6a 0d 0e bf 24 9d 8e be
       0.11401351 -0.45864657 -0.5548922 -0.27854264
000010 24 00 30 be 0f 2a e7 be 52 98 06 bf 18 7b c6 3e
       -0.17187554 -0.45149276 -0.5257617 0.38765788
000020 b1 44 7c 3d 3c cf c7 3e 89 09 97 3e 37 fb e8 3e
       0.061588947 0.39025295 0.29499462 0.45504162
000030 09 3d 5d bf 9a 01 18 3f cb d0 66 bf 99 a3 be be
       -0.8642126 0.59377444 -0.9016234 -0.3723419
000040 ae de 65 be 84 98 fa 3e 66 3b 05 bf 7c 4f b2 be
       -0.22448227 0.48944485 -0.5204376 -0.34826267
000050 72 fc a4 be 96 fe 30 3f c2 46 83 bf 4a 41 78 3e
       -0.3222385 0.6913847 -1.0255969 0.24243656
000060 ef fa 2c 3e 26 65 58 3e ba 4e 81 3e c3 92 0a be
       0.16892599 0.21132335 0.25255376 -0.13532548
000070 80 55 7e 3e 8e a9 b9 be 04 2d a7 be 11 af 0c 3c
       0.24837303 -0.36262172 -0.32651532 0.008586661
000080 5b 08 46 3e e3 ee b9 3e 8a 54 36 3f 49 3a 6f be
       0.19339125 0.3631507 0.71222746 -0.23362078
000090 0a 2b b2 be 37 a5 e9 be ce e9 e3 3e 57 83 13 3f
       -0.3479846 -0.4563386 0.44514316 0.57622284
0000a0 3d 6d dc 3e 08 b8 62 3e e3 6b 3b 3e 59 19 54 3d
       0.43052092 0.22140515 0.18302874 0.051781986
0000b0 c2 34 c6 bd 91 f1 4d be 86 e0 0c 3f 9f 07 80 3e
       -0.096780315 -0.20111682 0.55030096 0.25005814
0000c0 98 00 ba 3e 5c 00 79 be 7c 36 60 be e6 cd 66 3e
       0.36328578 -0.24316543 -0.21895784 0.22539482
0000d0 bb 5a b7 3e b2 e2 24 be 9a e5 7d be a2 ee d1 be
       0.3581141 -0.16102102 -0.24794617 -0.41002375
0000e0 bb 0a f8 be e8 3c 07 3e 50 1a 7c bd 44 b1 48 3e
       -0.48445687 0.13206828 -0.06154853 0.19598871
0000f0 28 06 ca 3d 40 92 a7 be ae 12 07 bf 98 0f c1 bd
       0.098644555 -0.32728767 -0.5276288 -0.094268024
000100 c7 1b a7 be 0e 82 c5 be 1a 6b cb be ed 39 85 3e
       -0.3263838 -0.38575786 -0.3973015 0.26020756
000110 1e 66 b3 3e a6 02 06 bf e0 5e 77 3f ce 31 16 bd
       0.35038847 -0.5234779 0.9662914 -0.03666859
000120 b9 a0 85 3e 58 25 aa bc 57 51 5e be 8c 46 10 3f
       0.26099184 -0.02076976 -0.21710716 0.56357646
000130 a2 5d 1d 3f b2 93 af be 59 8d 81 3e 1f 8d 47 3f
       0.61471 -0.3429237 0.25303152 0.7794971
000140 93 1a b1 bd 80 3e 34 3e 90 62 6e bd 3c e0 84 3e
       -0.08647647 0.17601967 -0.058199465 0.25952327
000150 5c 82 3c 3d fe 09 88 be b6 1b 24 bf 76 80 d7 be
       0.046022758 -0.26570123 -0.64104784 -0.42090195
000160 20 2e 92 3d 28 f1 83 3d 18 4b da 3d 30 e5 b6 3d
       0.07137704 0.06442481 0.10658854 0.08930433
000170 d6 d3 4b be a1 ad ba be 57 28 92 be b6 d8 bb be
       -0.19905028 -0.36460593 -0.28546402 -0.36688775
000180 db 79 16 bf 2e c1 e9 be 7e 9a e5 3e b0 1e ff 3e
       -0.58779687 -0.45655197 0.4484443 0.498281
000190 40 f7 7b be a2 8f 18 be 10 5d 0b 3f 00 d6 8e 3b
       -0.24606037 -0.14898542 0.5443888 0.004359007
0001a0 c4 1d b8 be 1e 2e 0e 3f 7d 89 1d 3f ed ae 71 be
       -0.3596021 0.5553912 0.61537915 -0.23601885
0001b0 73 ca c8 3e d7 73 24 3f 78 6a 81 3e e2 bc ca be
       0.39216956 0.6423926 0.25276542 -0.3959723
0001c0 b4 d2 54 be d4 d6 3b 3e 01 42 30 bf 26 78 6e 3e
       -0.20783502 0.18343669 -0.68850714 0.2328802
0001d0 23 e3 1e bf 96 ba bb 3e cb 96 97 3c 3a 70 2f be
       -0.62065333 0.3666579 0.01850452 -0.17132655

fc1.bias f4 [40]
000000 d8 3d 83 3e 0c 50 d4 bd 54 fe 9f be 0f 15 dc be
       0.2563312 -0.1036683 -0.31248724 -0.42984816
000010 df f2 58 3d 5d fa 0b bf 87 50 12 bf 80 52 7d be
       0.052965995 -0.546789 -0.57154125 -0.24738503
000020 0f 33 41 bd 79 f6 0f 3f 4e 63 5a 3e e4 33 57 3e
       -0.047167834 0.5623546 0.21326944 0.21015888
000030 0a 3f ec be 86 69 5c be 02 dd 02 3c c4 c6 2f 3e
       -0.46141845 -0.21524629 0.007987263 0.17165667
000040 f4 1c c0 be b9 68 47 be 90 26 3b bd 20 ee c3 be
       -0.3752209 -0.19473542 -0.045691073 -0.38267612
000050 ea 57 48 be 28 73 90 be ac b3 89 3e 30 bc a7 3d
       -0.19564787 -0.28212857 0.2689489 0.08190191
000060 c2 a9 95 3d 8b 72 3c be a8 32 b2 3e c3 d0 aa be
       0.07307769 -0.1840307 0.34804273 -0.33362398
000070 c7 1c 73 3e 08 95 50 be 78 c3 79 be 85 96 75 3e
       0.23741446 -0.20369351 -0.24390972 0.239832
000080 74 3d ca 3d 8c 08 b8 be 94 5f ca be c5 dd f3 3d
       0.098750025 -0.3594402 -0.39526045 0.119075336
000090 7e af f4 3c b4 b6 af be 7d 9c 24 3e 92 1b 0f 3f
       0.029868837 -0.3431908 0.1607532 0.55901444

fc2.weight f4 [1, 40]
000000 bd f6 c6 bd ba f0 71 bd aa f5 c8 3d 31 c1 e2 bd
       -0.0971503 -0.059067465 0.09812482 -0.110720046
000010 ad 16 3f bf 8a 9d 54 bd 74 5d 85 bd de e0 31 3f
       -0.74643975 -0.051908053 -0.065119654 0.69483745
000020 07 a1 9c bd 7f 3e 19 bd ab 70 be bd b7 41 07 3d
       -0.07647901 -0.037413117 -0.092988335 0.033021655
000030 a9 c9 9b bd ae 6d 64 bc 83 dc 92 bd 18 62 6a 3d
       -0.07606823 -0.013942165 -0.071709655 0.057222456
000040 ce 0b 15 bd ce b6 58 be 6b 9f 0d be f8 32 2a 3d
       -0.03638821 -0.21163484 -0.13830344 0.041552514
000050 cd 14 01 3e 3e c9 25 bd a3 bf 05 be 9e 2d 6c 3e
       0.12605591 -0.040475123 -0.13061385 0.23064277
000060 fc 4d fa 3d 03 83 2f 3e 39 96 e0 3c b8 2e 88 bd
       0.122219056 0.17139821 0.027415382 -0.06649536
000070 6f 5d 90 bd 14 9e 7c bd 60 a2 64 3d 5f 0e cf bd
       -0.07049071 -0.061674193 0.055818915 -0.10110163
000080 a8 b3 db bd 73 90 08 3e 68 4f b1 bc 65 d0 c5 3d
       -0.10727626 0.13336353 -0.02164431 0.09658889
000090 d5 cd a6 3d 30 73 45 3d 15 26 c7 bd bf 2f 50 3c
       0.08144728 0.048205554 -0.097240604 0.012706696
