model/saved_models/ANN_v2_log_log_7_42.pt (torch, 2447 bytes, 3 tensors)

fc1.weight f4 [40, 3]
0	0xbf077065	-0.52905875
1	0xbef4aebc	-0.47789562
2	0xbf0a34e8	-0.5398698
3	0x3e833d7b	0.25632843
4	0x3e9f69c0	0.31135368
5	0xbedef0a3	-0.43542966
6	0xbebffd31	-0.37497857
7	0x3dd38f5a	0.103300765
8	0x3e8e57e9	0.27801445
9	0x3caa454b	0.020784995
10	0x3f043a61	0.5165158
11	0x3dabb31a	0.0838377
12	0xbe926df3	-0.2859951
13	0x3b10327a	0.0022002743
14	0x3eebcd11	0.4605489
15	0x3efffeed	0.4999918
16	0xbdb8404c	-0.08996639
17	0x3e65b7ec	0.22433442
18	0xbe6ef7d7	-0.23336731
19	0x3f08fe98	0.5351348
20	0x3d7658b5	0.06014319
21	0x3f115774	0.5677407
22	0x3e708dc6	0.23491582
23	0xbd40414a	-0.046937265
24	0x3e43801c	0.19091839
25	0x3e10b60c	0.14131945
26	0xbdef336e	-0.11679731
27	0x3e47b830	0.19503856
28	0x3d8c0be8	0.068382084
29	0xbed4954c	-0.41520154
30	0x3d911df8	0.07085794
31	0xbf0f71cf	-0.56033033
32	0x3ed58e0c	0.41709936
33	0x3e9cc78a	0.30620986
34	0xbe072eff	-0.13201521
35	0x3e81af9c	0.25329292
36	0xbdd3967a	-0.103314355
37	0x3c9cc912	0.019138847
38	0xbec6211d	-0.38697138
39	0x3af513a0	0.0018697865
40	0x3eff5423	0.4986888
41	0xbef47f7c	-0.47753513
42	0xbe6508ea	-0.22366682
43	0x3ebc152a	0.36734897
44	0xbec06fea	-0.37585384
45	0xbec07eff	-0.3759689
46	0x3e46b853	0.19406252
47	0x3e14a064	0.14514309
48	0xbf0185de	-0.5059489
49	0x3e9e6bef	0.30941722
50	0x3e86b5fb	0.26310715
51	0x3e71d774	0.23617345
52	0xbf0a5210	-0.5403147
53	0xbe66b152	-0.2252858
54	0xbdc7aff3	-0.097503565
55	0x3dd13a34	0.102161795
56	0x3b3ae07d	0.0028515153
57	0x3e399b06	0.18125543
58	0xbee8fc59	-0.45505026
59	0xbeed7a36	-0.46382302
60	0xbe26e507	-0.16298304
61	0xbe934fc2	-0.28771788
62	0x3f07d2b9	0.5305591
63	0xbf02361e	-0.50863826
64	0x3ecd5ee4	0.40111458
65	0x3eb579bc	0.35444438
66	0x3e5ffde0	0.2187419
67	0xbe8cfd85	-0.2753717
68	0xbec653ec	-0.38735902
69	0xbe8bb175	-0.27283826
70	0xbe872f34	-0.264032
71	0x3eebe7f8	0.46075416
72	0x3ebd7098	0.36999965
73	0xbe296d87	-0.16545688
74	0xbb130ae3	-0.002243691
75	0x3f0963ce	0.53667915
76	0xbedb2ca6	-0.42807502
77	0x3e257ad8	0.16160142
78	0xbe4d9d2d	-0.20079489
79	0x3d0a3b9c	0.033748254
80	0x3f08e722	0.5347768
81	0x3ce0e5ea	0.027453382
82	0x3ecc8a57	0.39949295
83	0x3ea3e4cc	0.32010496
84	0xbee61cb4	-0.44943774
85	0xbf00907b	-0.5022046
86	0x3e1fe509	0.15614714
87	0xbea9a593	-0.33134136
88	0x3d817fbe	0.06323193
89	0xbe666aae	-0.22501633
90	0xbc22c4f1	-0.00993465
91	0x3eaae2c8	0.33376145
92	0xbec53ce7	-0.38523027
93	0xbeb81d65	-0.35959926
94	0xbe49c6fc	-0.19704813
95	0xbeb96b80	-0.36214828
96	0x3e81b024	0.25329697
97	0xbed04298	-0.40675807
98	0x3e697c67	0.22801362
99	0x3efce698	0.4939468
100	0x3e229738	0.15877998
101	0xbe25e6e0	-0.16201353
102	0x3e7a0fab	0.2442004
103	0xbe9f4ffc	-0.3111571
104	0x3f0b6d37	0.54463524
105	0xbed3b0c0	-0.41345787
106	0x3ed97016	0.42468327
107	0xbe7b0c8d	-0.24516506
108	0xbf073747	-0.5281872
109	0x3e2433a5	0.16035326
110	0xbd855e83	-0.06512167
111	0xbe8a8633	-0.2705551
112	0x3ebf3dc8	0.37351823
113	0x3ee63680	0.44963455
114	0xbeb12f4f	-0.34606406
115	0x3f0b41da	0.54397357
116	0x3f061385	0.52373534
117	0x3e2cd000	0.1687622
118	0xbf11b17d	-0.5691145
119	0xbd43ae50	-0.04777366

fc1.bias f4 [40]
0	0xbebb9a00	-0.3664093
1	0x3dbb5263	0.091465734
2	0x3e837c00	0.25680542
3	0x3f101e07	0.5629582
4	0xbec4fcb5	-0.3847405
5	0xbdd0a245	-0.101872005
6	0x3ef27a78	0.4735906
7	0xbd3c3951	-0.0459531
8	0x3dcfd3f0	0.10147846
9	0xbe49e6ec	-0.19716996
10	0xbe7a5b5e	-0.24448916
11	0xbe5e571c	-0.21712917
12	0x3ecb7033	0.3973404
13	0x3ec9388a	0.39300948
14	0x3df72294	0.12067142
15	0x3ec8792f	0.39154956
16	0x3e1821ca	0.1485664
17	0xbec3ec6e	-0.3826632
18	0x3e5ea534	0.21742707
19	0x3d77aebf	0.060469385
20	0x3d9a87a1	0.075454004
21	0x3f09d6aa	0.53843176
22	0xbeea042a	-0.45706302
23	0x3edbe875	0.42950788
24	0xbcd4fcc8	-0.025999442
25	0xbf02920e	-0.5100411
26	0x3e298123	0.16553168
27	0xbea6e22e	-0.32594436
28	0x3e9992be	0.29994768
29	0x3ddf690f	0.1090871
30	0x3e78e3b0	0.24305606
31	0x3eddff2c	0.43358743
32	0x3f0a44ae	0.54011047
33	0xbf11f72a	-0.5701777
34	0xbea28da6	-0.31748694
35	0xbd92efcf	-0.07174646
36	0x3ed862eb	0.42262968
37	0xbe6cb63b	-0.2311639
38	0xbe9692f6	-0.29408997
39	0xbec56984	-0.38557065

fc2.weight f4 [1, 40]
0	0xbe1a7b30	-0.15086055
1	0xbd8e27b3	-0.06941166
2	0x3e05be30	0.13060832
3	0x3e1ff809	0.15621962
4	0xbdcf91ac	-0.101352066
5	0xbd744736	-0.059638225
6	0xbd92e1c4	-0.071719676
7	0x3e0d35a4	0.13789994
8	0x3d012a43	0.031534445
9	0xbd6e90e4	-0.058243647
10	0xbdd5b8de	-0.10435651
11	0x3d808f6d	0.06277356
12	0x3dc27104	0.09494212
13	0x3e3d4a86	0.1848546
14	0xbd778100	-0.06042576
15	0x3e3a456c	0.18190545
16	0x3d78142a	0.060566105
17	0xbd4a6dca	-0.04942111
18	0x3e09a193	0.13440542
19	0x3dcaeca1	0.09908415
20	0xbdee5cc0	-0.116387844
21	0xbcebc6b7	-0.028781278
22	0x3d925ef0	0.07147014
23	0x3c43c8f8	0.01194977
24	0xbdb43d57	-0.08800762
25	0x3e207935	0.15671237
26	0x3d98fd40	0.074701786
27	0x3e167acc	0.14695281
28	0xbd485b2a	-0.048915066
29	0xbd381b3a	-0.04494784
30	0xbdaa36e1	-0.083112486
31	0xbd4382e3	-0.047732245
32	0x3e32b591	0.17452075
33	0xbdc192f5	-0.09451858
34	0x3dc8145e	0.0976951
35	0xbb6afab9	-0.0035855009
36	0x3dd469ed	0.10371766
37	0x3e221424	0.15827996
38	0x3e0073a1	0.12544109
39	0xbd176642	-0.036962755
