model/saved_models/ANN_v2_minMAXX_34_34.pt (torch, 2447 bytes, 3 tensors)

fc1.weight f4 [40, 3]
0	0xbdfce3a0	-0.123481035
1	0x3e0ffb78	0.14060771
2	0xbf0ca896	-0.5494474
3	0xbe92efc0	-0.2869854
4	0xbee9962d	-0.45622388
5	0x3ed3354e	0.41251606
6	0xbe808170	-0.25098753
7	0x3de9b9cd	0.11412392
8	0x3e56a8dc	0.20962852
9	0x3e55a363	0.20863108
10	0x3da56d5b	0.080774985
11	0x3f025a1f	0.50918764
12	0xbd580430	-0.05273837
13	0x3f08eea0	0.5348911
14	0xbe81b9f8	-0.25337195
15	0xbe9c3d8e	-0.30515712
16	0xbd632ee0	-0.055464625
17	0x3e771e84	0.24132735
18	0x3e921371	0.28530458
19	0x3eac0f0c	0.3360523
20	0x3e9aa913	0.30207118
21	0xbf07eca9	-0.5309549
22	0xbd9a8a02	-0.07545854
23	0x3e8ce467	0.27518007
24	0x3e24977b	0.1607341
25	0xbe584f4c	-0.21124
26	0x3eca94e4	0.3956672
27	0x3e827e90	0.25487185
28	0xbdba3079	-0.09091277
29	0x3f17da10	0.5931711
30	0x3d877c42	0.06615497
31	0xbca8f26d	-0.02062341
32	0x3ef149ec	0.4712671
33	0x3ecc3c0c	0.39889562
34	0xbedad440	-0.4274006
35	0x3e95ce9d	0.29259196
36	0xbe64c905	-0.22342308
37	0xbea436cc	-0.32073057
38	0xbdc5f74d	-0.096663095
39	0x3cb25ac7	0.021771802
40	0x3e9cfd31	0.3066192
41	0x3e535b2b	0.20640247
42	0x3f19084a	0.59778273
43	0x3da2b778	0.0794515
44	0xbf01ebe8	-0.5075059
45	0x3dd61365	0.10452918
46	0x3f06856f	0.52547354
47	0x3d917302	0.07102014
48	0xbe76562f	-0.24056314
49	0x3eaeda14	0.34150755
50	0x3c4d54ca	0.012532422
51	0x3e6aea05	0.22940834
52	0x3d94a849	0.0725866
53	0xbe73f61a	-0.23824349
54	0x3ec1e3de	0.3786916
55	0x3eb96418	0.36209178
56	0xbf1ad441	-0.60480124
57	0x3f0fc798	0.5616393
58	0x3dbdf329	0.09274895
59	0x3f0f8b56	0.56071985
60	0xbd8e8cfd	-0.06960485
61	0x3e7954e0	0.24348783
62	0x3e35ad43	0.17741875
63	0xbf0badcd	-0.54562074
64	0xbf02a276	-0.51029146
65	0xbdc09d88	-0.09405047
66	0xbe67a7d4	-0.22622615
67	0xbebda0eb	-0.37036833
68	0xbdc134fc	-0.09433934
69	0x3f06d2d6	0.5266546
70	0x3e520e6e	0.20513317
71	0xbea12283	-0.31471643
72	0x3e159f34	0.14611512
73	0x3e5a0227	0.21289884
74	0xbe8f922b	-0.28041205
75	0x3ed27954	0.4110819
76	0xbee2b521	-0.44278815
77	0x3e64a865	0.22329862
78	0xbe291e46	-0.16515455
79	0x3ea19866	0.31561583
80	0x3eaa5d6c	0.332744
81	0xbe817112	-0.25281578
82	0xbe110a3e	-0.14164063
83	0xbe6e29c6	-0.23258123
84	0xbef1d178	-0.47230124
85	0xbddfb5f0	-0.10923374
86	0x3e8e48b6	0.2778985
87	0xbdb442ab	-0.088017784
88	0xbeadff43	-0.33983812
89	0xbde128fc	-0.10994145
90	0x3efc2d4c	0.4925331
91	0xbe693db6	-0.22777447
92	0x3ec09fd8	0.3762195
93	0xbee67d63	-0.45017537
94	0xbf00e6d0	-0.5035219
95	0xbdee43c9	-0.11634023
96	0x3e10a044	0.14123636
97	0xbe8493e9	-0.25894096
98	0xbda9dec8	-0.08294445
99	0x3cbe8d76	0.023260813
100	0x3ee574d7	0.44815704
101	0xbeebff3b	-0.46093163
102	0x3e35ca97	0.17753063
103	0x3ec6033c	0.38674343
104	0x3e4820eb	0.19543807
105	0xbe5c2b06	-0.21500787
106	0x3c086680	0.008325219
107	0x3e96b52a	0.29435092
108	0xbe41a54a	-0.18910709
109	0x3d0bca92	0.034128733
110	0x3eacd339	0.337549
111	0x3f0b75b0	0.5447645
112	0x3eb4032c	0.3515867
113	0x3d0dab4e	0.034587197
114	0x3e8206fa	0.25395948
115	0x3e200a54	0.1562894
116	0x3e146ca8	0.14494574
117	0xbea68e54	-0.32530463
118	0xbd121e00	-0.03567314
119	0xbe1af0fe	-0.15130994

fc1.bias f4 [40]
0	0xbe852fd3	-0.2601305
1	0xbeb774d5	-0.35831323
2	0x3e05c176	0.1306208
3	0x3f16ece0	0.5895519
4	0x3e10a15c	0.14124054
5	0xbee7bc3a	-0.45260793
6	0x3efb7b5d	0.49117556
7	0x3e34b819	0.17648353
8	0x3e1ba3b2	0.15199164
9	0xbd93c727	-0.0721572
10	0xbe03a4f0	-0.12855887
11	0x3e3146fa	0.17312232
12	0x3d80ec20	0.06295037
13	0x3eb20084	0.34766018
14	0x3e401569	0.18758167
15	0xbe0c95cf	-0.13729022
16	0x3ecad898	0.39618373
17	0x3eb8a65c	0.36064422
18	0xbe0e03f6	-0.13868698
19	0x3d2a1556	0.041524254
20	0x3dfbed0c	0.123010725
21	0xbe27fcba	-0.16405001
22	0xbf0b377d	-0.54381543
23	0x3d1ed395	0.038776
24	0xbdbbb61d	-0.09165595
25	0xbde37789	-0.11106784
26	0xbe7bce82	-0.24590495
27	0xbe85ca59	-0.26130942
28	0xbe8eaa11	-0.27864125
29	0x3e848778	0.25884604
30	0xbf04094e	-0.515767
31	0x3eda9b90	0.4269681
32	0x3e935c35	0.28781286
33	0x3c276cb8	0.010218792
34	0x3eb6ecbf	0.35727498
35	0xbefd39ff	-0.4945831
36	0xbc0a9544	-0.008458439
37	0xbced9f36	-0.029006582
38	0x3d37d740	0.044883013
39	0xbee1be1c	-0.44090354

fc2.weight f4 [1, 40]
0	0x3e1172b3	0.1420391
1	0x3d2d7886	0.04235127
2	0xbd9f44a8	-0.07776767
3	0x3e1c14df	0.15242337
4	0xbdd9b6b8	-0.10630554
5	0xbb162d00	-0.0022915006
6	0xbcad9a0c	-0.02119162
7	0x3e1d94ed	0.15388842
8	0x3cc333a4	0.023828335
9	0x3e1b753b	0.15181439
10	0xbd0bd604	-0.034139648
11	0x3df5dc6f	0.12004935
12	0xbdc5b2c8	-0.096532404
13	0xbdc405ab	-0.095713936
14	0x3d8f874d	0.070082285
15	0xbde46f24	-0.11154011
16	0xbdf78e88	-0.120877326
17	0xbd5c66a6	-0.05380883
18	0xbdf17086	-0.1178904
19	0x3d682107	0.056672122
20	0x3cfd10b5	0.030891756
21	0x3d2ef6bc	0.042715773
22	0x3d6cc57c	0.057805523
23	0xbccf21f9	-0.025284754
24	0x3e381e33	0.1798027
25	0x3e3cd052	0.18438843
26	0xbcfa8f81	-0.030586006
27	0x3d8297d4	0.06376615
28	0xbe0f0493	-0.13966589
29	0x3d14b350	0.03630382
30	0x3bf28400	0.0074009895
31	0xbdb7c4f0	-0.0897311
32	0x3df2f8a8	0.11863834
33	0x3e2e032b	0.16993396
34	0xbd31e131	-0.04342765
35	0xbdbc3c15	-0.09191147
36	0xbd73eff8	-0.059555024
37	0x3ceeaba9	0.029134588
38	0x3d8bbbaa	0.068229035
39	0xbc8f5da8	-0.017500713
