model/saved_models/ANN_nonscale_35_558.pt (torch, 2447 bytes, 3 tensors)

fc1.weight f4 [40, 3]
000000 32 26 97 40 41 9d 1e 40 c4 3d 56 3e f4 d3 a2 40
       4.7234125 2.478348 0.20921999 5.088373
000010 d9 41 1d bf 12 c4 52 c0 4a fa 7b c0 13 5d 4f bf
       -0.614286 -3.2932172 -3.9371514 -0.81001395
000020 7f cb 9c 40 e7 29 b6 40 06 c2 09 bf bc ce 71 c0
       4.899841 5.692615 -0.5381168 -3.778243
000030 8a 3d dc be 0a 1d 21 be 5d b6 2c 3f 2b a9 b2 40
       -0.430157 -0.15733734 0.67465764 5.5831504
000040 50 79 1b bf 55 c9 6b c0 12 8a a5 40 dd d6 ca be
       -0.60731983 -3.6841633 5.1731043 -0.39617053
000050 66 22 63 c0 4c 4c 9b 40 9a 65 ee be 77 78 3b c0
       -3.5489745 4.8530636 -0.4656189 -2.9292276
000060 3a 27 81 c0 9b c3 11 3e e8 b9 39 40 4d a3 b2 40
       -4.0360384 0.14234774 2.9019718 5.582434
000070 7c f3 05 bf 27 18 6d c0 79 da a8 40 3e 18 d2 be
       -0.5232465 -3.7045991 5.276669 -0.4103412
000080 77 4e 67 c0 59 4e a3 40 95 70 e4 be 41 3b 5b c0
       -3.614164 5.103314 -0.44617143 -3.4254916
000090 ba 40 82 c0 1c 05 27 3e 1e c8 38 40 6d 8d 7b 40
       -4.070401 0.16310543 2.8872142 3.930507
0000a0 ad 9a 9d 3e 80 d4 6a c0 19 10 9c 40 47 cb 61 c0
       0.3078207 -3.66922 4.876965 -3.528032
0000b0 99 70 13 c0 94 e0 a2 40 a8 7f cc be a7 62 5a c0
       -2.3037474 5.0899143 -0.39941144 -3.4122713
0000c0 17 fd 39 c0 50 ae b3 40 b9 f6 b7 3f 0b ce af 40
       -2.9060724 5.6150284 1.4372169 5.4939017
0000d0 e1 77 01 bf f2 66 6a c0 7b ea a7 40 aa 20 c2 be
       -0.50573546 -3.6625333 5.247373 -0.37915546
0000e0 23 20 65 c0 3d f4 8c c0 e0 9b 19 3e 3d 28 4c 40
       -3.5800865 -4.4048142 0.15000868 3.189956
0000f0 4f 24 a2 40 b8 5b bb be d6 92 62 c0 ee 2c a5 40
       5.066932 -0.36593413 -3.5402122 5.1617346
000100 53 ef 0e bf 1e 15 58 c0 c3 88 34 c0 f8 3c 71 3e
       -0.5583393 -3.376289 -2.8208473 0.23558414
000110 21 63 2a c0 50 b9 ab 40 e3 85 f4 be 2f bb 61 c0
       -2.6623003 5.366371 -0.47758397 -3.5270498
000120 4f c4 a9 40 6f f9 f9 be 89 ad 62 c0 fe 80 4b c0
       5.3052135 -0.48823115 -3.5418417 -3.179748
000130 55 62 fb 3d df c1 11 40 9d 89 af 40 6e 25 18 bf
       0.12274615 2.277458 5.4855485 -0.59432113
000140 bc 96 66 c0 8d 39 a2 40 3e 08 8e 3d 41 fd 88 c0
       -3.60295 5.0695252 0.06935166 -4.280915
000150 f5 9a 5b c0 0c f7 16 bf fe 47 76 40 0e fb 06 c0
       -3.4313328 -0.58970714 3.848144 -2.1090732
000160 c4 ac 6b c0 4f 17 69 bf e6 63 6d c0 b8 61 17 bf
       -3.6824198 -0.9105119 -3.7092223 -0.5913348
000170 75 6d 9a 40 27 a5 72 c0 07 40 13 be e1 3b 46 40
       4.8258615 -3.79133 -0.14379893 3.0974047
000180 92 9e b1 40 8e 2c ca be 96 f7 76 c0 b0 86 ac 40
       5.5506067 -0.39487118 -3.8588614 5.3914413
000190 08 1f d8 be 70 10 6e c0 d2 c6 a6 40 aa 1c 0a bf
       -0.42211175 -3.7197533 5.21177 -0.5394999
0001a0 76 fa 5c c0 1a 2f a9 40 a3 7e bd be a5 90 68 c0
       -3.452787 5.2869997 -0.3701068 -3.6338284
0001b0 54 e1 91 40 3c 30 b4 bf d5 40 93 c0 9d dd 9f 40
       4.558756 -1.407722 -4.601664 4.9958024
0001c0 e3 5d 0f bf 67 e7 52 c0 de cf 94 40 c4 56 f2 bd
       -0.56002635 -3.2953737 4.6503744 -0.118329555
0001d0 3b fe 5a c0 c7 4c 9b 40 18 c6 9f 3d e5 cd 82 c0
       -3.421767 4.853122 0.07801455 -4.0876336

fc1.bias f4 [40]
000000 30 f8 fe 3d 01 e1 73 c0 d4 d1 60 40 b4 1f 8d c0
       0.12449682 -3.8106081 3.512807 -4.41012
000010 23 4c 2c bf 49 63 86 c0 34 2e 6f c0 8f 5e 6e c0
       -0.67303675 -4.19962 -3.737195 -3.7245214
000020 25 04 39 40 f3 1d 8a c0 79 84 74 c0 c5 1f 70 c0
       2.890878 -4.316156 -3.8205855 -3.751939
000030 3e 2d 3d 40 51 68 d3 bf c3 a3 21 c0 f9 de 64 c0
       2.9558864 -1.651621 -2.5256202 -3.5761092
000040 7c fa 48 40 ea 92 86 c0 7b 3e 6d c0 e3 ad 48 40
       3.1402884 -4.205434 -3.7069385 3.1356132
000050 8f 05 6c c0 cd c0 6e c0 a5 1d a6 be ed 83 72 c0
       -3.6878393 -3.7305176 -0.32444492 -3.789302
000060 38 e2 81 c0 1c 53 12 40 27 ec 83 c0 b5 40 33 c0
       -4.0588646 2.2863226 -4.122577 -2.8008244
000070 e5 ff 5a 40 98 83 52 3f c6 fb 5b 40 be 33 12 40
       3.4218686 0.82232046 3.437242 2.284408
000080 46 e2 82 c0 7f 69 7e c0 42 39 76 c0 67 1c 71 c0
       -4.0901213 -3.975189 -3.8472447 -3.7673585
000090 8b b0 8f be 7c b1 6d c0 a6 43 34 c0 38 34 2c c0
       -0.2806438 -3.7139578 -2.816629 -2.6906872

fc2.weight f4 [1, 40]
000000 8f b8 9c 40 6b 17 9a 40 54 cc 8d c0 e6 e6 9c 40
       4.897529 4.8153586 -4.4311924 4.903186
000010 06 c4 ac 3c 72 6b 8f 40 58 a3 a3 40 30 c9 8f 40
       0.021089565 4.481866 5.1136894 4.493309
000020 24 cb 84 40 0a 4e 9a 40 04 46 9f 40 de d3 a0 40
       4.1497974 4.8220263 4.977297 5.0258627
000030 fe e7 8e 40 6f f4 aa 40 98 40 6a 40 33 02 82 40
       4.4658194 5.342338 3.6601925 4.0627685
000040 75 bc 66 c0 58 20 9a 40 b5 3e 93 40 5b 1d 87 40
       -3.6052525 4.816448 4.6014047 4.2223334
000050 ad d9 ab 40 b9 84 86 40 a6 22 2c c0 d2 b9 76 40
       5.3703218 4.2037015 -2.6896148 3.8550916
000060 1d 52 ac 40 5f ef 66 40 ce 8e 8e 40 65 ba a6 40
       5.3850236 3.60836 4.454932 5.2102532
000070 4b 2c 7b c0 0c 95 62 c0 55 88 97 c0 2b ae 8a 40
       -3.9245784 -3.540347 -4.735392 4.3337607
000080 46 77 97 40 67 d9 9f 40 8c 40 9b 40 6f 8d 96 40
       4.7333097 4.9952884 4.8516293 4.704765
000090 15 d4 aa 40 06 7b 9d 40 9a 72 bc 40 af 45 c2 40
       5.338389 4.9212675 5.8889894 6.0710063
