model/saved_models/CNN_v2_284.pt (torch, 100063 bytes, 5 tensors)

convlayer1.0.weight f4 [50, 3, 3, 3]
00000000: aa94 7ebd 5da0 463e 8541 b0bd 1ce0 003e
00000010: 55bc 97bd a0ad 2b3e b30e c9bd b69f 7c3c
00000020: 9915 b9bc 11cf ccbd 704b e2bd 40d7 27bd
00000030: 9dc0 2dbc b4bc 163d 9ec1 2ebe 15f7 e73c
00000040: 5670 163e e307 88bc 71c0 da3d d252 043e
00000050: 43f5 8fbc bb13 19bd e07b 043e 99da 293e
00000060: 48da 2bbe f91d 71bd d6c0 053d bdce 703c
00000070: f5e8 e93d c891 49be b2a8 18be 96e9 10be
00000080: 37d9 313c 035c 20bd 2085 3b3e 1812 d23d
00000090: 68be 2ebe 4b27 ffbc ec61 0dbe b1fc 053e
000000a0: f8e1 bdbc 7e07 2f3e 431e 203d 6a9b 303e
000000b0: 8e27 2f3e b6bb f7bd c206 0d3e 7734 26be
000000c0: c27c 023e e957 c0bd 3dac 0abe 0193 cabd
000000d0: f106 77bc 41cf 943d 7ac3 593e 4d03 ffbd
000000e0: 3640 07be daa3 34bd b8a6 083e 110f 563e
000000f0: 8d23 e23d 392e 53be 2b42 ccbc 02a9 123e
00000100: 62f6 c0bd 1490 b33c 8c29 493e 3ef2 463e
00000110: 983a 22bb 55d2 61be dd2b 00bd cea9 4cbe
00000120: 522b 513c f267 2bbe bcc7 e13c 5838 47be
00000130: afde 2cbe 068d 58bd 9fa0 47be 036d 56be
00000140: 90ae 973d 2279 d2bd 4a81 e0bd 7b44 f03c
00000150: 66a5 d3bc 1cac 05be de85 a5bd d6fe c03c
00000160: 445f 3c3e f6b7 303e ec49 833d 5475 363e
00000170: 4161 2c3d 8b51 90bd 318b d03d 3298 9abd
00000180: bd50 393d 8e52 c1bd b3d2 eabd ad1e 4e3c
00000190: 9c7c 143e a9f8 3e3e 8408 853c 0e8f d73d
000001a0: 5bd0 423e 1122 43be f47a 0d3e 26b4 a13d
000001b0: f964 4b3d 4ef2 e3bd b510 47be b738 05bd
000001c0: 9a8d 9b3d dad0 d53c 0433 093e cb2b 82bc
000001d0: f58d 2b3d e852 1e3c ce40 5bbd 8f3f c2ba
000001e0: 00b6 913d 9d4b 55bd 1096 2cbd a512 2dbe
000001f0: 0cd7 113d c4e2 ccbc 4869 c73d cf14 fa3d
00000200: b453 8c3d 35b8 3fbe 18fb 00be 9711 10bb
00000210: e667 003e ff84 2cbd 2d09 34be ed1a 7d3d
00000220: ae33 003e 8c8b d8bd 01c9 a73d 398e 223e
00000230: 552d 033d c309 433d 17ef 0cbe 651f b7bd
00000240: e069 2cbe 3225 4fbe afd7 bb3c da49 f2bd
00000250: f729 d53d 7224 0cbd 9412 2abe 0064 04bd
00000260: 99eb d93d 416c a8bd 1712 133e 6fff da3d
00000270: b8d6 17be c746 d73d 23c8 11be 65d3 083e
00000280: 7634 3c3d 24c9 4d3d 85e6 c83d 0d45 fabd
00000290: 07af 93bc 70cc 953d 517b a03c c03e 27be
000002a0: 4208 0cbe d60b 21be 1675 f0bd 6a8a c5bd
000002b0: 5c46 d23d 7839 123d ae04 453e 0dc9 383e
000002c0: 679b 733c 0c6a b5bd 3518 83bd 97e2 2abd
000002d0: f2a1 203d 71e7 0abe 098d a53c b0bc 723d
000002e0: ae85 95bd 1057 293e 7c6e 033d 3b48 81bd
000002f0: d883 3f3d d201 f2bd f98d 0f3e 363a c03d
00000300: 75d0 1dbe 8058 c3bc 8cce 36be 3a15 08be
00000310: f525 cdbd f064 b6bd 73cb a7bd 8e59 9a3d
00000320: 00d4 4e3c b46a 2dbd 6e0d 16be 8034 403c
00000330: 6cb7 7fbd 5bf3 91bd 12fb c33d 31e8 05be
00000340: 1c63 2abe 84ec 283d c097 3a3d b43f 793d
00000350: 54da f4bd ed7d 35be 364f f13d 60b3 57bd
00000360: 3669 38bd 14e1 e9bd e83a 5abd 58c6 22bd
00000370: 5eba e0bd e187 1f3e 65d5 22be d33d 083e
00000380: 1745 2c3e a7a1 1e3e 6f7e 25be a031 2cbd
00000390: 7069 f0bd e49b 04be f995 1f3e 2268 a7bd
000003a0: 4b4b 633e f6c1 04be 0d2b e53d dad1 c9bd
000003b0: 486d 0c3e 7d33 2b3d 1f9c 4fbc 20dc e8bd
000003c0: 1740 fcbc 1288 693e 14fd 223e 28f8 293e
000003d0: 1c3a 9f3c 7463 b43d 552f 14be 532a 1ebe
000003e0: 062d a23d cc14 0cbe d04d d23d 5c94 14be
000003f0: b1d9 80bc c7d1 84bb cc6b 6ebc 7580 783d
-0.062153496 0.19397111 -0.08606247 0.12585491 -0.07408968 0.16765451 -0.09817257 0.015418937
-0.022593306 -0.10000432 -0.11049545 -0.040976763 -0.010605005 0.036801055 -0.17066047 0.02831606
0.1469129 -0.016605323 0.106812365 0.12922218 -0.017573005 -0.037372332 0.1293788 0.16587295
-0.16782486 -0.058866475 0.032654606 0.014697728 0.11421386 -0.19684517 -0.14908102 -0.14151606
0.010855011 -0.03915025 0.18312502 0.10257357 -0.17064822 -0.031146666 -0.13806885 0.13084675
-0.02317904 0.17092702 0.03909136 0.17246786 0.17104933 -0.1209635 0.13772109 -0.16230951
0.12742904 -0.093917675 -0.13542266 -0.0989132 -0.015077339 0.07266093 0.21265975 -0.124518014
-0.13208088 -0.044101574 0.13344848 0.20904185 0.11041937 -0.20623101 -0.024933895 0.14322284
-0.09421994 0.021919288 0.19644755 0.19428346 -0.0024754163 -0.22052892 -0.03129183 -0.1998665
0.012766676 -0.1673887 0.027561061 -0.19455087 -0.16881822 -0.052868865 -0.19494866 -0.20940022
0.07406342 -0.102770105 -0.1096216 0.029329529 -0.025835704 -0.13053936 -0.08082174 0.023559015
0.18395716 0.17257676 0.06410584 0.17818195 0.042084936 -0.07046803 0.10182799 -0.0754856
0.045243014 -0.09439574 -0.11465969 0.012580556 0.1450066 0.18649544 0.016239412 0.105253324
0.19024794 -0.19055964 0.13816434 0.07895689 0.049656842 -0.111302 -0.19439967 -0.03252479
0.07595368 0.026100565 0.13398367 -0.015890023 0.041883428 0.009663321 -0.0535286 -0.0014819967
0.07114792 -0.052074064 -0.0421353 -0.16901644 0.035605475 -0.025010474 0.09736878 0.12211
0.068519026 -0.18722613 -0.12595785 -0.002198314 0.12539634 -0.042119022 -0.17581625 0.061793257
0.12519714 -0.105734915 0.08192635 0.15874566 0.032025654 0.04761673 -0.1376308 -0.08941535
-0.16837263 -0.20229033 0.022929994 -0.11830492 0.10408395 -0.034214444 -0.1660865 -0.03232193
0.1064064 -0.08223773 0.1436237 0.10693251 -0.14828002 0.105115466 -0.14236502 0.1336189
0.04594847 0.05024065 0.09809593 -0.12220202 -0.018027795 0.07314384 0.019590052 -0.16332531
-0.13675025 -0.15727171 -0.11741082 -0.09645541 0.10267326 0.035699338 0.19240066 0.18045445
0.014868594 -0.088581175 -0.064011015 -0.04172 0.039216943 -0.1356485 0.020208852 0.059261978
-0.07300888 0.16537118 0.032087788 -0.06312605 0.046756595 -0.118167534 0.14019002 0.09386103
-0.15411551 -0.023845911 -0.17852229 -0.13289347 -0.10017005 -0.08905971 -0.08193102 0.075366125
0.012623787 -0.04233809 -0.1465356 0.011731267 -0.062430784 -0.071264945 0.09569372 -0.13076855
-0.1663937 0.041241184 0.045554876 0.060851768 -0.11955705 -0.17723818 0.117826864 -0.0526613
-0.045022212 -0.11419883 -0.053278834 -0.039739937 -0.10973047 0.15579177 -0.15901716 0.13304834
0.1682323 0.15491353 -0.16161512 -0.042039514 -0.117388606 -0.12950093 0.15584554 -0.08174159
0.2219669 -0.12964615 0.11189852 -0.09854479 0.13713562 0.04179715 -0.0126714995 -0.113701105
-0.03079228 0.22805813 0.15916854 0.1659857 0.019436888 0.08808032 -0.1447118 -0.15445833
0.07918744 -0.13679808 0.10268748 -0.1450972 -0.015728803 -0.0040533277 -0.014552068 0.06066938

convlayer1.0.bias f4 [50]
00000000: f78c 41be 8054 023d d3ea 06be 72d7 23be
00000010: 92c0 1c3e 40a8 e63d 385f 1abc 6e0b ccbd
00000020: ef70 08be f6f9 483e f243 5ebd fba9 b9bd
00000030: bf3e 683e 768b dfbd bbf5 3c3e 733f 2d3e
00000040: 456c 893d 68b6 0f3d 0155 82bd bed4 1dbe
00000050: a0fe c03d 4e85 1dbe f17d 443e 49d4 9a3d
00000060: deba 483c 839e bd3d 9a60 213e 47a3 afbc
00000070: 3b75 3b3e 0a30 e0bc 4f02 863c e4be a9bd
00000080: d1da 403e acc9 fe3d 331e d43c 46a6 3ebb
00000090: 9583 313e 7536 80bc d941 1ebe 040e 9a3c
000000a0: 4782 3e3e a12e e03c 4d6f 233e efd9 cebd
000000b0: c95a f83d ced4 9b3d 9146 5e3d 5652 b3bd
000000c0: 5dfc 053e 921a 963d
-0.1890143 0.031818867 -0.13175516 -0.16000155 0.15307835 0.1126256 -0.009422116 -0.099631175
-0.13324331 0.19626603 -0.054264016 -0.09065624 0.22680186 -0.10915272 0.18453114 0.16918735
0.06710104 0.035086066 -0.063638695 -0.15413186 0.09423566 -0.15382883 0.19188668 0.075600214
0.012251584 0.09258749 0.15759507 -0.021440161 0.18306439 -0.027366657 0.016358523 -0.082883626
0.18833472 0.124408096 0.025893306 -0.0029090806 0.17335351 -0.015650967 -0.15454806 0.018805511
0.18604384 0.027365984 0.15960427 -0.10100161 0.12126691 0.07608949 0.054266516 -0.08755939
0.1308455 0.07329287

convlayer1.2.weight f4 [50, 50, 3, 3]
00000000: e6a3 9b3d 7bae 763d d1ca cbb8 820d 893d
00000010: 1bb2 773d 8aee 17bd e384 c23c b2bb 1abd
00000020: deb0 ceba d427 8c3c 4496 203d 1aff a43a
00000030: 7e02 2b3d 95d5 833d 72aa ddbc f09b bd3d
00000040: 18fc 3f3c def9 4fbd e094 01bd 30f5 503c
00000050: 3faa e7bc 5b7c 0d3e 2ed8 203d 6501 12bd
00000060: d585 373e 3482 1f3e 4cb0 003e a1a5 e23c
00000070: ac3c b1bb 3678 d6bc 0671 313c de24 3cbd
00000080: 386a 063d 048e 27bd 6181 303d 6f3b 32bd
00000090: 1799 fe3c 2181 303d cc0a 34bc b292 5ebc
000000a0: a8ff e4bb 8465 aebc b883 a6bc d7c8 0bbd
000000b0: 640c 383d b048 e5bc 851a bbbc 83cb 43bd
000000c0: b15d 10bc 9c4b e9bc 20b0 6e3c ed3f d3bc
000000d0: b87d 983c 12da 163d 8dcf 243d 579a fb3c
000000e0: 867f ad38 5e96 9ebc f7df dcbc 965c 57bc
000000f0: e6dc 123d 190d 5d3b 031a 14bd e8d5 ce3b
00000100: 9d00 0f3d 1336 92bc f67b e33c 107b 203c
00000110: 689d 083c 40b5 b43b 2800 11bd 1c8b 05bd
00000120: 43a6 c83b 0614 953c a0d0 553d 0ad7 333d
00000130: 487f 1abd 91c1 413d 8b20 3f3c 0bed 3c3b
00000140: bd93 74bc a6eb a0bc 64c8 923c 5e9c babc
00000150: 939b 333d aab6 373d b963 123d d659 0f3d
00000160: 15fa 003d 6259 bc3c 5cf8 25bd 5fac 0b3c
00000170: 55fe d2bc e8b2 dabb 14df d7bc 7ed9 303d
00000180: ec1a acbc a5a2 2a3d 2aad e73c 190e 1c3c
00000190: 3de3 5bbd 296c 9cbb fc5a d8bc 2463 43bb
000001a0: 3416 d6bc dca0 78bc 9608 16bd cbda 27bd
000001b0: 3918 2cbd 979e 57bd 8f95 babc 0088 8bbc
000001c0: d0c4 89bd 2111 ad3c 25dc 86bd 44a2 7dbd
000001d0: 861f 87bd 3470 3a3c 38cc 88ba 0f66 b73c
000001e0: 7d6c 83bc ca81 17bd 3cf8 e83c bac0 ff3c
000001f0: 3cdf ad3b 79dd e3ba d4fe bf3b 5ae2 553d
00000200: 1cc1 803d e02a bd3c 3481 683d 81c6 c63c
00000210: 927e 343d 2dbc e3bc ffcc 6fbc d660 e03c
00000220: 4a7d 21bd 2d05 c53c 28a4 8d3c e7e1 a3bc
00000230: f6bd 2ebb 71de a0bc 2b69 263d 422b fbbc
00000240: 6aef a1bb fdda 97ba fa7e 1c3d d3e9 d03c
00000250: a903 e13b f810 0dbd cc75 28bd 9c7e d63b
00000260: c854 303d 2dfa cbbc 8625 82bc 3228 3ebe
00000270: 0a18 a43d 64ed f9bb 4ce2 cabd db0f 913d
00000280: 060e 6f3c 8891 55be fde9 bd3c 1fa1 8b3c
00000290: 7b95 37bd 520a a63d 4a34 63bc 93b9 7abd
000002a0: ad6a 113c 58f4 013b 76d3 cbbc 25bd 893c
000002b0: 53a2 b9bc 58c8 a53c b9e0 95bc 9dfa 30bc
000002c0: f6e7 da3c f9f2 ad3c b194 2d3d 864d 273c
000002d0: 754d 0dbc 7220 bfbc e6f2 08bd 5790 923c
000002e0: 14e5 bf3c 4624 c73c 5e84 1a3d ab66 003d
000002f0: 1406 233d 8d5c abbc 407b ccbb 9b09 fdbc
00000300: e8e5 e33b 8515 f7bc 988d 463c e202 953c
00000310: acdb 223c 6f90 273d a979 7cbc f610 5a3d
00000320: 5dbc 6fbc 3356 bb3c 42dc adbc 3161 413d
00000330: 4561 36bc 7db2 c43a 599b b93c bc06 a0bc
00000340: 72a3 133d fd03 57bc 17c5 51bc e087 033d
00000350: 6967 1abb a049 a4bc 605c acbc cf3b b43b
00000360: 26ee 83bc 58eb 1a3d f877 763c 78e0 153c
00000370: 5c1c 953d 6622 0abc 9e3d 30bd 08e6 153d
00000380: 4090 863d 1491 9b3c 7d19 a13c 6725 ecbc
00000390: 7d4e 1ebd 111d d43c 9658 f83c 9c94 02bd
000003a0: a052 1f3c a920 f1bc 1127 343c ca89 4f3c
000003b0: 8a54 413c 87ec 0dbd fd8c 3d3c ddb9 52bd
000003c0: c5c1 50bc f6a6 d93c a295 8fbc 8589 a2bc
000003d0: 48ae c5bc e94a 8dbd dfd6 9bbd cd46 debd
000003e0: 7dc1 26bd dcab e1bd 708b 80bd 0760 b6bd
000003f0: c5db 8c3c b83b 7e3c cb28 0dbd 008f dc3c
0.075996205 0.06022499 -9.717572e-05 0.066920295 0.06047259 -0.037092723 0.023745006 -0.037776656
-0.0015769263 0.017108835 0.039205804 0.0012588233 0.041750424 0.06437222 -0.027058814 0.09258258
0.011717819 -0.0507754 -0.03163612 0.01275377 -0.028279422 0.13816969 0.039268665 -0.03564586
0.17922147 0.15577012 0.12567252 0.027666869 -0.005408844 -0.026180368 0.01083017 -0.045933597
0.03281614 -0.04090692 0.043092135 -0.04351371 0.031078858 0.043091897 -0.010988902 -0.01358478
-0.0069884844 -0.02128864 -0.02032648 -0.034127083 0.04493369 -0.027988762 -0.022839794 -0.047801506
-0.0088114 -0.028478436 0.014568359 -0.025787318 0.018614635 0.03682906 0.040237 0.030713243
8.273036e-05 -0.01935881 -0.026962264 -0.013144633 0.035855196 0.003372973 -0.03615762 0.0063121207
0.034912694 -0.01784805 0.02776907 0.009794965 0.00833831 0.0055147707 -0.03540054 -0.03260337
0.0061233356 0.018198024 0.052200913 0.04390625 -0.03771904 0.04730374 0.011665474 0.0028827812
-0.014927802 -0.019643616 0.01791782 -0.02277964 0.04384954 0.044851936 0.035739634 0.034997784
0.031488497 0.02299184 -0.040520057 0.008524983 -0.02575604 -0.0066741593 -0.02635149 0.043176167
-0.021008931 0.041659016 0.028280813 0.0095248455 -0.05368351 -0.004773636 -0.026410572 -0.002981373
-0.026133634 -0.015175071 -0.036629282 -0.04098014 -0.042015288 -0.052641477 -0.022776393 -0.017032623
-0.06726992 0.021126332 -0.06584958 -0.061922327 -0.065978095 0.01137929 -0.0010436838 0.022387533
-0.016042942 -0.03698901 0.02843868 0.031219829 0.0053061526 -0.001738473 0.0058592353 0.05221782
0.06286833 0.023091733 0.056763843 0.024264576 0.04406602 -0.02779969 -0.014636277 0.027389925
-0.039426126 0.02405032 0.01729019 -0.02000518 -0.0026663519 -0.019637318 0.04062764 -0.030660275
-0.0049418705 -0.0011585649 0.03820703 0.025502121 0.0068668914 -0.03444001 -0.041127965 0.0065458547
0.043049604 -0.024899567 -0.015887033 -0.18570021 0.080123976 -0.007627176 -0.09906444 0.07083102
0.014590746 -0.20856297 0.023182863 0.017044602 -0.04482029 0.08107437 -0.013867447 -0.061212134
0.008875531 0.0019829478 -0.024881106 0.016813824 -0.02266041 0.020237133 -0.018295633 -0.010801938
0.026721936 0.021234022 0.04237813 0.010211354 -0.008624424 -0.0233309 -0.03343477 0.017891092
0.023424663 0.024309289 0.03772389 0.03134791 0.03980072 -0.020918155 -0.0062402785 -0.03088837
0.006954897 -0.030161628 0.0121187195 0.018189851 0.009940069 0.040909227 -0.015409865 0.05323883
-0.014632312 0.022868251 -0.021223191 0.04721183 -0.011131589 0.0015006807 0.022657083 -0.019534461
0.036044545 -0.0131235095 -0.012803338 0.032112002 -0.0023560172 -0.020054638 -0.021040142 0.005500294
-0.016104769 0.037822098 0.015043251 0.009147756 0.072808 -0.008431053 -0.043027513 0.036596328
0.06570482 0.018990077 0.019665474 -0.028826429 -0.03864907 0.025892766 0.030315679 -0.031880006
0.009724289 -0.029434519 0.010995642 0.012667129 0.011799941 -0.0346494 0.011569259 -0.051446784
-0.012741511 0.026568871 -0.017527405 -0.019840965 -0.024130955 -0.068990536 -0.07609343 -0.10853348
-0.04071187 -0.11019108 -0.062765956 -0.089050345 0.017194638 0.015517168 -0.03446273 0.026923656

convlayer1.2.bias f4 [50]
00000000: 12dd fd3c 4ce9 383d c7d3 51bc f4db 09bc
00000010: 5fd2 1abd 2cb2 313d 1cf4 f4bc f794 263d
00000020: fc91 b9bc 5aa9 02bd f960 a7bc 3a16 223c
00000030: dddb 543b 17eb a43c 9c60 8e3c d3de 69bc
00000040: a65d 063d 3588 6abb 370c c8bc fe73 1dbc
00000050: faa8 37bb 255c 5e3b b93a 2ebd 89a4 76bc
00000060: 407a c43c bef8 c4ba ebae 1abd 5245 023d
00000070: 275b 05bd b6ad 8dbc dda5 5bbb be9f 343d
00000080: f5f8 26bd 2a4f f4bb c2dc a1bb 1e75 1cbd
00000090: 692a 343d a272 69bb bf64 563c 337b 34bd
000000a0: fd39 eb3c 8fa8 673c 3fd4 373d a9ec babc
000000b0: 061b 90bc d5ab 6e3a 4354 f33c cca7 f23c
000000c0: cfe1 523d 07de 003d
0.030989204 0.045144364 -0.012806839 -0.008414257 -0.03779828 0.04338281 -0.029901557 0.040669408
-0.022652619 -0.031899787 -0.020431982 0.009892995 0.0032479682 0.02013163 0.017380051 -0.014274317
0.032804154 -0.0035786752 -0.024419887 -0.009610174 -0.0028024302 0.0033929434 -0.04253647 -0.015053877
0.023984075 -0.0015027744 -0.03776447 0.03180439 -0.032557633 -0.017294746 -0.003351561 0.044097655
-0.040764768 -0.007455726 -0.0049396465 -0.03819763 0.043985758 -0.0035621305 0.013085543 -0.044062804
0.028714174 0.014139309 0.044880148 -0.022817926 -0.01759101 0.00091045845 0.029703265 0.029621027
0.05148488 0.03146174

convlayer1.4.weight f4 [1, 50, 3, 3]
00000000: 186d 9e3a 014a 403c de3d 953c ddca 7a3c
00000010: e8a0 acbc aabc ff3b 02c2 ac3c e988 a73c
00000020: aca4 913c 2be4 b03c c78d 0abd 307e 943c
00000030: cdb0 d6bb 7a46 d73c 760a 7dbc fc3f f33c
00000040: f1da 67b9 1340 cd3a 1716 f8bb 8438 33bc
00000050: 0824 413d 2f7f 953a a6ba 21bb 27fe f9bb
00000060: 3745 9f3a a68c d1bc fd78 123d b620 ed3d
00000070: 2bc4 f13d c093 933d 88ea 013e 843d 133d
00000080: 3617 7a3d d169 0d3e 2a70 a23d 64c4 923d
00000090: b619 8a3d 2828 7bbc ce3e 113c 1913 463d
000000a0: d603 573d 6301 fc3c 72f3 da3c 2cc0 c63c
000000b0: 421a e4bc dcaa e8bb 2300 ebbb 8aea 5bbd
000000c0: fe4f 1cbd 092b 70bd b626 5fbc 5673 1cbc
000000d0: c9eb 37bd 9b7a aebc 63a4 393e 57f8 833e
000000e0: de49 813e 2845 373e 4d4e 633e c044 1b3e
000000f0: 4274 043e 7168 303e 567e 5b3e ff59 57bd
00000100: cacf 293d 3279 babc 25fa 5cbd 9a14 bf3b
00000110: 50a3 a8bc 59bc 38bd 6d4f 173d 9467 2b3d
00000120: ade6 0b3d ea31 fdbc e50b debc 2ff8 ceba
00000130: edd7 493d 6ae8 7e3b 0974 df3c ed8a 383d
00000140: 5e71 93bc 3219 0cbd 14cb b63c 1797 9bbb
00000150: 4982 b4bc 4bc1 14bd dacf 0dbd 9208 26bd
00000160: 7482 563d c295 16bd eb0d 833c 4740 303d
00000170: 83ca 003d d4fa bfbc 2f8c 043d 749e 13bb
00000180: 3d53 00bd da34 983c 1671 ffbc b178 d03a
00000190: 293b a2bc 5ab6 d6bc 259f ac3c 1e23 50bd
000001a0: 6ab3 0c3d 49e9 d13c 72ac 0e3d 2c0b a93c
000001b0: c83c 1fbd 554c d7bc 04a3 8dbd fe6a 69bd
000001c0: 52c4 14bd 1163 c8bc 3282 a2bd 4878 efbc
000001d0: dc09 10bd f31f b9bc 090e 413d d8ac 8e3b
000001e0: d55a 10bd 84e8 e43a 885a 10bd 9d0b 1dbc
000001f0: b79b f93b f7e1 223d 46bf a1bc 505f f93c
00000200: 593f b5bc 3f7d 9cbc b57b 043d cec9 81bd
00000210: 73fa a63c e152 083d 5abb 1ebd 56d4 a23c
00000220: cfae 15bd 5888 4e3c 46b7 d3bb a350 283c
00000230: 7766 9c3c 7c82 bfbc 9f24 8f3c 8c22 82bc
00000240: 37c6 40bd f4dd 803c 969c 0a3d e6ff 11bd
00000250: 3ec6 ab3a 8053 573d eb50 27bd aec5 123d
00000260: 017c f5bc f972 7e3c a2e4 463d ba4d 823d
00000270: 63f6 8cbc 5beb 18bd 56c2 923c 0021 2fbd
00000280: 57c4 193b 6a2c 553d 767d a73d 26cd f23b
00000290: 8911 e13c 27ce 8a3d f17b 1d3d 606f 33bc
000002a0: da27 e83c 0039 403d 5969 053c 1817 b03d
000002b0: 4ec2 9c3d b083 153d 7c2e fe3c ac81 c43d
000002c0: ce5f 3b3d e243 783d 48b2 093d 2744 843d
000002d0: 9240 d1bc a20d 9d3c ceff 22bb 3fd0 cd3c
000002e0: 25f2 4d3d dd4a 47bc acfd 483d 63ba 0db9
000002f0: 77e4 31bd 2d48 013c 1491 513d d90e 773d
00000300: d7fa febc d498 9a3b 5775 c5bc fc08 6e3d
00000310: a9a0 4ebb 1386 1e3c 0f29 cebc 3ea0 b73c
00000320: 481d 4039 1c80 84bc 88e1 c2b9 a1d0 11bc
00000330: 6d3c a7bc 8f0a 353d acb4 4f3d 4d8f aa3c
00000340: 11f3 53bd 76f2 45bd a671 423c 551c 10bb
00000350: e611 0b3d ef57 d23c 2ba3 6ebc 464b 2a3b
00000360: f794 a93d 0ade cb3d c571 183e b433 9d3d
00000370: f6ae 983d 0520 e93d 7bec ed3d 6a79 ff3d
00000380: 4081 563d 3de2 6ebd 43ac 42bd 95dc bdbd
00000390: a8ae e8bc 5042 ed3b 7316 0f3c f058 26bd
000003a0: 5b0f b4bd 3334 97bd 69f8 4cbc 7399 933d
000003b0: ade4 c83d 661c 80bc 615e 2d3d 3f4e a83d
000003c0: f772 bc3c d15e 5bbc 1b0c f93c e551 4fbb
000003d0: f45c a23c 4d44 8c3c eb70 563d b481 a53d
000003e0: af92 913d 9323 493d e373 f73c a920 b93d
000003f0: bed2 023d c794 fdbb c7b7 b83c 9e5d 1d3d
0.0012086956 0.011736394 0.018217977 0.015307155 -0.02107282 0.007804473 0.021088604 0.020451026
0.017778717 0.021593174 -0.033826616 0.018126577 -0.006551838 0.026278723 -0.015444389 0.029693596
-0.00022111439 0.0015659354 -0.0075709927 -0.010938767 0.047153503 0.0011405702 -0.0024677902 -0.0076291743
0.0012151365 -0.025579762 0.035759915 0.11578505 0.11804994 0.072059155 0.12687123 0.035947338
0.061057292 0.13809897 0.0793155 0.07166365 0.06743185 -0.015329398 0.008865071 0.048358057
0.052493893 0.03076238 0.026727412 0.024261557 -0.027844552 -0.007100446 -0.007171647 -0.05369047
-0.038162224 -0.05863479 -0.013620069 -0.009548983 -0.044902597 -0.021298697 0.18129115 0.25775406
0.2525167 0.17897475 0.22197838 0.15162945 0.12934974 0.17227341 0.21434912 -0.05257606
0.04145793 -0.022762869 -0.053949494 0.0058313133 -0.020585686 -0.045101497 0.03694098 0.041846827
0.034155536 -0.03090759 -0.027105281 -0.0015790517 0.04927819 0.0038895854 0.02727701 0.045054365
-0.017998394 -0.034203716 0.022313632 -0.004748236 -0.022034781 -0.03631715 -0.03462205 -0.040535517
0.052370504 -0.036763914 0.015997848 0.04303005 0.03144313 -0.023435034 0.032360252 -0.0022524865
-0.031329382 0.01857989 -0.031181853 0.001590511 -0.0198036 -0.026209999 0.02107198 -0.05081474
0.03435079 0.025623934 0.034832425 0.02063521 -0.038876325 -0.026281515 -0.069158584 -0.0569868
-0.03632004 -0.024461301 -0.07934989 -0.02923216 -0.035165653 -0.022598242 0.047132526 0.0043541007
-0.035242874 0.0017464315 -0.035242587 -0.009585288 0.0076174396 0.039766278 -0.019744527 0.030440956
-0.022124933 -0.01910269 0.03234454 -0.06337319 0.020383095 0.033282164 -0.03875289 0.01987664
-0.036543664 0.012605749 -0.006461057 0.010273132 0.019091828 -0.02337765 0.017473517 -0.015885614
-0.047064032 0.015730835 0.03384074 -0.035644434 0.0013105345 0.052569866 -0.040848654 0.035833053
-0.029966356 0.015530341 0.048557885 0.063624814 -0.01720733 -0.037333827 0.017914932 -0.04275608
0.0023462975 0.05204431 0.08178227 0.0074097095 0.027474182 0.06777602 0.038448278 -0.010951847
0.028339315 0.04692936 0.008142793 0.08598155 0.07654248 0.03650254 0.031028025 0.095950454
0.045745663 0.060611613 0.033617288 0.064583115 -0.025543485 0.01917154 -0.002487171 0.025123714
0.050279755 -0.012163845 0.049070045 -0.00013516242 -0.04343077 0.007890743 0.051163748 0.060316894
-0.03112547 0.0047179256 -0.024103804 0.058114037 -0.0031528866 0.0096755205 -0.025166063 0.022415277
0.00018321455 -0.016174369 -0.00037170597 -0.008899839 -0.020414555 0.044199523 0.05070941 0.020820284
-0.051745478 -0.048326932 0.011867916 -0.0021989543 0.033952616 0.025676696 -0.014565269 0.0025984808
0.08280366 0.0995446 0.1488715 0.07675877 0.07455246 0.1138306 0.11617371 0.1247433
0.052369356 -0.058321226 -0.047527563 -0.09270588 -0.028403595 0.007240571 0.00873338 -0.04061216
-0.08791991 -0.07383003 -0.0125103975 0.072070025 0.098092414 -0.015638541 0.042326335 0.08218049
0.023004038 -0.013389305 0.03040128 -0.0031634506 0.019819714 0.017122412 0.05235378 0.080813795
0.07108056 0.04910619 0.030206626 0.090394326 0.03193926 -0.007738683 0.02254857 0.03841936
