model/saved_models/Ffn_v1_2758.pt (torch, 111439 bytes, 4 tensors)

fc1.weight f4 [200, 102]
000000 4f 2e 7b 3d e6 1b 12 3d 4e f8 64 3e 91 7b cd 3d
       0.06132346 0.035671137 0.22360346 0.10033334
000010 be c6 45 3d 74 06 bf 3c 72 22 79 3d af ad 7a 3d
       0.04828524 0.023318507 0.060823865 0.061200794
000020 c9 c4 92 bd e7 00 27 be 07 98 7f 3c 3f ac ea 3d
       -0.0716644 -0.16308938 0.015600211 0.114586346
000030 0d 74 39 3d db 63 03 bd 34 9d c9 3c ea 10 6f 3d
       0.04527669 -0.03207765 0.024611093 0.05836574
000040 5c 62 85 3c 83 01 de 3d 87 e0 60 bd 71 b2 65 3d
       0.016282253 0.10840132 -0.054901626 0.056078378
000050 36 38 2b bd b4 34 59 bd 34 44 16 3c 74 74 7a 3d
       -0.041801654 -0.053028777 0.009171534 0.061146215
000060 50 59 81 3d d1 91 69 3a 8f fc bf 3d 6f 6f c8 3c
       0.06315863 0.0008909973 0.093743436 0.024467198
000070 53 45 c5 bc 1e 10 e1 bd 3e 7b a6 bd 3e e3 ac 3d
       -0.024080908 -0.10989402 -0.08128975 0.084417805
000080 13 ae 1e bd c5 cd a5 3d 42 bd ff 3c ee c7 60 3d
       -0.03874023 0.08095888 0.031218175 0.054878168
000090 dc 9a 8a bd e9 c4 89 bd 4c cd 45 bd 00 45 07 3d
       -0.06767818 -0.06727011 -0.04829149 0.033024788
0000a0 c1 d6 1a bd d4 6c 16 3d ad d5 97 bb a1 1b 17 3d
       -0.03780246 0.03672488 -0.0046336264 0.036891583
0000b0 f0 d8 b3 bd 6c 34 4a bd 8e 60 c1 bd 3f a1 9c bc
       -0.08781612 -0.0493664 -0.094422445 -0.019119857
0000c0 ab 80 20 3d a7 e0 68 bc c7 48 a4 bd 65 13 0f 3d
       0.039185207 -0.014213718 -0.08021694 0.034930605
0000d0 dd f1 fb 3c a7 c8 54 3d 66 37 74 3d 38 e4 1d bd
       0.030754978 0.05194917 0.059623145 -0.038547724
0000e0 a6 13 45 bd da 68 5f bc 4e 91 b3 bd 9b 37 7c bd
       -0.04811444 -0.013635838 -0.08767949 -0.061576467
0000f0 d2 e3 5b bd 0c b7 ad bc 7d 94 06 3d 80 7a b4 3c
       -0.053684063 -0.021205448 0.032856453 0.022031069
000100 f1 93 b2 3d 16 54 3c 3d 0c 8c 6a 3d 3a 1d b6 ba
       0.08719624 0.045978628 0.057262465 -0.0013894208
000110 33 6f da 3d 12 10 d5 3d 63 1b e0 bc 8a a3 29 bd
       0.10665741 0.10403456 -0.027356809 -0.04141573
000120 69 11 99 3d 6b fb 33 3d f9 91 6a bd 55 44 af 3d
       0.07474024 0.043940943 -0.057268117 0.08557955
000130 74 89 5d bd 5b 5c e1 bc 74 1a 2d bc f3 2b 0e 3e
       -0.054086164 -0.027509859 -0.010565389 0.13883953
000140 bd 6a ae 3d e7 fb 8e 3c 44 9d 51 3d 27 a9 ae bc
       0.085164525 0.0174541 0.05117537 -0.021320892
000150 d7 0c f8 bc 99 35 24 3d 99 3b 26 3d 26 86 a6 bd
       -0.03027956 0.040090177 0.04058418 -0.081310555
000160 67 d2 60 3d 5e a2 94 3c 0c 0b 84 3d 5a 7c c4 3c
       0.054888155 0.018143829 0.064474195 0.023985077
000170 36 6a 8a 3d c1 5c 1e bd 16 94 72 bd 76 2b cd bd
       0.067585394 -0.038662676 -0.059223257 -0.10018055
000180 b2 07 74 bd 1b c8 a8 3d 1d 28 ab bd 52 ae 9f bd
       -0.05957765 0.08241292 -0.083572604 -0.07796921
000190 a9 c7 63 bd 22 5d 76 bc fe 81 f9 bb ca ca a4 3d
       -0.055610333 -0.015036853 -0.007614373 0.080464914
0001a0 ed 58 84 bc 6f 63 a6 bc 86 8d 73 3d 31 4d 27 bd
       -0.016155684 -0.020311086 0.05946114 -0.0408451
0001b0 65 5d 89 bd d7 fa b3 bd 28 d1 22 3d fd 9a 9b 3d
       -0.06707267 -0.08788078 0.03975025 0.07597921
0001c0 95 fd 86 3d 4a bf 5b bd bf 1c 53 3d b0 d5 9c bd
       0.06591336 -0.053649224 0.051541086 -0.07657945
0001d0 bf 50 71 3d d1 e4 2a 3d 15 9c 81 bd db 79 b4 3d
       0.058914896 0.041722123 -0.063285984 0.088123046
0001e0 cf c4 6a bb 46 9e 37 3d 51 17 0f bd 6f 7e a2 bd
       -0.0035822873 0.044828676 -0.034934346 -0.079342715
0001f0 9d 60 47 3d 6b fc 79 bd 8b 82 01 3d 17 0c 5b bb
       0.048676122 -0.06103174 0.031618636 -0.0033423954
000200 99 04 88 bc 28 d0 b4 bd 25 3a d5 bd 94 57 62 3d
       -0.016603755 -0.08828765 -0.10411481 0.055259302
000210 98 2b bb bd 0f 92 55 bc ee 0c dd 3c 1e 15 ba bd
       -0.09139174 -0.013035311 0.026983704 -0.09086059
000220 b7 95 37 bc bb f7 ba bd ea 46 b1 3c 57 e0 de bc
       -0.011205128 -0.09129282 0.02164026 -0.027206583
000230 ab a5 60 bd c6 2d 71 bd 07 85 92 3c 4a 57 45 3d
       -0.054845493 -0.058881544 0.017885698 0.04817895
000240 61 d0 7a bd f8 76 17 3c b0 a2 51 bd 02 4a 75 3d
       -0.06123388 0.009244673 -0.05118054 0.059885032
000250 15 4d 4c bc b6 3b 0c 3d 31 4e bc ba cf 30 da 3b
       -0.01246955 0.034236632 -0.0014366565 0.0066586505
000260 71 af 27 bc 11 9e 56 bd 1e b4 2d 3d 6d 05 b2 3d
       -0.0102347 -0.052396838 0.0424081 0.08692441
000270 58 e3 a1 bd 90 6c 4a bd 03 f0 77 bc 37 73 65 3d
       -0.079046905 -0.04941994 -0.015132907 0.05601808
000280 cd 1a 19 3d 89 83 3f 3d c3 71 8f 3d 95 f3 c4 bd
       0.037379075 0.0467563 0.0700412 -0.09616772
000290 97 10 00 3d de 85 27 bc 3d 34 5b 3d 4a 5c a3 3d
       0.03126582 -0.0102247875 0.053516615 0.07976587
0002a0 22 8e 19 bd 9a 9b 5d bd 87 cb 63 bc fc 13 5a 3d
       -0.037489064 -0.05410347 -0.013903505 0.053241715
0002b0 75 1d a2 bd 28 91 8b 3d 6f 03 b1 bc 57 19 ce b9
       -0.07915775 0.06814796 -0.021608083 -0.00039310261
0002c0 96 c3 a1 bd b1 9a cc bb ec 6d ef 3b 32 e6 4b bc
       -0.07898633 -0.0062440266 0.007306805 -0.01244502
0002d0 70 02 88 bd 17 98 ae bd 03 73 32 bd c4 f6 2b b9
       -0.0664109 -0.085251026 -0.043566715 -0.00016399758
0002e0 ad 6a 84 3d e7 3b b3 bd f2 d8 c7 bd 25 35 15 bd
       0.06465659 -0.0875166 -0.09758176 -0.036427636
0002f0 11 f8 8d bd 90 4f d6 bd 9f 35 a0 3d c6 33 63 bd
       -0.069320805 -0.10464394 0.078227274 -0.055469297
000300 21 c6 c1 bd 86 f9 1b bd 22 5d 4d ba 3f 27 79 3d
       -0.09461618 -0.03807976 -0.0007834007 0.060828444
000310 b3 2e a1 bd 22 3c b3 bd 90 37 fb bc f0 a1 37 bd
       -0.07870235 -0.08751704 -0.030666143 -0.04483217
000320 68 33 54 3d a1 fd 7b bc 80 3f 64 3b c0 ac 75 3d
       0.051806837 -0.015380294 0.0034827888 0.0599792
000330 94 9c 98 3c 93 87 a1 3d ae f2 71 3d 4e 0f 53 3d
       0.01862935 0.07887187 0.059069328 0.051528268
000340 36 b5 72 3d d6 01 16 3d e0 e8 bb bc e8 23 31 bc
       0.059254847 0.036622845 -0.022938192 -0.010811783
000350 e3 43 b2 bd 48 1a 82 bd 7c 94 0c bd e0 40 3f bc
       -0.087043546 -0.06352669 -0.034321293 -0.011673182
000360 5d ba 82 3d bc 9f cd bc a6 35 92 bd 10 20 cf bb
       0.06383202 -0.025100581 -0.07139139 -0.006320961
000370 ea b4 00 bd 7a 4d 49 bd a4 e7 ce 3c b0 38 06 3c
       -0.031422533 -0.049146153 0.02525694 0.008192226
000380 66 57 0e bd 2c 69 d9 3c 50 f0 f7 3b 06 e6 34 3d
       -0.03475132 0.026539408 0.0075664893 0.04416468
000390 11 df c6 3d c0 86 11 3b c6 8e 84 bd 58 02 d3 3c
       0.09710515 0.0022205561 -0.06472544 0.025757954
0003a0 43 c8 ad bd ac d2 02 bd ed 2f 80 3d d1 c1 84 3d
       -0.084854625 -0.031939194 0.06259141 0.0648228
0003b0 86 95 bd bd 0f b9 bf 3d 1f 14 bb 3d ac c5 88 3c
       -0.09257035 0.09361469 0.09134697 0.01669582
0003c0 c5 c4 af bd 6d 4b a3 3d 02 1b 53 bd 1f fc 93 bd
       -0.08582453 0.07973371 -0.05153943 -0.07225823
0003d0 d6 d9 07 3d 2d 1d 8f 3d 41 bb 7f bd 85 26 ca bd
       0.03316673 0.06987987 -0.06243444 -0.09870628
0003e0 94 a0 c3 3c 40 a7 b8 3b f5 f2 81 3d 2f dd bb bd
       0.02388028 0.005635172 0.063451685 -0.09173047
0003f0 ef 5a 4e bd a0 ee 09 bd 03 48 9c bd 79 85 79 bd
       -0.05037969 -0.033674836 -0.07630923 -0.060918305

fc1.bias f4 [200]
000000 a5 f8 40 3d 79 bf a3 3d 04 b0 26 bd c9 19 96 3c
       0.047112126 0.07995505 -0.040695205 0.018322842
000010 32 b0 08 bd 29 45 8b bd 27 71 19 3b 4c 17 1f bd
       -0.033371158 -0.06800301 0.0023413391 -0.038840577
000020 65 4a 89 3d 66 43 10 be 96 ca 8b 3c 44 ec 54 bd
       0.06703643 -0.1408821 0.017064374 -0.051983133
000030 d7 01 a2 bd 7c 8a 9d bd 0e 0f 0b 3d bf be d4 bd
       -0.07910507 -0.076924294 0.033949904 -0.103879444
000040 a2 21 71 bd b0 be 0f 3c 72 88 8c 3d 8a bf a7 3d
       -0.058869965 0.008773491 0.068619624 0.0819083
000050 1c 20 2f bd b1 e3 87 3e 67 e3 0f bd b3 ed 81 3d
       -0.04275523 0.26540902 -0.035128977 0.06344166
000060 3a f5 d3 bd d2 e7 8b be 4e 20 58 bd 62 b1 b6 bd
       -0.10349508 -0.27325302 -0.052765183 -0.08920552
000070 c7 d0 83 bd d7 c7 ac bd 8b b9 c1 bd 03 c5 ba bd
       -0.064363055 -0.08436554 -0.09459218 -0.09119608
000080 bb e4 e7 ba 9f 9c 27 be fb 0a 9e 3d 53 51 27 be
       -0.0017692068 -0.1636834 0.07716938 -0.16339616
000090 19 28 03 3d 0d 94 96 bd 4d 7c 4c 3a 08 bb b1 3d
       0.032020662 -0.07352457 0.00078005047 0.086782515
0000a0 6f 14 83 3d ef a6 56 bd b3 44 34 bd 3a 97 99 bd
       0.06400382 -0.052405294 -0.04401083 -0.07499547
0000b0 8d ad 97 3d 7b 7c 2e bd dd 7a 49 bd 1a 6c 52 be
       0.07406149 -0.042599183 -0.049189437 -0.2054905
0000c0 9f 5e b0 bd 75 fd d9 3d 63 e0 c3 bc e8 9b ca bc
       -0.086117975 0.10644046 -0.023910707 -0.024732545
0000d0 0b f3 11 3e d5 f3 77 3d 76 23 1c be db bb 66 3d
       0.1425287 0.06053527 -0.15247902 0.056331497
0000e0 9b 90 7b be b0 1e 86 3d 39 7a 9d 3d 9a a3 c5 bd
       -0.24566881 0.06548822 0.07689328 -0.09650345
0000f0 77 3d 0d be f6 91 24 bd c3 c2 e1 bc 6e 95 7a bd
       -0.13792978 -0.04017826 -0.02755869 -0.061177664
000100 fa 0e c6 bd cc f0 d8 3c ba 5d a6 bd 00 bb dd b9
       -0.09670825 0.026482008 -0.08123346 -0.0004229173
000110 82 5f e1 3d d9 61 d7 3d d8 92 c2 bd dc 42 65 bd
       0.11004545 0.1051671 -0.095006645 -0.055971965
000120 67 30 cf 3d 6c fd b4 3d 12 5f 34 bd c1 6b 72 3d
       0.10116654 0.08837399 -0.04403598 0.059184793
000130 ed 54 8e 3c de 78 c3 bd ed dd 14 bd 39 0e 16 3e
       0.01737448 -0.09544538 -0.036344457 0.14653863
000140 28 bb bb bd 65 5c 0a 3e 21 ec 85 bd 59 69 a7 bd
       -0.091665566 0.13511808 -0.06539179 -0.0817439
000150 fa 22 8a 3d 9c 71 17 bc ae fd 07 3e 29 27 38 3e
       0.067449525 -0.009243395 0.13280365 0.17983688
000160 76 d6 55 bd 66 95 37 3e 57 49 20 be 16 76 27 3d
       -0.05220648 0.17928085 -0.15652977 0.0408841
000170 9b cb 6c bd e9 17 04 3e 6a 34 34 3d 04 8f 41 be
       -0.05781136 0.12899746 0.0439953 -0.18902212
000180 df f1 aa 3d 5c 49 cc 3d 7b d2 d3 3d 33 26 2e 3e
       0.083469145 0.0997493 0.1034288 0.1700676
000190 2b f5 3a bc fd 47 73 3d 4b a4 9f 3d 14 a2 00 bd
       -0.011410992 0.059394825 0.07795008 -0.03140457
0001a0 d5 17 9d bc a5 9e 4e bc c3 ab 95 bd 30 09 6a 3d
       -0.019176403 -0.012611066 -0.073081516 0.057137668
0001b0 6a 24 4d 3d a7 70 e0 bd 69 a6 ac 3d 1c be 05 bd
       0.050083555 -0.10958987 0.08430178 -0.032652006
0001c0 f2 13 18 bd 81 e7 d0 3d 0f ff 92 bd de 6a 96 bc
       -0.037128396 0.10200406 -0.07177555 -0.018361505
0001d0 9e 86 c0 bd de 81 a0 bd 4b 31 e1 bc ef f1 78 bc
       -0.09400676 -0.0783727 -0.027489325 -0.0151944
0001e0 13 1e 11 3d 38 32 81 3c be 21 a2 3d 2a 1d 4d 3c
       0.03542907 0.015771016 0.07916592 0.01251916
0001f0 a6 df 9a 3d 8d 05 6f bd c3 3e 5e be a1 4d 1b 3d
       0.07562189 -0.058354903 -0.21703629 0.03791583
000200 2b aa bb bd f2 bf 03 be 69 3a a8 bd b3 df 2e bd
       -0.09163316 -0.1286619 -0.08214266 -0.042693805
000210 ff 23 09 bd 90 e4 e2 3d 8c 77 9b 3d c8 09 4b bd
       -0.033481594 0.11078751 0.07591161 -0.049569875
000220 f7 0c 02 bd c9 57 0c be 2a f3 91 3d 56 2e 04 3c
       -0.031750645 -0.13705362 0.07126458 0.008067688
000230 3e 5a 4c 3d cb ad 4e bd be 69 74 3d 27 a0 64 3d
       0.04989075 -0.05045871 0.059671156 0.055816796
000240 07 bd 08 3d 4a f6 60 3d 32 4e a3 bd 50 62 bd bd
       0.033383396 0.05492238 -0.07973899 -0.09247267
000250 5f f2 cc 3d e8 35 8b bd 5b a9 67 bd c0 14 21 3e
       0.10007166 -0.06797391 -0.056557994 0.15730572
000260 64 00 64 bd d8 77 4d 3d 95 33 12 3e a5 3f 8c 3c
       -0.055664435 0.05016312 0.1427749 0.017120192
000270 00 73 c6 3d 30 80 7c 3c 5e 8d 47 bc 80 bb 9e 3d
       0.09689903 0.015411422 -0.012179701 0.077506065
000280 a8 45 58 3c d5 76 cc bd 59 94 ea 3d 5b 23 bb bd
       0.013200201 -0.09983603 0.11454076 -0.09137603
000290 d9 fb da bd 0c 70 05 be 60 5b b4 bc 44 3e 01 3e
       -0.106925674 -0.13031024 -0.022016227 0.12621409
0002a0 92 6f 86 3d 12 f6 5a bd 9f 46 99 3d 64 23 9b 3c
       0.06564249 -0.053457327 0.07484173 0.018937774
0002b0 ff 62 81 bd 34 d6 c2 bd da 77 81 3d 3b 5d 21 bc
       -0.0631771 -0.09513512 0.06321688 -0.009848888
0002c0 77 71 b0 3d 44 51 b6 bd 88 a9 e4 bc 06 cf 29 3e
       0.08615392 -0.08902219 -0.02791287 0.1658288
0002d0 2c 55 a6 bb 4e 68 c4 bd f6 db b9 bd 2e c9 7d bd
       -0.0050760712 -0.09590207 -0.09075157 -0.061959438
0002e0 4c da 92 bd 1d 53 82 3d bc 3c bb 39 c9 a3 d8 bd
       -0.07170543 0.06363509 0.0003571267 -0.105781145
0002f0 5e 8a ba bd ca 32 04 3d 30 ee 5b bd 74 a0 89 3d
       -0.09108423 0.032275 -0.05369395 0.06720057
000300 85 85 a1 3d 28 c6 9b bd 02 d2 6e 3d 54 b2 da bc
       0.07886795 -0.07606155 0.058305748 -0.026696362
000310 90 de 2d bc e3 60 9f 3d c8 c7 d3 bc 56 2e 2a bc
       -0.010612145 0.077821516 -0.025852099 -0.010387024

fc2.weight f4 [34, 200]
000000 74 75 96 3b 20 b9 14 bd 6a 9a 35 3d a1 ec a3 3d
       0.004591638 -0.03630936 0.044336714 0.08004118
000010 93 dd e0 bc 9b 25 75 bd 5b 70 96 3d 8d d1 94 3d
       -0.027449405 -0.059850316 0.07345649 0.07266531
000020 90 72 54 3d 1e 4b 8a 3d 14 49 31 3d 80 d4 fc ba
       0.051867068 0.06752609 0.043282583 -0.0019289404
000030 aa e0 ff bd 54 be 0b bd 40 25 1a 3b 2c e9 d7 bc
       -0.12494023 -0.034117058 0.0023520738 -0.026356302
000040 94 d6 4c bc 98 3d ce 3c cd 2c 8f 3d de bb 16 bb
       -0.012502331 0.025175855 0.06990967 -0.002300016
000050 b0 53 7f bc af 6a 1a 3e aa 42 88 3c be 7a d9 3c
       -0.0155839175 0.15079759 0.01663335 0.026547786
000060 fc 2e 1f 3d 86 29 89 3e 90 28 38 bc 98 af 0d 3d
       0.038863167 0.26789492 -0.01124014 0.034591287
000070 c9 3e 76 3d 0f 1f 57 bd cb b7 c8 bd e0 8d f8 bb
       0.06011847 -0.052519854 -0.09800681 -0.007585272
000080 04 7b 72 bd 5f a4 11 3d 4e d0 5d 3d b3 9d c1 3c
       -0.059199348 0.035557147 0.054153733 0.023634767
000090 67 a7 6b 3c 84 97 30 3c 7e ea 81 bd 36 9d 20 bc
       0.014383174 0.010778312 -0.06343554 -0.009803107
0000a0 2a d6 34 bd e9 34 e3 3c c4 53 b8 3d c0 8b 13 bd
       -0.044149555 0.02773519 0.09000352 -0.036021948
0000b0 78 14 d4 3d d2 b2 12 bd 68 87 31 bd 67 fd 73 be
       0.103554666 -0.035815068 -0.043342024 -0.23827134
0000c0 16 8b 32 bc 0f 36 d2 3b 06 ed d2 3d fa 85 25 3d
       -0.0108974185 0.0064151357 0.10299115 0.040410973
0000d0 25 4f c2 3d 3c b4 2a bd 29 7d 5e bc 6c 6b e4 bc
       0.09487752 -0.04167579 -0.013579645 -0.027883254
0000e0 09 43 37 3c 62 e2 19 3d 94 26 4b 3d 79 14 07 3d
       0.011185416 0.03756941 0.049597338 0.03297851
0000f0 59 10 18 3d d5 04 5c bc 8d 47 ae 3d e8 63 8a 3c
       0.037124965 -0.013428886 0.08509741 0.016893342
000100 f9 65 92 bb 5a 1f 4c bd 55 76 0d bd d8 7a 82 bc
       -0.0044677225 -0.049834587 -0.03453668 -0.015927717
000110 8b 6f cc bc 0c 7a d8 bc d1 49 41 bd a8 55 fc bc
       -0.024955532 -0.026425384 -0.047189537 -0.030802563
000120 a8 0c 28 be fa 54 ff 3d 31 cf 9b 3d 8c 18 e9 3c
       -0.16411078 0.1246738 0.07607878 0.028454088
000130 63 2b 27 3d 93 bc 39 3d ec 4e b3 3c f3 8a 19 3e
       0.04081286 0.045345854 0.021888219 0.14994411
000140 10 3a 89 3b 5c a5 94 3d 48 7a f0 3c eb 35 02 bd
       0.00418783 0.07258102 0.029355183 -0.0317897
000150 4b ac 7e bd d8 7e fb 3c 8b 1b a2 3d 27 e4 b9 bb
       -0.06217603 0.030700132 0.0791541 -0.00567295
000160 b0 c0 19 3d 7d 54 4c 3d ba 75 c9 3a ec 52 9e bc
       0.037537277 0.04988526 0.0015370168 -0.01932665
000170 20 ee fc bd 44 43 11 bd 78 c8 53 3c 27 08 ea 3c
       -0.12350106 -0.03546454 0.012926213 0.02856834
000180 b0 5f 38 bd 6c f1 bb 3d c3 e1 c2 3d 56 12 dd bd
       -0.04501313 0.09176907 0.09515717 -0.10794513
000190 d1 16 fe bb 86 d7 87 3d 94 d8 72 bd 00 10 02 3d
       -0.007754185 0.06632905 -0.059288576 0.03175354
0001a0 55 14 f7 3b d5 e0 ba 3c 34 cc 89 bd d8 0b 17 3d
       0.0075402656 0.022812286 -0.06728402 0.03687653
0001b0 ff ed c4 bc 7c 74 f4 39 8c 0b b3 bc fc b3 be bc
       -0.024039267 0.00046626094 -0.021856092 -0.023279183
0001c0 d6 ec 71 3c 2f c5 fd bd 5c 9c 90 bd 91 55 28 bd
       0.014765939 -0.123911254 -0.07061073 -0.041097227
0001d0 4e 72 e5 bc 90 77 a1 3c eb d5 86 3c 03 e0 42 bc
       -0.028008606 0.019710332 0.016459426 -0.011894229
0001e0 02 a1 98 3d c8 1f 03 bd 59 65 41 bc 9f 9f f3 3d
       0.07452585 -0.03201273 -0.011803948 0.1189568
0001f0 20 b7 c0 3d 00 32 71 3b 84 ab 63 3e a5 89 2c bd
       0.09409928 0.0036803484 0.22233397 -0.042123456
000200 ac 39 f5 3d a4 e2 58 3d f8 e3 1c 3d ea 68 62 3d
       0.11973891 0.052950516 0.038303345 0.055275835
000210 44 bc 2b bd 17 af 60 3d aa bd 00 3d ee 69 b1 bc
       -0.04192759 0.05485448 0.031430878 -0.021656957
000220 7f 78 58 be ed c6 d1 3d 1c 36 5b 3d 2c bf ad bd
       -0.21139716 0.1024302 0.0535184 -0.08483729
000230 a0 c0 29 3c b7 c3 c8 bc ab 01 a7 3d 5f f2 76 bd
       0.010360867 -0.024507387 0.08154615 -0.060289737
000240 48 5f 0c bd ed 1f 01 bd 50 e3 26 bd cb 67 24 3d
       -0.034270555 -0.031524587 -0.040744126 0.040138047
000250 75 a1 e6 3c 14 28 55 bd bc a4 5d 3d 4f 0a 90 3d
       0.02815316 -0.052040175 0.05411218 0.07033216
000260 08 b6 37 3d 3f ee 11 3e 56 39 b3 3d da 1a de bb
       0.044851333 0.1425104 0.0875117 -0.0067781033
000270 42 3c 82 bd f7 ca 1c 3c 01 e5 97 bc cf 24 6c 3d
       -0.063591495 0.009569875 -0.018541815 0.05765229
000280 35 63 8b 3c 9d 29 7d bd bf 34 32 3d f7 38 bd bc
       0.017015079 -0.061807264 0.043507334 -0.023098452
000290 b9 5e f2 bc a7 c2 70 3d 5c 51 bc 3c c2 d6 09 3e
       -0.029586183 0.058779385 0.022988014 0.1346083
0002a0 28 9f 4d 3d d8 cc 3a 3d b7 af 04 3d 0e 0e 58 bd
       0.05020061 0.04560551 0.032394137 -0.05274778
0002b0 f0 d8 b0 bc a3 09 c8 bc e6 03 0e bd ef 7c 99 3c
       -0.021587819 -0.024418658 -0.034671687 0.01873633
0002c0 9e 48 4b 3c 06 43 f2 3d e8 e4 c9 b9 4f b9 02 bd
       0.01240745 0.1182919 -0.00038508256 -0.031915005
0002d0 18 0d c3 3d 0f 16 8c 3d a6 cb 1f 3d a0 18 49 3c
       0.09523982 0.06840145 0.039012574 0.012273937
0002e0 4f e9 5d bd 68 f6 db 3d cf 61 dd 3c 21 f9 03 3e
       -0.05417758 0.10740358 0.027024178 0.12888004
0002f0 b9 fb 69 bd 3d fd 06 bd 2c 84 7d 3d b9 1f 65 bd
       -0.057124827 -0.03295635 0.061893627 -0.055938456
000300 64 03 9a 3d 7f 66 f7 3c fb 7b 40 bd d3 ae 09 3d
       0.07520178 0.030200241 -0.046993237 0.03361399
000310 12 84 1c bd f7 ab 94 bc d9 13 23 bd 3b ca a3 3d
       -0.03821189 -0.018148405 -0.03981385 0.07997557
000320 d4 dd 84 bc 35 48 36 bd 04 36 45 bc bc c7 8f 3d
       -0.016219057 -0.044502456 -0.012036804 0.07020518
000330 aa 0a dd bb 4c b3 53 3d 36 09 4a bd 6f ab 8a 3d
       -0.006745656 0.051684663 -0.04932519 0.067709796
000340 cc 61 82 bd ef 66 33 3d 22 c3 4c 3d d4 da c4 bc
       -0.063663095 0.043799337 0.04999078 -0.024030127
000350 75 86 53 be da 73 1d 3d f4 fb 8e bd 29 82 57 bd
       -0.2065676 0.038440563 -0.0698165 -0.052614365
000360 40 3c 0a bc 64 f4 2a 3d 7a 7a 6e 3d 0d 6c 3d bd
       -0.008437216 0.041736975 0.05822227 -0.046245623
000370 7e 9f d0 bc a5 b8 39 3c 36 be 29 3d 9c d8 2d 3d
       -0.025466677 0.011335527 0.041441165 0.042442903
000380 b1 46 cf 3c d0 0c 8e 3e ac cf 1a 3e cf ef 56 bd
       0.025302263 0.2774415 0.15118283 -0.052474793
000390 0f 3e 84 3d 89 fe 26 bc da 58 97 bd 44 90 ce 3c
       0.06457149 -0.010192522 -0.07389994 0.025215276
0003a0 5f 02 38 bd f4 de bf bc ff 95 1a bd 08 a3 7d bc
       -0.044924136 -0.023421742 -0.037740704 -0.015480764
0003b0 f2 5e 12 3d 12 b0 38 bd 46 f3 4b bd 62 2a 2e 3b
       0.03573508 -0.04508979 -0.04979255 0.0026575555
0003c0 df c9 5b bd 1c 61 ab 3d 21 04 9c 3b 53 b2 35 bd
       -0.053659316 0.083681315 0.0047612344 -0.044359516
0003d0 15 43 96 3d 03 c6 5a bd 10 93 f8 3c 54 02 b6 bd
       0.07337014 -0.053411495 0.030343562 -0.08887163
0003e0 38 df 14 3c f6 e9 97 3d f9 39 e6 bb be fe 39 3d
       0.009086423 0.074176714 -0.007025954 0.045408957
0003f0 87 2d 41 3a 39 c1 09 3d a4 37 e7 bc d1 51 f9 3c
       0.000736915 0.033631537 -0.028224774 0.03043452

fc2.bias f4 [34]
000000 31 e4 09 3d dd 7e 0b 3d 10 15 0e 3d 3d ff 2c bd
       0.033664886 0.034056533 0.034688056 -0.0422356
000010 16 0b 54 3d 3e 61 dd 3c e3 dd fe 3c 91 ad 0e 3d
       0.051768385 0.027023908 0.031111663 0.034833495
000020 6f f4 9d 3c a2 8b ae 3d bb 55 7c 3d ea c2 b9 3d
       0.019281594 0.085227266 0.061605196 0.0907038
000030 75 b7 a3 3d 74 6f 9e 3d 0a 64 09 3d 69 a0 63 3d
       0.07993976 0.07736102 0.03354267 0.0555729
000040 e1 51 8b 3d 2b aa 1c 3d ae 9d 89 3d 80 10 f6 3c
       0.068027265 0.038248222 0.06719528 0.030037165
000050 7a 90 4c 3c 84 5e 84 3d be a9 10 3d c2 46 b5 3c
       0.012485618 0.0646334 0.03531813 0.022128467
000060 a4 82 20 3c fe 1f 14 bc 3b f4 0c 3c 5f 4a 5d bb
       0.009796772 -0.009040831 0.008603151 -0.0033766252
000070 74 d1 14 bb 51 33 98 3d 86 61 2a bb b1 dc d5 3c
       -0.0022707852 0.07431663 -0.002599807 0.02610621
000080 fc 62 7b 3d 81 ae d2 3a
       0.061373696 0.0016073735
