model/saved_models/FNN_pb1.pt (torch, 111439 bytes, 4 tensors)

fc1.weight f4 [200, 102]
0.2069163 0.1795055 0.19232951 -0.0025194779 0.03619114 0.036309164 0.0026591362 -0.022156386
0.00853438 0.0328452 0.027155945 -0.044092886 -0.023292467 -0.075140044 0.054343358 0.039235726
0.05032919 0.018408334 0.02205616 0.048213847 0.06555055 0.043902617 0.08115239 0.053273026
-0.03652515 -0.058064107 -0.06864644 0.0015061921 -0.03587145 -0.030139348 0.1035483 -0.044992033
0.048342332 -0.11345826 -0.14571209 -0.12425077 -0.055279315 0.08303254 -0.071726784 -0.06796035
0.110341355 -0.050295934 0.050287656 -0.07908356 0.013232949 -0.06487659 0.04340169 0.07000914
-0.07131193 -0.07875858 -0.029755332 0.09717552 0.10576172 0.06764784 -0.015453187 0.050969686
0.013087422 0.05980986 0.0120801 -0.021460121 0.08158871 -0.02898034 0.10205948 -0.0030491522
0.047778618 -0.008496929 -0.069221534 -0.114256375 -0.03839026 -0.026493505 -0.060414422 -0.061569616
-0.07011972 0.04549186 -0.019198196 -0.091252014 0.03333955 0.10854587 0.010957099 0.09550242
-0.015581044 0.035037804 -0.025458502 -0.057352208 0.05782815 -0.034244522 -0.04723067 0.105487235
0.0925327 0.1008853 -0.08839619 -0.07148683 0.0097058965 0.0018680128 -0.07563393 -0.015760865
-0.023531131 0.088947766 -0.0528472 -0.07443162 0.048045322 -0.043905053 0.0009828731 -0.050682377
0.02738417 -0.0745913 0.078723885 -0.06070215 0.013459444 0.07268662 -0.07147274 -0.082830414
-0.026287526 -0.07829076 0.022123888 -0.042035528 -0.09348041 0.0715914 0.022159897 -0.04702698
0.095007025 0.03640499 0.026049174 0.09802266 0.0042642877 -0.08898471 -0.056548752 -0.08537813
0.013555519 -0.016869038 0.04570841 0.01199767 -0.086365245 0.083911456 0.015476637 -0.080020115
-0.088321105 0.0044826567 0.07419158 0.0045983195 -0.06434952 0.07142552 -0.06574431 0.04636436
-0.05080917 -0.015573464 -0.07600085 0.057946272 0.00898359 0.041609578 -0.09294836 0.038079
-0.0056665987 -0.031805985 0.051013596 0.0028569996 -0.012975305 0.088770635 -0.06805013 0.058492072
-0.032497793 0.0931037 -0.06349833 -0.032160312 -0.064424425 0.0413244 0.08009141 0.013905622
0.06928269 0.056978412 -0.03611587 -0.00798168 0.009511396 0.015873037 -0.009061232 0.09724104
-0.07629821 -0.0941228 -0.007563561 0.048034526 0.04140877 -0.018553168 -0.017965592 0.046159692
0.0025824234 -0.0475467 -0.0025024936 -0.042112626 0.07622341 -0.06341487 0.018234164 -0.082732245
0.09591202 0.036570407 0.05157172 -0.030175105 0.04310227 -0.017529309 -0.027528048 -0.015915737
-0.07146378 -0.054951422 0.052925132 -0.09025631 -0.000546515 -0.09500145 -0.040073436 0.076657675
-0.045660388 0.08783618 -0.09691218 0.028232254 -0.017924339 0.041021176 0.0941317 -0.006331101
-0.07594812 -0.03149072 0.08931398 -0.008602478 -0.04581133 0.020153023 -0.0645887 -0.097194314
-0.042216532 -0.043051288 -0.03666753 -0.08757113 0.083299465 0.025221474 0.077385 -0.09737349
0.07317742 -0.0013886541 -0.085017525 -0.071133025 0.029459469 0.036394067 -0.0035337508 0.0051098093
-0.006079994 -0.011112459 -0.080192156 -0.0884716 0.0813703 -0.088562846 0.023911767 0.04184193
-0.0572048 0.017819546 -0.07694153 0.0018831715 -0.05756404 0.045890473 0.043673106 0.039026715
00000000: dee1 533e 4ad0 373e 07f2 443e d31d 25bb
00000010: 293d 143d ebb8 143d e744 2e3b 4f81 b5bc
00000020: c9d3 0b3c b088 063d 2576 de3c be9a 34bd
00000030: d8cf bebc 06e3 99bd 2497 5e3d a4b5 203d
00000040: fb25 4e3d 13cd 963c 1faf b43c e27b 453d
00000050: 5e3f 863d 3bd3 333d 3933 a63d d134 5a3d
00000060: 659b 15bd a1d4 6dbd 8196 8cbd 6c6b c53a
00000070: f1ed 12bd cbe6 f6bc 2211 d43d 9149 38bd
00000080: 9c02 463d ce5c e8bd 8d35 15be 3077 febd
00000090: 906c 62bd f70c aa3d 7ee5 92bd cc2e 8bbd
000000a0: a6fa e13d 1c03 4ebd 6efa 4d3d 90f6 a1bd
000000b0: 03cf 583c 05de 84bd f8c5 313d f460 8f3d
000000c0: fd0b 92bd 2e4c a1bd 74c1 f3bc f603 c73d
000000d0: 9a99 d83d f38a 8a3d 5d2f 7dbc 97c5 503d
000000e0: a06c 563c 2ffb 743d 9deb 453c 23cd afbc
000000f0: fb17 a73d 2e68 edbc 9004 d13d 49d4 47bb
00000100: 83b3 433d b436 0bbc 05c4 8dbd 3fff e9bd
00000110: 1b3f 1dbd e808 d9bc 1d75 77bd 6c30 7cbd
00000120: ee9a 8fbd ac55 3a3d 8945 9dbc 56e2 babd
00000130: 0d8f 083d 4c4d de3d 6785 333c c696 c33d
00000140: a347 7fbc cd83 0f3d 598e d0bc 26ea 6abd
00000150: 36dd 6c3d fc43 0cbd f274 41bd b109 d83d
00000160: c981 bd3d f49c ce3d 1009 b5bd b067 92bd
00000170: 7b05 1f3c 1cd8 f43a f6e5 9abd ee1c 81bc
00000180: 5cc4 c0bc 3f2a b63d 4e76 58bd 9b6f 98bd
00000190: 2ccb 443d c9d5 33bd c0d3 803a 5398 4fbd
000001a0: c454 e03c 53c3 98bd fd39 a13d d1a2 78bd
000001b0: 0085 5c3c b9dc 943d 4d60 92bd fea2 a9bd
000001c0: f058 d7bc e856 a0bd 283d b53c 722d 2cbd
000001d0: a872 bfbd 839e 923d ac88 b53c 5d9f 40bd
000001e0: 0b93 c23d 661d 153d 1465 d53c 1bc0 c83d
000001f0: 70bb 8b3b 9e3d b6bd aa9f 67bd bbda aebd
00000200: f817 5e3c f030 8abc be38 3b3d e091 443c
00000210: 43e0 b0bd c5d9 ab3d b891 7d3c 96e1 a3bd
00000220: b2e1 b4bd 40e3 923b c1f1 973d 80ad 963b
00000230: aec9 83bd 8b47 923d f4a4 86bd 8ee8 3d3d
00000240: 471d 50bd d827 7fbc 55a6 9bbd 1259 6d3d
00000250: e82f 133c ce6e 2a3d b65b bebd baf8 1b3d
00000260: e0ae b9bb fe46 02bd a2f3 503d 803c 3b3b
00000270: 6096 54bc 61cd b53d de5d 8bbd 6295 6f3d
00000280: 681c 05bd 27ad be3d 6a0b 82bd 88ba 03bd
00000290: f4f0 83bd c643 293d f706 a43d 68d4 633c
000002a0: 15e4 8d3d 3262 693d 3cee 13bd 98c5 02bc
000002b0: b0d5 1b3c 2c08 823c 9075 14bc 4f26 c73d
000002c0: 3c42 9cbd 74c3 c0bd c0d7 f7bb dabf 443d
000002d0: 3e9c 293d d0fc 97bc 942c 93bc f211 3d3d
000002e0: e03d 293b 54c0 42bd e000 24bb 4a7e 2cbd
000002f0: 051b 9c3d a8df 81bd d05f 953c 866f a9bd
00000300: 856d c43d daca 153d de3c 533d c831 f7bc
00000310: 028c 303d a099 8fbc 8082 e1bc b861 82bc
00000320: 9a5b 92bd be14 61bd 06c8 583d 4dd8 b8bd
00000330: 0044 0fba 1f90 c2bd 0b24 24bd b3fe 9c3d
00000340: 6306 3bbd 75e3 b33d e579 c6bd 5447 e73c
00000350: 10d6 92bc d205 283d 1fc8 c03d 2075 cfbb
00000360: b08a 9bbd 6afc 00bd 3fea b63d 68f1 0cbc
00000370: a9a4 3bbd f417 a53c 1547 84bd d00d c7bd
00000380: 3eeb 2cbd 8c56 30bd b130 16bd 7e58 b3bd
00000390: e998 aa3d 449d ce3c 077c 9e3d c16b c7bd
000003a0: 0bde 953d 8003 b6ba ab1d aebd 31ae 91bd
000003b0: fc54 f13c f211 153d 8096 67bb 3070 a73b
000003c0: b03a c7bb 0811 36bc c93b a4bd 9930 b5bd
000003d0: 79a5 a63d 7060 b5bd 9ce2 c33c 7262 2b3d
000003e0: 954f 6abd 4cfa 913c 8593 9dbd c0d4 f63a
000003f0: 45c8 6bbd a6f7 3b3d 92e2 323d 7ada 1f3d

fc1.bias f4 [200]
0.0716955 -0.085579336 -0.032532483 0.017184073 0.00090828346 0.06753565 -0.018386275 0.014718026
0.081731424 -0.08516311 0.08064488 -0.048425894 -0.017583128 0.089821965 0.013679617 -0.03519937
0.032166004 0.07514111 0.06790405 0.09821848 0.017054256 0.026398666 -0.05060211 -0.16635028
-0.0238009 -0.013292529 -0.03319201 -0.025901929 -0.064509444 -0.06341942 -0.02923456 0.03207829
-0.081638 0.059019145 -0.03260671 0.02137134 -0.094642095 0.082745306 0.05435085 -0.066937886
0.02294268 0.042646565 0.0012976503 -0.1313421 -0.11825546 -0.07273352 0.03598716 0.04091493
-0.1136864 0.12618706 -0.028645083 -0.04373028 -0.032591805 0.036315553 -6.4072636e-05 0.077202305
0.07827178 -0.013487522 0.07287126 0.16652174 -0.0030402318 -0.06586926 -0.0729705 0.007262781
0.13317686 -0.076804444 -0.05465584 0.12558654 0.06965606 0.020999854 0.025705617 0.08377913
0.05812001 -0.09971398 -0.0043969145 0.09964209 0.07798535 0.05495175 -0.008605287 -0.05632485
-0.028242575 0.004311162 -0.04401214 -0.05366844 0.05793889 0.035733346 0.06120273 -0.095151834
0.017878147 0.103369474 0.040614035 0.040183067 -0.1443656 0.16599813 0.08127668 -0.03596123
0.0780729 0.11725027 -0.0038425997 0.02416408 -0.036697675 0.038426332 -0.06570933 -0.09999262
0.010898502 -0.08280465 0.11859664 0.09487529 0.012490179 0.11491702 -0.0059882514 -0.039194103
-0.084716536 -0.100090094 0.051493045 0.043238264 -0.08522005 0.04333336 0.043549277 -0.009980217
0.05263183 -0.08343761 -0.062039327 -0.11597148 0.08845934 -0.06905199 0.02217234 0.0007703297
-0.0719424 0.0012335107 -0.010694827 0.0452207 0.028269919 -0.096006185 0.15386848 0.06744049
-0.13922909 0.04988867 0.05888519 0.0815305 0.026625568 0.08929632 -0.0046004876 0.03925488
0.042084366 -0.057382803 -0.08841848 -0.021713987 0.03525126 0.04279647 -0.026787497 -0.00729461
-0.06744431 0.08872079 0.12942646 -0.0055551357 0.0036477968 0.11540811 0.14371246 -0.008826212
-0.032870803 0.020703433 -0.010844685 0.06114142 -0.04560319 0.015211996 0.117430836 0.05384563
-0.03164512 0.004918219 -0.0010787937 0.044315033 -0.035407156 0.0019059792 0.032165512 -0.00420546
0.02767213 -0.041333314 -0.052434262 0.026999578 0.07307546 -0.017798085 0.070240326 0.05622746
0.050349914 0.046621315 -0.053533576 0.056479685 0.025896484 -0.031014591 0.022739097 0.103360094
-0.07206145 0.012073073 -0.04653461 -0.01297161 0.10784435 -0.058082964 0.06667422 -0.14859031
00000000: 17d5 923d 3844 afbd c840 05bd 9dc5 8c3c
00000010: df19 6e3a 2250 8a3d d09e 96bc e023 713c
00000020: ce62 a73d ff69 aebd 2529 a53d 3b5a 46bd
00000030: 7e0a 90bc 94f4 b73d 7920 603c 372d 10bd
00000040: 80c0 033d 95e3 993d 4711 8b3d c526 c93d
00000050: 5eb5 8b3c 0442 d83c 2844 4fbd ba57 2abe
00000060: 1bfa c2bc e8c8 59bc 58f4 07bd 4830 d4bc
00000070: 871d 84bd 0ae2 81bd 517d efbc 8664 033d
00000080: d331 a7bd 0fbe 713d 9d8e 05bd f312 af3c
00000090: b7d3 c1bd 5f76 a93d ff9e 5e3d bb16 89bd
000000a0: 4af2 bb3c 2aae 2e3d eb15 aa3a 8b7e 06be
000000b0: eb2f f2bd 50f5 94bd 4667 133d 6a96 273d
000000c0: 6ad4 e8bd 2e37 013e 18a9 eabc 861e 33bd
000000d0: fc7e 05bd 9ebf 143d bc5e 86b8 3e1c 9e3d
000000e0: f44c a03d c4fa 5cbc 873d 953d ad84 2a3e
000000f0: a03e 47bb 76e6 86bd 8f71 95bd 9ffc ed3b
00000100: 845f 083e a64b 9dbd cdde 5fbd c299 003e
00000110: d6a7 8e3d e307 ac3c 9694 d23c 6494 ab3d
00000120: 3f0f 6e3d d836 ccbd fe13 90bb 2711 cc3d
00000130: c8b6 9f3d 1615 613d 31fd 0cbc e3b4 66bd
00000140: f95c e7bc a644 8d3b 1346 34bd 70d3 5bbd
00000150: 5451 6d3d 215d 123d b7af 7a3d f7de c2bd
00000160: 3175 923c 60b3 d33d e75a 263d 0097 243d
00000170: 93d4 13be 6afb 293e 6374 a63d 154c 13bd
00000180: afe4 9f3d e920 f03d 20d4 7bbb c0f3 c53c
00000190: 4d50 16bd ee64 1d3d 9d92 86bd eec8 ccbd
000001a0: a18f 323c 7c95 a9bd cce2 f23d fa4d c23d
000001b0: 9ca3 4c3c 9d59 eb3d 1839 c4bb ff89 20bd
000001c0: dd7f adbd 09fc ccbd 5fea 523d 9b1a 313d
000001d0: d987 aebd 527e 313d ba60 323d 1084 23bc
000001e0: 7994 573d 56e1 aabd f31c 7ebd 7582 edbd
000001f0: 2c2a b53d 216b 8dbd c4a2 b53c f3ef 493a
00000200: 8956 93bd c0ad a13a 5b39 2fbc 5739 393d
00000210: 5196 e73c e49e c4bd b38f 1d3e 3d1e 8a3d
00000220: 1292 0ebe 1058 4c3d 9931 713d 76f9 a63d
00000230: dd1d da3c fde0 b63d b0bf 96bb bac9 203d
00000240: a860 2c3d 3b0a 6bbd bf14 b5bd 88e1 b1bc
00000250: a063 103d 5a4b 2f3d 7471 dbbc a007 efbb
00000260: 3e20 8abd 3fb3 b53d 5f88 043e db07 b6bb
00000270: e00f 6f3b 165b ec3d 5c29 133e d19b 10bc
00000280: 89a3 06bd 3f9a a93c e8ad 31bc 6d6f 7a3d
00000290: 69ca 3abd bc3b 793c 947f f03d 3c8d 5c3d
000002a0: 509e 01bd 0329 a13b 4f66 8dba ae83 353d
000002b0: 1807 11bd 0dd2 f93a fcbf 033d f5cd 89bb
000002c0: aab0 e23c 1f4d 29bd 4fc5 56bd 382e dd3c
000002d0: 96a8 953d 4acd 91bc 29da 8f3d c44e 663d
000002e0: b63b 4e3d fef5 3e3d 0646 5bbd 3e57 673d
000002f0: dd24 d43c 5012 febc 5847 ba3c 75ae d33d
00000300: f494 93bd 23ce 453c 139b 3ebd e086 54bc
00000310: 80dd dc3d 67e8 6dbd 7e8c 883d 0f28 18be

fc2.weight f4 [34, 200]
0.011627187 -0.00787174 0.00041951984 -0.0014027143 0.06683898 0.1364115 0.026115984 -0.010241684
0.0036176848 0.044464864 0.06612421 0.038852304 -0.18401614 -0.0039214063 0.055792823 -0.025676258
0.09684383 0.03148728 -0.04452789 0.04957794 0.033719886 0.02399839 -0.046178907 0.017770216
-0.08785369 0.05572601 0.025485763 0.058978297 0.05733821 -0.012439454 -0.039909575 0.025204469
-0.010823194 0.019913623 0.12237351 0.18302552 -0.046805546 -0.008153418 0.030717788 -0.2020723
0.040337015 -0.06202345 0.13338988 -0.039462946 0.009868897 0.087484196 0.034635358 0.0145677775
-0.08920167 -0.12688382 -0.04127639 -0.04540534 -0.038516868 -0.0064288005 -0.015342473 0.0025208844
0.04396171 0.11801216 -0.022477442 -0.06154361 -0.063388 0.0050296825 -0.012811448 -0.033183046
0.17324387 0.04312249 -0.10237281 0.07964799 0.061499026 -0.13893092 0.033252675 0.057053164
0.06607737 0.058493555 -0.053768445 -0.021242382 0.03798673 0.0022773745 -0.03259902 0.020313255
-0.045551915 -0.019461809 0.091389745 -0.0015308231 0.029714983 -0.12789124 0.0825363 -0.027753977
0.0077188 -0.075413875 0.0062875818 -0.007262856 0.23832233 0.14229068 -0.023925968 0.13879414
0.06207197 -0.056600276 0.027854614 0.038876474 -0.011595957 0.023817446 0.035511293 0.06323189
0.02725398 0.038607914 0.03546419 0.042828664 -0.05514084 0.04768146 0.104024865 -0.2104868
-0.0506125 -0.048364185 0.05979546 0.015726978 0.018804183 -0.036981054 -0.025712123 0.011571288
-0.03454743 0.2912234 0.06843162 0.011941973 0.07885346 -0.061738055 -0.0076196194 0.12444679
-0.027567454 -0.009658229 -0.025750168 -0.06111011 0.018483588 -0.06020421 -0.08873646 0.12602684
0.10662565 -0.0021571254 0.0064120805 0.07579945 0.18000443 -0.06466937 0.053343795 -0.068943374
0.1095794 -0.13260375 -0.005031451 0.037286237 0.077490166 0.11782935 0.04417353 0.018184997
-0.05695481 0.044419676 0.10771527 0.0386712 0.041878372 0.045178615 -0.06947877 0.19286606
-0.10307307 0.03161707 0.048542555 -0.086057276 -0.03706582 -0.11064505 0.052525062 -0.035603542
0.006437255 -0.08050835 0.048214316 -0.01178804 0.04933995 -0.042245638 0.012928625 0.039490853
-0.08245135 0.01925832 -0.0121641075 0.05476548 -0.04397718 0.014305342 -0.036685538 -0.0050228317
0.03465008 -0.10199886 0.057439435 0.02755814 0.025640575 -0.03544202 0.0075274557 -0.06018635
0.080678724 -0.061663613 -0.026892588 -0.033003967 -0.047090787 0.027015503 0.01528672 -0.07424816
-0.02099112 -0.031043306 -0.014660865 0.043418676 0.13860247 0.06803171 -0.047934398 0.05516004
0.2010925 -0.07194539 0.03337646 0.066009246 -0.13986084 0.0210425 -0.011537207 -0.07740393
0.10372465 0.092454955 0.032554463 0.055042777 0.09404759 0.003961497 -0.06540921 -0.11985626
-0.04337838 0.15455666 0.026284222 0.016100518 -0.0014632073 0.059026416 0.012851497 0.03371121
0.056356274 0.037958417 0.085493095 0.17556415 -0.00093314797 -0.054572538 0.05990263 -0.055477176
0.03879593 0.058190368 0.3614501 -0.041872624 0.08287943 0.22220099 0.043764494 -0.059166145
-0.120646946 -0.13480614 0.05575507 -0.039722856 0.030572116 -0.021281175 0.037347216 -0.012454677
00000000: f57f 3e3c 78f8 00bc 00f3 db39 48db b7ba
00000010: e0e2 883d 75af 0b3e 30f1 d53c bccc 27bc
00000020: ae16 6d3b ca20 363d 216c 873d 9823 1f3d
00000030: ba6e 3cbe 247f 80bb 0487 643d 0457 d2bc
00000040: 0f56 c63d cef8 003d e062 36bd 3d12 4b3d
00000050: dd1d 0a3d 4698 c43c 1826 3dbd d892 913c
00000060: a3ec b3bd f540 643d 85c7 d03c 3a93 713d
00000070: 79db 6a3d dace 4bbc 3978 23bd 9a79 ce3c
00000080: c453 31bc e521 a33c f69e fa3d 0b6b 3b3e
00000090: 2cb7 3fbd ea95 05bc dfa3 fb3c 0aec 4ebe
000000a0: 6d38 253d 4d0c 7ebd 5b97 083e e6a3 21bd
000000b0: 27b1 213c ea2a b33d cedd 0d3d b0ad 6e3c
000000c0: 5daf b6bd d5ed 01be 6f11 29bd f3fa 39bd
000000d0: ddc3 1dbd b0a8 d2bb ff5e 7bbc 6c35 253b
000000e0: 3211 343d 5cb0 f13d 9d22 b8bc 2715 7cbd
000000f0: 91d1 81bd 09d0 a43b 1ce7 51bc f2ea 07bd
00000100: d766 313e 35a1 303d d6a8 d1bd 7c1e a33d
00000110: 67e6 7b3d e843 0ebe f533 083d 94b0 693d
00000120: 9253 873d f096 6f3d 4d3c 5cbd 8104 aebc
00000130: f997 1b3d 0140 153b 8d86 05bd fc67 a63c
00000140: a594 3abd 5f6e 9fbc 8c2a bb3d e6a5 c8ba
00000150: d66c f33c ecf5 02be cb08 a93d 4f5c e3bc
00000160: fded fc3b 9772 9abd 0f08 ce3b 40fd edbb
00000170: c50a 743e a6b4 113e 6400 c4bc 0d20 0e3e
00000180: 2e3f 7e3d b1d5 67bd 5c2f e43c f03c 1f3d
00000190: f8fc 3dbc ce1c c33c 4a74 113d b97f 813d
000001a0: bd43 df3c 5523 1e3d e642 113d 1c6d 2f3d
000001b0: 5ddb 61bd a24d 433d fd0a d53d da89 57be
000001c0: 0e4f 4fbd 8619 46bd 16ec 743d ddd5 803c
000001d0: 3b0b 9a3c 7279 17bd 3ba2 d2bc 8095 3d3c
000001e0: 9b81 0dbd 3c1b 953e e125 8c3d 44a8 433c
000001f0: ec7d a13d 0be1 7cbd 00ae f9bb f5dd fe3d
00000200: 24d5 e1bc 8c3d 1ebc 04f2 d2bc 984e 7abd
00000210: e56a 973c b198 76bd 76bb b5bd 2e0d 013e
00000220: 8c5e da3d 8f5e 0dbb 6e1c d23b be3c 9b3d
00000230: 1553 383e 6071 84bd 067f 5a3d 2f32 8dbd
00000240: 2a6b e03d 47c9 07be dfde a4bb 74b9 183d
00000250: 2ab3 9e3d 8450 f13d 4eef 343d b4f8 943c
00000260: 7249 69bd 68f1 353d d399 dc3d b165 1e3d
00000270: a888 2b3d 360d 393d e34a 8ebd ae7e 453e
00000280: f917 d3bd e780 013d 8fd4 463d cc3e b0bd
00000290: 54d2 17bd df99 e2bd 8524 573d 05d5 11bd
000002a0: 9cef d23b 90e1 a4bd 607c 453d a022 41bc
000002b0: b018 4a3d c309 2dbd 95d2 533c 29c1 213d
000002c0: 41dc a8bd a0c3 9d3c f74b 47bc c551 603d
000002d0: 6a21 34bd f460 6a3c 9343 16bd 9196 a4bb
000002e0: 3eed 0d3d c7e4 d0bd 9d45 6b3d 9cc1 e13c
000002f0: 2f0c d23c a72b 11bd e0a8 f63b f685 76bd
00000300: e33a a53d fc92 7cbd d84d dcbc 2b2f 07bd
00000310: 45e2 40bd 9e4f dd3c 2775 7a3c 6b0f 98bd
00000320: 92f5 abbc 884e febc 2034 70bc c8d7 313d
00000330: ceed 0d3e 3654 8b3d dc56 44bd 7eef 613d
00000340: 31eb 4d3e 1b58 93bd c1b5 083d db2f 873d
00000350: ae37 0fbe 5261 ac3c 8e06 3dbc f485 9ebd
00000360: 976d d43d 0659 bd3d d457 053d 8974 613d
00000370: 069c c03d 72cf 813b 44f5 85bd 3377 f5bd
00000380: 87ad 31bd 1a44 1e3e 0252 d73c 3ce5 833c
00000390: 17c9 bfba afc5 713d 168f 523c c414 0a3d
000003a0: d6d5 663d 497a 1b3d 0117 af3d 17c7 333e
000003b0: 809e 74ba 7487 5fbd 765c 753d 093c 63bd
000003c0: 7be8 1e3d 0659 6e3d fd0f b93e a182 2bbd
000003d0: b1bc a93d a888 633e 6642 333d 3358 72bd
000003e0: bf15 f7bd 9f0a 0abe 6e5f 643d 6fb4 22bd
000003f0: 6072 fa3c dc55 aebc 65f9 183d b40e 4cbc

fc2.bias f4 [34]
0.05835462 -0.0068111373 -0.033543676 -0.0071107987 -0.03971306 -0.021507135 0.07072911 0.086770676
0.008960766 0.0043824865 0.007272329 0.031165797 0.02249138 0.031076573 -0.03865786 -0.027024211
0.044430647 -0.044591554 -0.051400762 0.012252205 -0.026967749 -0.021591904 0.017551735 -0.012845107
-0.038610477 -0.036764838 0.057022285 -0.017534735 0.07773936 0.06763386 0.008401364 0.07225267
0.012680076 -0.013326372
00000000: 4105 6f3d f62f dfbb 1865 09bd b401 e9bb
00000010: 29aa 22bd bb2f b0bc 6cda 903d d3b4 b13d
00000020: 2dd0 123c f69a 8f3b b84c ee3b 6a4f ff3c
00000030: d83f b83c 4c94 fe3c b457 1ebd e161 ddbc
00000040: e9fc 353d a2a5 36bd 9b89 52bd 79bd 483c
00000050: 78eb dcbc 81e1 b0bc a8c8 8f3c 4974 52bc
00000060: 0526 1ebd ba96 16bd 3390 693d 01a5 8fbc
00000070: d035 9f3d 9f83 8a3d e0a5 093c 35f9 933d
00000080: 18c0 4f3c db56 5abc
