model/saved_models/mlptest.pt (torch, 636383 bytes, 6 tensors)

fc1.weight f4 [500, 102]
0.036907546 -0.053575728 -0.011994384 0.026135005 0.07833297 -0.011056364 -0.017967053 0.034517772
-0.010798812 -0.036464423 0.038529374 -0.08691627 0.098552085 -0.09632109 -0.06934288 -0.078352176
-0.047004163 0.06816424 -0.009284772 0.02107682 0.038203202 -0.039450068 0.0036250353 -0.09242115
-0.06962828 0.00829114 0.090143226 0.015186258 -0.06875661 0.069161005 -0.038153138 -0.0034136027
-0.09212603 -0.025652885 -0.035448983 -0.09385336 -0.0053294674 -0.02708622 0.07690584 -0.048435938
-0.098603494 -0.018813163 -0.09336311 0.012490168 -0.08497966 -0.024586588 0.08208034 0.031784825
0.025116302 -0.033673674 -0.06385324 0.007087432 0.06902184 0.080889784 -0.071023606 0.01109311
0.030853264 -0.0035196692 0.05529534 -0.084773995 -0.087439105 -0.004407741 0.02112417 0.08165785
0.065501 0.00037319213 0.07602639 -0.032210313 0.097594835 0.034261994 -0.0057191625 -0.063052624
0.01241523 0.08785597 0.059534602 0.082346834 -0.031422324 -0.07337566 0.023469798 -0.049937107
-0.07003082 0.056623466 0.0431586 0.08681942 -0.0056688935 -0.08178443 0.073913716 0.007689573
-0.072738536 -0.09033169 0.010087416 -0.018668503 -0.078868866 0.02707211 0.02107767 -0.0128649175
-0.048350114 -0.06465034 -0.07511845 -0.09713213 0.050327085 -0.06461449 -0.077331364 0.06012717
0.07581154 0.034806244 0.044410758 -0.107273936 0.06883716 -0.09161308 0.022357525 -0.10447861
0.0087655885 0.0009053412 0.057943232 0.04577576 -0.053279024 -0.002482863 -0.08480684 0.075847335
0.04397083 -0.022676667 0.07831833 -0.0749999 -0.06336295 -0.09731258 -0.089187026 -0.07725221
-0.032924365 0.049045965 0.05046707 -0.014224723 0.004565743 0.086370304 0.06914423 0.051186245
-0.08635883 0.06817981 -0.0705436 -0.063804045 0.056349322 -0.01139778 0.03145837 -0.0050786175
0.06056212 0.065538265 -0.044260528 0.0005441439 -0.09418314 0.08316362 0.07243918 0.03663531
-0.05407178 -0.01425768 0.06591273 0.010572514 -0.05889263 -0.10263562 -0.01869659 -0.092969626
-0.05330345 -0.053576317 -0.09760424 0.033610735 -0.058466073 -0.0128330635 0.043380577 0.06394835
0.038956746 -0.06786747 0.087892935 0.0793777 0.092883095 0.08568799 0.04758346 -0.05132986
0.025048995 0.021349393 0.013980988 -0.018243639 0.038975753 0.058953557 0.020518346 0.052560244
0.005529317 0.06819063 0.018501092 -0.07694495 0.0214106 -0.09693754 -0.013666695 0.043934766
0.08589177 0.00017815342 -0.021944702 -0.09915438 0.044817742 0.04938613 0.008618852 0.045715027
-0.08788027 -0.027357427 -0.049203124 0.05415576 -0.071968794 0.08559752 0.08425904 -0.04015528
-0.023580514 -0.010165274 -0.03223007 0.09820073 0.04167036 0.090502836 -0.01840388 -0.09769594
0.09562685 -0.03359978 -0.06999407 -0.055591077 -0.07448897 0.059701823 0.0971191 0.053484492
0.018961072 0.08431866 -0.046079278 -0.08062047 0.071612366 0.070483126 0.08078145 -0.09719986
-0.003080234 -0.05998727 0.02739773 -0.08340453 0.0021276623 -0.063074544 0.029183455 0.017986946
-0.054663476 0.096859686 0.06428116 0.0045554787 0.030236967 -0.094878376 -0.080967754 0.0753941
-0.054368947 0.044099353 -0.066453286 -0.06995938 -0.026926838 -0.05424665 -0.07985827 -0.06694141
00000000: 5e2c 173d 3972 5bbd 1884 44bc 1419 d63c
00000010: 096d a03d c025 35bc a42f 93bc 8262 0d3d
00000020: 80ed 30bc b85b 15bd fad0 1d3d 2801 b2bd
00000030: add5 c93d fe43 c5bd a403 8ebd 1b77 a0bd
00000040: 7087 40bd b199 8b3d 281f 18bc 4ca9 ac3c
00000050: f67a 1c3d 6596 21bd 0092 6d3b 4d47 bdbd
00000060: 4699 8ebd 90d7 073c 039d b83d c8cf 783c
00000070: 44d0 8cbd 49a4 8d3d 7746 1cbd c0b6 5fbb
00000080: 92ac bcbd 0026 d2bc f432 11bd 3136 c0bd
00000090: d0a2 aebb ece3 ddbc cf80 9d3d c364 46bd
000000a0: a1f0 c9bd 101e 9abc 2935 bfbd 90a3 4c3c
000000b0: d109 aebd d069 c9bc bd19 a83d ce30 023d
000000c0: b4c0 cd3c 68ed 09bd 7dc5 82bd b03d e83b
000000d0: 535b 8d3d 8ba9 a53d d374 91bd e0bf 353c
000000e0: fcbf fc3c 40aa 66bb 5e7d 623d fd9d adbd
000000f0: 4613 b3bd d06e 90bb 980c ad3c 3b3c a73d
00000100: 6325 863d 00a9 c339 b9b3 9b3d f6ee 03bd
00000110: cddf c73d 4e56 0c3d d067 bbbb bc21 81bd
00000120: 4069 4b3c d5ed b33d 8eda 733d 75a5 a83d
00000130: b2b4 00bd fa45 96bd bc43 c03c da8a 4cbd
00000140: 526c 8fbd 02ee 673d 12c7 303d 61ce b13d
00000150: 20c2 b9bb 987e a7bd 1360 973d d0f8 fb3b
00000160: f1f7 94bd d2ff b8bd b045 253c b0ee 98bc
00000170: 0086 a1bd 54c6 dd3c 14ab ac3c 60c7 52bc
00000180: c50a 46bd 6667 84bd b4d7 99bd 36ed c6bd
00000190: c623 4e3d 9a54 84bd e85f 9ebd e847 763d
000001a0: 1543 9b3d fe90 0e3d 0ee8 353d 70b2 dbbd
000001b0: 7ffa 8c3d a39f bbbd 2127 b73c e2f8 d5bd
000001c0: 8b9d 0f3c 6b54 6d3a e255 6d3d 5d7f 3b3d
000001d0: 1b3b 5abd 87b7 22bb 35af adbd d955 9b3d
000001e0: c21a 343d 6bc4 b9bc 5c65 a03d 8c99 99bd
000001f0: 6fc4 81bd d14b c7bd b0a7 b6bd 6836 9ebd
00000200: b3db 06bd 6ce4 483d 8fb6 4e3d d00e 69bc
00000210: 3a9c 953b eae2 b03d 7d9b 8d3d aba8 513d
00000220: e6dc b0bd dba1 8b3d 2a79 90bd b2ab 82bd
00000230: 8cce 663d c1bd 3abc 7eda 003d 886a a6bb
00000240: fc0f 783d ed38 863d 874a 35bd e1a4 0e3a
00000250: 17e3 c0bd b051 aa3d fe5a 943d e80e 163d
00000260: 5f7a 5dbd 0b99 69bc 41fd 863d 5638 2d3c
00000270: 6639 71bd a032 d2bd 9729 99bc dc66 bebd
00000280: b854 5abd d772 5bbd bbe4 c7bd 69ab 093d
00000290: 1f7a 6fbd c541 52bc d5af 313d 5af7 823d
000002a0: 1c91 1f3d 1afe 8abd 3601 b43d c790 a23d
000002b0: 7e39 be3d 2f7d af3d e0e6 423d 423f 52bd
000002c0: 8d33 cd3c ece4 ae3c 8410 653c af73 95bc
000002d0: 0aa5 1f3d 4979 713d 1716 a83c 6949 573d
000002e0: 462f b53b 87a7 8b3d 9a8f 973c 5095 9dbd
000002f0: 4865 af3c 3087 c6bd 46ea 5fbc f1f4 333d
00000300: 06e8 af3d b2ce 3a39 60c5 b3bc 7411 cbbd
00000310: cf92 373d 1c49 4a3d 1636 0d3c ae3f 3b3d
00000320: 92fa b3bd af1c e0bc 3789 49bd 6ed2 5d3d
00000330: 6064 93bd c14d af3d 0190 ac3d dd79 24bd
00000340: ec2b c1bc 408c 26bc ae03 04bd 771d c93d
00000350: 8aae 2a3d 8d59 b93d bcc3 96bc cf14 c8bd
00000360: 03d8 c33d ec9f 09bd 0d59 8fbd 78b3 63bd
00000370: ac8d 98bd e689 743d 61e6 c63d 8e12 5b3d
00000380: 4054 9b3c 43af ac3d a0bd 3cbd 581c a5bd
00000390: 81a9 923d 7559 903d bf70 a53d b810 c7bd
000003a0: c0dd 49bb 36b5 75bd 3471 e03c ffcf aabd
000003b0: 4070 0b3b 3a2d 81bd 2412 ef3c 5c59 933c
000003c0: cfe6 5fbd 5f5e c63d d7a5 833d 2046 953b
000003d0: 84b3 f73c 984f c2bd 6cd2 a5bd 3968 9a3d
000003e0: f9b1 5ebd 86a1 343d a918 88bd dd46 8fbd
000003f0: ac95 dcbc bc31 5ebd bc8c a3bd 9418 89bd

fc1.bias f4 [500]
-0.03469766 -0.021226924 -0.04954818 -0.036748867 0.09803191 -0.05687946 0.07741739 0.07836286
-0.02713581 -0.08175773 -0.027927533 0.06972215 -0.069736354 -0.0976448 0.011547153 0.006880775
0.076247424 0.08549459 0.032766208 -0.05860428 0.087090805 -0.098582745 -0.054749247 0.09226295
-0.08561382 0.08577863 -0.013062693 -0.07667572 0.05920785 -0.07072024 0.013316223 -0.08893857
0.08209708 0.08843001 -0.0004930021 0.02339993 0.038483445 0.050289582 0.08931992 0.0239562
-0.093438245 0.054977536 -0.026060747 0.03863168 0.09920211 0.0700884 -0.07338042 0.011868089
0.054086383 -0.09094822 -0.05948773 0.0035226047 -0.051748425 -0.001854986 -0.08961047 -0.08670856
0.07135172 -0.045254994 -0.052128725 -0.0051473645 0.0107517475 0.03112024 0.014392872 -0.070307605
0.044502564 0.034964316 -0.09136975 -0.027709713 0.011294147 -0.07274577 -0.061438683 -0.04272096
-0.07273701 0.0633306 0.096158266 -0.08395098 0.07333648 -0.05733472 -0.029991882 -0.038346443
0.023782086 0.024743937 -0.0077137332 -0.0791624 0.06787313 -0.08717311 0.006310099 0.13140704
-0.02819107 -0.05322435 -0.051028796 0.037362434 -0.0022499408 -0.015576644 -0.0868012 0.08027833
0.0250928 -0.08268576 -0.08385254 -0.03289278 0.010497756 -0.06660691 0.07954219 0.008174442
-0.06963124 -0.017219253 0.044411115 0.012242883 -0.00012788101 -0.07182873 0.003135869 0.010441939
0.077663995 -0.024747891 -0.0036891913 0.0521547 0.045418896 0.059754513 -0.003369743 0.032063358
-0.006122255 0.019157222 -0.06993098 0.013825697 -0.027778648 -0.14421041 0.08154912 0.066092424
0.10592059 -0.0035840133 0.026527025 0.048784275 0.0005706176 0.074101 0.0291608 0.04461672
0.03357879 -0.0435257 0.033677954 0.09628939 0.027248237 0.007900778 -0.059185214 0.04945351
0.06174749 0.018783763 0.08468364 -0.07509279 0.030558519 -0.07477183 0.02584232 0.024383329
-0.048284393 0.013732653 -0.050761525 0.006651063 0.04602333 0.029606622 -0.036397345 -0.037599888
-0.06738962 0.017564826 0.05319461 0.09702821 -0.0868303 0.03832635 -0.048773475 -0.05979268
0.059578378 0.08594822 0.05809986 0.027785482 0.016523216 -0.037878446 0.0042552245 -0.02063554
0.05183898 -0.032079533 -0.07789905 -0.051603533 0.028653739 0.044093646 0.099444784 0.040272083
-0.02549035 0.05403834 0.04335948 0.070162185 -0.07329049 -0.12193313 0.062236674 0.0022215433
-0.0009596265 -0.033625584 0.086969785 0.0061669545 0.036563303 -0.07841319 0.09041087 -0.09855899
0.016106073 -0.032819018 -0.04952219 0.058867462 -0.094516225 -0.012746563 0.04954801 -0.022221347
0.017912373 -0.102828756 -0.10662671 -0.04392121 -0.03602922 -0.006129871 -0.07891485 0.01615646
-0.064758115 -0.042011 -0.10197396 0.08551206 0.044891138 0.0054094307 -0.098468676 0.055913024
-0.04189078 0.023554891 0.056079265 -0.008928325 0.04007077 -0.017820807 0.08407509 -0.08591741
-0.038363744 0.04400937 0.08921442 0.020100703 -0.03543496 0.053522725 0.078259245 0.06801478
0.047564887 -0.043740917 -0.030844236 -0.042538393 -0.07215263 0.08667575 0.076845385 -0.036149815
0.057899803 0.07008286 -0.028221704 -0.050213505 0.06582015 0.1061747 -0.092421226 -0.09122839
00000000: 221f 0ebd 16e4 adbc 08f3 4abd fb85 16bd
00000010: f4c4 c83d 70fa 68bd 028d 9e3d b57c a03d
00000020: eb4b debc 9970 a7bd 48c8 e4bc 7dca 8e3d
00000030: efd1 8ebd fff9 c7bd 4530 3d3c 2078 e13b
00000040: 9c27 9c3d ca17 af3d dc35 063d 0b0b 70bd
00000050: aa5c b23d c0e5 c9bd bf40 60bd 5cf4 bc3d
00000060: 4c56 afbd b5ac af3d e804 56bc 2908 9dbd
00000070: ee83 723d c6d5 90bd 4a2c 5a3c 6d25 b6bd
00000080: 8422 a83d cb1a b53d d03c 01ba 36b1 bf3c
00000090: d1a0 1d3d 73fc 4d3d 5ded b63d cb3f c43c
000000a0: 8d5c bfbd 2030 613d 597d d5bc 413c 1e3d
000000b0: 7a2a cb3d 828a 8f3d 7948 96bd 6072 423c
000000c0: af89 5d3d 0f43 babd 68a9 73bd 80db 663b
000000d0: 28f6 53bd 0023 f3ba b285 b7bd 4294 b1bd
000000e0: da20 923d 4d5d 39bd ee84 55bd 39ab a8bb
000000f0: 1928 303c e0ef fe3c 15d0 6b3c 6ffd 8fbd
00000100: 5248 363d be36 0f3d 1020 bbbd 7bff e2bc
00000110: 160b 393c bcfb 94bd 21a7 7bbd 2cfc 2ebd
00000120: 24f7 94bd 79b3 813d a0ee c43d 7eee abbd
00000130: 7031 963d d0d7 6abd 89b1 f5bc 2911 1dbd
00000140: a6d2 c23c ccb3 ca3c 7cc3 fcbb e51f a2bd
00000150: 1101 8b3d d187 b2bd f2c4 ce3b 918f 063e
00000160: f5f0 e6bc c701 5abd 9203 51bd 5a09 193d
00000170: be73 13bb 2e35 7fbc d4c4 b1bd f768 a43d
00000180: 6a8f cd3c 2757 a9bd e1ba abbd 94ba 06bd
00000190: c8fe 2b3c 3469 88bd 04e7 a23d 18ee 053c
000001a0: d39a 8ebd 640f 8dbc 6ee8 353d 6096 483c
000001b0: cc17 06b9 f11a 93bd 2783 4d3b ab14 2b3c
000001c0: 4d0e 9f3d 17bc cabc 5cc6 71bb 2ba0 553d
000001d0: 2a09 3a3d 26c1 743d e8d6 5cbb de54 033d
000001e0: 339d c8bb 9bef 9c3c f937 8fbd 2d85 623c
000001f0: 0c90 e3bc e5ab 13be 3a03 a73d 775b 873d
00000200: e5ec d83d c4e1 6abb 344f d93c 05d2 473d
00000210: 8095 153a 44c2 973d a1e2 ee3c 06c0 363d
00000220: ea89 093d 0148 32bd e5f1 093d 5f33 c53d
00000230: b237 df3c 4472 013c 326c 72bd c48f 4a3d
00000240: f0ea 7c3d 68e0 993c 9e6e ad3d 40ca 99bd
00000250: dc55 fa3c f921 99bd 46b3 d33c 8cbf c73c
00000260: dbc5 45bd ecfe 603c 51eb 4fbd 29f1 d93b
00000270: f682 3c3d 9689 f23c 6215 15bd 5702 1abd
00000280: 9203 8abd 1ce4 8f3c 97e2 593d bab6 c63d
00000290: 16d4 b1bd 17fc 1c3d b2c6 47bd 2be9 74bd
000002a0: 7508 743d 9f05 b03d 1efa 6d3d 619e e33c
000002b0: b25b 873c 6e26 1bbd 696f 8b3b dd0b a9bc
000002c0: 1c55 543d d465 03bd 8a89 9fbd 3a5e 53bd
000002d0: 3fbb ea3c 8a9b 343d b5a9 cb3d 57f4 243d
000002e0: 23d1 d0bc 4e57 5d3d b699 313d 31b1 8f3d
000002f0: 5319 96bd 14b8 f9bd e2eb 7e3d 5097 113b
00000300: 728f 7bba fbba 09bd 371d b23d 2a14 ca3b
00000310: 67c3 153d 1897 a0bd 5629 b93d 4cd9 c9bd
00000320: e2f0 833c 3c6d 06bd c8d7 4abd 021f 713d
00000330: b991 c1bd f6d6 50bc dbf2 4a3d 8b09 b6bc
00000340: f8bc 923c e297 d2bd 1b5f dabd bae6 33bd
00000350: 6093 13bd 16dd c8bb 1c9e a1bd 8d5a 843c
00000360: e79f 84bd ba13 2cbd b9d7 d0bd f220 af3d
00000370: c5df 373d 9841 b13b f2a9 c9bd 0e05 653d
00000380: ab95 2bbd 30f6 c03c 5fb3 653d 1c48 12bc
00000390: 3f21 243d f1fc 91bc 902f ac3d 78f5 afbd
000003a0: 4d23 1dbd 2b43 343d 0db6 b63d 3baa a43c
000003b0: 4024 11bd a53a 5b3d 6246 a03d 554b 8b3d
000003c0: 66d3 423d ad29 33bd 0dad fcbc bd3c 2ebd
000003d0: c2c4 93bd 0e83 b13d 1d61 9d3d d411 14bd
000003e0: 5828 6d3d 9a87 8f3d 3431 e7bc adac 4dbd
000003f0: b7cc 863d 1f72 d93d 5747 bdbd f3d5 babd

fc2.weight f4 [200, 500]
-0.04146575 0.0114777135 0.0021070093 0.014616593 0.040080644 0.00076294516 0.0346835 -0.03688326
0.008246125 -0.0331076 -0.012134486 0.029959006 0.010511699 -0.02344027 -0.014797387 0.04041108
-0.0043975515 -0.043050233 0.018708266 0.010283254 0.030908216 -0.0036488026 0.0139776105 0.024549223
0.0368071 0.002450238 -0.033796493 -0.012107179 -0.011931275 -0.025443876 0.01961844 -0.0052627665
-0.0194602 -0.0253433 -0.007966981 0.0018548995 0.023862366 -0.02773906 0.010908019 -0.02574467
0.009503639 -0.034358803 -0.021109896 0.0046236254 0.03974886 -0.018429974 -0.035630032 -0.0078955665
0.04175643 0.039995212 -0.035074424 -0.022891603 0.10487813 -0.03910095 0.0017347501 -0.0018829976
-0.000900094 0.030799907 0.035883166 0.03496665 0.019379593 -0.008657712 0.010733481 0.02223372
-0.0015472211 0.041378785 0.007363489 0.02116304 -0.00241999 -0.024971195 0.041500296 0.040070448
-0.0018544681 0.043023966 0.04262602 -0.043657262 -0.00014787921 0.04301987 -0.03261402 0.043478157
0.035290755 -0.029440422 0.029905671 -0.03612891 -0.004856258 -0.035053536 0.009689977 0.038831986
-0.016932392 0.041146938 -0.007340066 -0.024742018 0.025467511 -0.0135677215 0.015536783 0.019818498
-0.0027900552 -0.010811956 -0.045598015 -0.030619841 0.02994859 -0.012006606 0.009943017 -0.015933907
-0.04051118 -0.017164582 -0.013382282 -0.020303467 0.0007614398 0.020515518 -0.039425433 -0.036718488
-0.010318738 0.0021778333 0.0062107355 0.0031723066 -0.03599687 -0.01985273 0.020587562 -0.007086895
0.03985649 -0.02733585 -0.039237913 -0.00042829273 0.0076606018 -0.04226106 -0.00015286362 0.023106959
0.033732846 -0.0032554166 -0.006148182 -0.0434094 0.023098137 0.017628482 -0.025360294 -0.09672856
0.027027924 -0.015340895 0.030288002 0.0009439214 -0.01716275 0.04791289 -0.021194099 -0.009490811
-0.014609554 0.0180957 -0.016603867 0.046014298 -0.02150822 0.025374362 0.0019055642 -0.044511247
-0.036639947 -0.009333017 0.035456248 0.04231482 0.029049154 -0.0030542922 -0.020197233 0.005118289
0.010596035 -0.036734816 -0.017043268 -0.035174195 0.015793016 -0.037115827 -0.04597987 -0.013552181
0.0114539 0.025690686 0.007749334 0.030091537 -0.03346252 -0.02278725 -0.011957159 -0.008387253
-0.031845547 -0.018191135 -0.018496023 -0.031899814 -0.049118288 -0.007113807 0.012221707 -0.01118727
0.033965196 -0.03732022 -0.0010560194 0.028577914 -0.035065793 0.032279182 0.009620615 -0.0027798424
-0.035090987 -0.041564792 0.018887341 -0.016676838 -0.037104893 -0.0011674799 0.018920036 0.007929241
-0.0303232 -0.03478599 -0.0071228826 -0.042396564 -0.021732543 0.021801013 0.018412236 0.017702853
0.0128216725 -0.019872852 -0.026342833 0.007986175 0.0317829 -0.021911262 -0.03199408 0.04431712
-0.014330929 0.036022447 0.004946696 0.036477488 -0.045172438 -0.019624587 -0.020699235 0.039639134
-0.024037115 0.04282145 -0.033855353 -0.026935838 0.06837252 0.0446782 -0.01706362 -0.04328679
0.020128405 -0.02531342 0.0055360612 -0.02122573 -0.040982153 -0.008461259 -0.021734823 0.02941821
0.043201964 0.016362172 0.024314895 0.00079662155 0.0016530332 -0.037559982 0.013313023 -0.033315282
-0.03323041 -0.012764151 -0.0037127836 0.03958515 0.024713704 -0.029153863 -0.00815479 0.020837856
00000000: fed7 29bd 050d 3c3c c015 0a3b 6f7a 6f3c
00000010: 9a2b 243d 6200 483a 4910 0e3d e712 17bd
00000020: c11a 073c d69b 07bd b9cf 46bc 976c f53c
00000030: 4339 2c3c cf05 c0bc bd70 72bc 1786 253d
00000040: 5619 90bb 7155 30bd 1442 993c 187b 283c
00000050: 3a33 fd3c c020 6fbb 5902 653c 741b c93c
00000060: 0bc3 163d 2c94 203b 316e 0abd 305d 46bc
00000070: 657b 43bc ad6f d0bc dab6 a03c 4973 acbb
00000080: ff6a 9fbc c19c cfbc f187 02bc 1920 f33a
00000090: 027b c33c 063d e3bc 8cb7 323c 7ce6 d2bc
000000a0: 27b5 1b3c d1bb 0cbd a9ee acbc c881 973b
000000b0: b3cf 223d 75fa 96bc ccf0 11bd 685c 01bc
000000c0: ca08 2b3d 05d2 233d 33aa 0fbd 2c87 bbbc
000000d0: 58ca d63d 5128 20bd 8e60 e33a eace f6ba
000000e0: 49f4 6bba 1650 fc3c 3afa 123d 3139 0f3d
000000f0: f4c1 9e3c 13d9 0dbc 7bdb 2f3c 7e23 b63c
00000100: 20cc caba cd7c 293d 6c49 f13b 1d5e ad3c
00000110: b298 1ebb 6490 ccbc 37fc 293d e920 243d
00000120: a011 f3ba e639 303d 9f98 2e3d f5d1 32bd
00000130: 0610 1bb9 9a35 303d 4796 05bd 2716 323d
00000140: 0a8d 103d 0a2d f1bc bdfc f43c e8fb 13bd
00000150: 3f21 9fbb 4c94 0fbd b6c2 1e3c 4a0e 1f3d
00000160: cdb5 8abc b189 283d f084 f0bb c6af cabc
00000170: 3ea1 d03c 264b 5ebc fe8d 7e3c 675a a23c
00000180: 5cd9 36bb a124 31bc fcc4 3abd 76d6 fabc
00000190: bf56 f53c 5bb7 44bc 09e8 223c d387 82bc
000001a0: 0def 25bd bd9c 8cbc 5c41 5bbc 7553 a6bc
000001b0: 5c9b 473a 2910 a83c 907c 21bd 2066 16bd
000001c0: ed0f 29bc fbb9 0e3b 6d83 cb3b 79e6 4f3b
000001d0: 7471 13bd 31a2 a2bc 3fa7 a83c 2f39 e8bb
000001e0: 8f40 233d 6fef dfbc efb7 20bd 7a8c e0b9
000001f0: c905 fb3b ef19 2dbd 044a 20b9 ce4a bd3c
00000200: 742b 0a3d d458 55bb b076 c9bb 0ece 31bd
00000210: 4e38 bd3c 9b69 903c 64c0 cfbc a019 c6bd
00000220: aa69 dd3c 6158 7bbc 8b1e f83c 7e71 773a
00000230: e598 8cbc 4e40 443d 3f9f adbc 597f 1bbc
00000240: e95c 6fbc 6f3d 943c d504 88bc 7d79 3c3d
00000250: 0232 b0bc e5dd cf3c 20c4 f93a 6d51 36bd
00000260: c513 16bd 83e9 18bc 923a 113d 4e52 2d3d
00000270: 7ef8 ed3c 852a 48bb ab74 a5bc 52b7 a73b
00000280: fe9a 2d3c 3f77 16bd 539e 8bbc d112 10bd
00000290: 5b60 813c c406 18bd 6355 3cbd f809 5ebc
000002a0: 23a9 3b3c 4675 d23c 20ee fd3b 8782 f63c
000002b0: ff0f 09bd 54ac babc f6e7 43bc b06a 09bc
000002c0: 7a70 02bd 9305 95bc f984 97bc 61a9 02bd
000002d0: 4230 49bd f01a e9bb 8e3d 483c d04a 37bc
000002e0: 171f 0b3d 16dd 18bd 226a 8aba 3b1c ea3c
000002f0: 26a1 0fbd 2d37 043d c99f 1d3c 042e 36bb
00000300: 91bb 0fbd d83f 2abd a0b9 9a3c dd9d 88bc
00000310: 4dfb 17bd 2006 99ba 31fe 9a3c a6e9 013c
00000320: 5c68 f8bc c17b 0ebd 1267 e9bb 05a8 2dbd
00000330: 7208 b2bc 0a98 b23c 42d5 963c 9305 913c
00000340: fe11 523c 64cc a2bc edcc d7bc 72d8 023c
00000350: c92e 023d 3f7f b3bc 390c 03bd de85 353d
00000360: 46cc 6abc 468c 133d e517 a23b 6b69 153d
00000370: bc06 39bd bec3 a0bc 7191 a9bc a55c 223d
00000380: 7ce9 c4bc 8b65 2f3d e9ab 0abd 8ca8 dcbc
00000390: e406 8c3d 7d00 373d 01c9 8bbc 7d4d 31bd
000003a0: 53e4 a43c 175e cfbc d967 b53b 95e1 adbc
000003b0: e7dc 27bd 18a1 0abc 3a0d b2bc 75fe f03c
000003c0: 8bf4 303d f609 863c 0830 c73c 5ed4 503a
000003d0: 97aa d83a 7fd8 19bd de1e 5a3c 9b75 08bd
000003e0: 9c1c 08bd bb20 51bc 2c52 73bb 0a24 223d
000003f0: 6574 ca3c 15d4 eebc ab9b 05bc 27b4 aa3c

fc2.bias f4 [200]
-0.02978477 0.019131621 0.018563421 -0.031472187 0.016227461 -0.041535854 -0.026254425 -0.011634393
-0.0403381 0.02092619 0.011988616 -0.004116172 -0.040727925 0.009517152 -0.03236094 -0.046474315
-0.014590553 -0.008240016 0.0007745529 0.0010571381 0.023874562 0.007963335 -0.047348537 0.019606156
0.041111663 -0.04838219 -0.030338537 0.009020809 -0.025775537 0.018592093 -0.017894791 -0.012187797
-4.5286783e-05 -0.032380953 -0.026466208 0.029552342 0.030334411 0.019245738 -0.025364008 -0.048823256
-0.0121455435 0.015997974 -0.025860937 -0.025070073 0.013988329 -0.051666893 -0.03369271 0.024318542
0.015847528 -0.048799362 -0.021121025 0.00035558696 0.021631831 -0.0006522838 0.026851984 -0.027250689
0.044247147 0.010795913 -0.022003587 -0.046770684 -0.035153598 -0.013872872 -0.039650112 -0.024544347
0.0023186086 -0.004685177 -0.038795676 0.030258903 -0.016418371 0.018737616 -0.033669088 0.03835805
0.03312732 -0.026737127 0.003714768 -0.0013664317 -0.03815419 0.0018914421 -0.035686802 0.022123797
-0.005237668 -0.028186526 0.025771564 0.015413095 -0.0057803877 -0.009041704 -0.027383829 0.023805868
0.009837756 -0.012625702 -0.010663899 -0.04837487 0.036738385 0.026891533 -0.0066408277 0.015798101
-0.026611289 -0.011731875 -0.015826346 -0.015238115 0.0044694664 -0.03946986 -0.016143473 0.028404457
0.009790039 -0.021716435 -0.0004937108 -0.0015782901 -0.05296365 0.030495375 0.029359082 -0.022731334
-0.025192922 -0.0168318 -0.03233618 -0.042974424 0.04054871 0.0006913741 0.032945774 -0.047962885
0.012871291 -0.023141827 0.044483114 0.0046231044 0.018097246 0.017425958 -0.014532416 -0.033635605
0.007397779 -0.02248359 0.034302887 0.026458612 0.033204783 -0.008453116 0.031042801 -0.023959966
-0.009250969 0.015386139 0.014440134 0.026434772 -0.010030187 0.022896824 -0.023879603 0.0073511996
0.019812863 -0.018528175 0.002399913 -0.021390093 0.008828805 0.0060208994 0.021385005 -0.0037915858
0.030762121 0.021256985 -0.0285699 0.023076557 0.014051411 -0.022603508 0.020778708 -0.03581077
0.0072184694 0.04052971 -0.042953253 -0.017457241 0.004086537 0.022515718 -0.028846262 -0.024403723
0.0008557302 -0.009391248 0.0064721624 -0.007066971 -0.028514784 -0.040768947 -0.0130615635 -0.021967806
0.013195948 -0.048481178 -0.009546782 -0.017959932 0.03855789 0.014331321 0.00031217252 0.0032981967
-0.010466977 0.027208986 -0.025484802 0.026076997 0.050833512 0.011457224 -0.005745816 0.0047201826
-0.02177799 -0.019209875 -0.009819175 -0.02236622 0.041248452 -0.060601417 0.031606104 0.019835314
00000000: 31ff f3bc ebb9 9c3c 5112 983c fbe8 00bd
00000010: 74ef 843c 8021 2abd 8513 d7bc 2e9e 3ebc
00000020: 9039 25bd 676d ab3c e66b 443c f4e0 86bb
00000030: 53d2 26bd d4ed 1b3c e88c 04bd da5b 3ebd
00000040: 370d 6fbc 2201 07bc 5d0b 4b3a ab8f 8a3a
00000050: 9694 c33c a678 023c 8af0 41bd 179d a03c
00000060: b464 283d 672c 46bd 8688 f8bc 04cc 133c
00000070: 3827 d3bc 724e 983c 1998 92bc 53af 47bc
00000080: 50f2 3db8 e4a1 04bd a9cf d8bc c117 f23c
00000090: df7f f83c 3da9 9d3c 2ec8 cfbc e5fa 47bd
000000a0: 1afe 46bc 2f0e 833c 51da d3bc c15f cdbc
000000b0: 4e2f 653c aaa0 53bd 5e01 0abd ae37 c73c
000000c0: add2 813c d7e1 47bd 0006 adbc 136e ba39
000000d0: 3d35 b13c 06fe 2aba b1f8 db3c d63c dfbc
000000e0: 7f3c 353d 57e1 303c de40 b4bc 9e92 3fbd
000000f0: 38fd 0fbd 0b4b 63bc 2868 22bd 3a11 c9bc
00000100: ccf3 173b 1d86 99bb 37e8 1ebd 85e1 f73c
00000110: d27f 86bc a17f 993c 99e8 09bd 551d 1d3d
00000120: 83b0 073d d207 dbbc 7773 733b d719 b3ba
00000130: 9147 1cbd 44ea f73a 532c 12bd f73c b53c
00000140: bea0 abbb 6ee7 e6bc e31e d33c 3587 7c3c
00000150: 6869 bdbb a823 14bc 0d54 e0bc 8604 c33c
00000160: 8a2e 213c 08dc 4ebc a2b7 2ebc ba24 46bd
00000170: fd7a 163d a24b dc3c 4d9b d9bb 056b 813c
00000180: ebff d9bc 0d37 40bc 41a6 81bc 49a9 79bc
00000190: 9a74 923b 26ab 21bd 513f 84bc 77b0 e83c
000001a0: 6666 203c aae6 b1bc 5f6c 01ba a1de ceba
000001b0: 6af0 58bd 70d1 f93c 7582 f03c 1037 babc
000001c0: 6361 cebc d8e2 89bc f172 04bd f305 30bd
000001d0: 6716 263d 553d 353a 26f2 063d bb74 44bd
000001e0: 1be2 523c ee93 bdbc ed33 363d 697d 973b
000001f0: ad40 943c e2c0 8e3c 5f19 6ebc 7dc5 09bd
00000200: 1169 f23b 812f b8bc 2f81 0c3d bbbf d83c
00000210: bd01 083d f07e 0abc 794d fe3c b147 c4bc
00000220: 6091 17bc 2516 7c3c 5096 6c3c bc8d d83c
00000230: a755 24bc 1f92 bb3c 289f c3bc 55e2 f03b
00000240: 964e a23c 66c8 97bc dc47 1d3b 473a afbc
00000250: b1a6 103c f74a c53b 9b2f af3c 417c 78bb
00000260: d800 fc3c 2123 ae3c 6c0b eabc 0c0b bd3c
00000270: e437 663c fe2a b9bc 1c38 aa3c 50ae 12bd
00000280: e988 ec3b 7b02 263d c0ef 2fbd 7d02 8fbc
00000290: 5be8 853b e272 b83c ff4e ecbc 51ea c7bc
000002a0: 1553 603a c0dd 19bc 6f14 d43b 0d92 e7bb
000002b0: d697 e9bc 57fd 26bd 2b00 56bc d4f5 b3bc
000002c0: d133 583c 3394 46bd 1b6a 1cbc b520 93bc
000002d0: e1ee 1d3d ebcd 6a3c 16ab a339 8f26 583b
000002e0: af7d 2bbc 61e5 de3c 81c5 d0bc 6d9f d53c
000002f0: cd36 503d 15b7 3b3c 6647 bcbb c3ab 9a3b
00000300: c167 b2bc 075e 9dbc 9be0 20bc 5d39 b7bc
00000310: 23f4 283d 3139 78bd 6775 013d ab7d a23c

fc3.weight f4 [34, 200]
0.026960663 0.05072179 0.022233892 0.0075910157 -0.07876367 0.028072156 -0.04371439 0.053736586
0.053410023 -0.047910947 0.029131632 -0.030485377 -0.06456019 -0.041442174 0.021114111 0.041286957
0.046849933 -0.050714236 -0.007490326 0.05649787 0.005295957 -0.013771384 -0.051166844 -0.03614666
0.019992622 -0.057406984 -0.023849545 0.008917585 0.05184228 -0.025171937 -0.072253354 0.007774754
0.07060314 0.04378519 0.05600604 0.03526176 0.039511196 -0.025311125 0.057031494 -0.039519798
-0.009656721 0.040245574 0.039262064 0.05738596 0.04285514 -0.019885892 0.035958637 0.071778335
0.015214725 -0.017560009 -0.04911629 -0.0011259479 -0.065975815 0.02926374 0.026155144 0.008086934
0.091150954 0.060070463 -0.0441418 0.017639156 0.065154634 0.030737333 0.010055202 -0.019395277
0.062477984 0.059909865 0.020085977 -0.01396041 -0.015060218 -0.031901408 0.00034811514 0.036484487
-0.014723761 0.044684652 -0.055124503 -0.016792055 -0.053411223 -0.048357323 0.05913569 0.071195535
0.01892802 -0.040138107 0.045126755 0.019633174 0.052898336 -0.0713646 0.021810312 0.028541597
-0.033309594 -0.06971963 0.04137739 -0.054023948 -0.024413118 -0.007699772 -0.057022605 -0.002284722
-0.013325497 -0.004686912 -0.06434269 -0.02215285 0.058129612 0.017066194 -0.03814564 -0.0050078607
0.0011644922 0.04552152 1.41383425e-05 -0.028597161 -0.06777031 -0.0059454474 0.013146031 -0.048083857
0.040541295 0.06701355 -0.015727421 -0.05252329 0.007838577 -0.06580374 -0.0172987 -0.029425438
-0.07075539 -0.06058431 0.05181416 -0.005027173 0.062014345 0.002095234 -0.05657808 -0.004249291
0.03723979 -0.08196294 -0.014604309 -0.022575859 -0.046432845 -0.0757088 -0.056040555 0.014501227
-0.06929976 0.03030804 -0.04789456 -0.05196565 0.025901606 0.0041331835 -0.07450848 0.04458049
-0.022768883 0.028264614 -0.05684431 -0.02812419 -0.025836729 0.052691862 -0.051950857 0.034174073
-0.060544353 0.059620034 -0.072467074 -0.060030833 0.002497754 -0.07868844 0.047524568 -0.028842157
-0.0046846876 0.05733097 0.059838295 -0.055050537 0.012518161 -0.0052117445 0.06925155 0.0725726
0.07793745 0.04580619 0.026035337 0.0018943711 -0.035516568 -0.060628258 0.040917568 0.061760575
0.060397096 -0.07636053 -0.04872084 -0.044807345 -0.04034832 -0.05027546 0.03767684 0.027779745
0.08514067 -0.024935197 0.013279735 -0.058991887 -0.03447754 -0.036604576 -0.06948384 0.03423734
-0.028649855 -0.025381282 -0.035981514 -0.06658121 0.07568933 -0.046154004 0.012972122 -0.07017087
-0.06338572 0.021569805 0.021376926 -0.011239792 -0.07665746 0.019001385 0.04015873 0.015487896
-0.04900761 -0.035564594 0.046575528 0.04557344 0.022554703 -0.02907495 0.03430869 -0.046777047
0.037710216 -0.023979235 0.07268739 -0.018521022 -0.06717395 0.064584486 0.062583484 -0.022059873
-0.019615913 0.018315481 -0.00045801865 -0.015390666 -0.059635185 0.00513398 0.013868503 0.0076745283
0.0059744725 0.034611635 -0.016501572 -0.0038201956 0.04602182 -0.027278801 0.010896663 -0.0136649385
-0.012531532 0.021376595 0.031295065 -0.04379136 -0.07159441 -0.021712227 0.016861163 0.069434896
0.053969536 -0.068456866 -0.048054155 0.012434522 -0.07837136 0.049560037 0.004617778 -0.05287533
00000000: 9cdc dc3c a7c1 4f3d da23 b63c 0ebe f83b
00000010: d94e a1bd 94f7 e53c dc0d 33bd e51a 5c3d
00000020: 78c4 5a3d 453e 44bd 76a5 ee3c 78bc f9bc
00000030: 2238 84bd 45bf 29bd 80f7 ac3c 831c 293d
00000040: b7e5 3f3d bbb9 4fbd 6971 f5bb 4f6a 673d
00000050: b589 ad3b 5fa1 61bc 5394 51bd 850e 14bd
00000060: 91c7 a33c 9623 6bbd 1f60 c3bc 101b 123c
00000070: 9258 543d 6135 cebc 91f9 93bd 5dc3 fe3b
00000080: 6198 903d 1958 333d 9766 653d a36e 103d
00000090: 7ed6 213d 4759 cfbc db99 693d 83df 21bd
000000a0: 3937 1ebc 8bd8 243d 42d1 203d 8a0d 6b3d
000000b0: df88 2f3d bde7 a2bc 5d49 133d 8500 933d
000000c0: 2f47 793c 02da 8fbc 2a2e 49bd 8b94 93ba
000000d0: 541e 87bd 83ba ef3c 5043 d63c 0f7f 043c
000000e0: 5aad ba3d 720c 763d 08ce 34bd fe7f 903c
000000f0: cb6f 853d dccc fb3c 93be 243c d8e2 9ebc
00000100: eae8 7f3d 0c64 753d 598b a43c 34ba 64bc
00000110: 22bf 76bc 0dab 02bd 3983 b639 c270 153d
00000120: ee3b 71bc 4107 373d 3bca 61bd 7e8f 89bc
00000130: bac5 5abd 5412 46bd 4438 723d f7ce 913d
00000140: ef0e 9b3c db67 24bd d5d6 383d c0d5 a03c
00000150: edab 583d 9a27 92bd 8aab b23c 11d0 e93c
00000160: a46f 08bd 2ac9 8ebd 577b 293d 3748 5dbd
00000170: 05fe c7bc 5e4e fcbb 8990 69bd 46bb 15bb
00000180: 2f53 5abc ab94 99bb 1ac6 83bd e579 b5bc
00000190: 5119 6e3d 67ce 8b3c 9a3e 1cbd fb18 a4bb
000001a0: e0a1 983a c674 3a3d b833 6d37 9844 eabc
000001b0: 29cb 8abd 07d2 c2bb 7362 573c 94f3 44bd
000001c0: a10e 263d 663e 893d cbd6 80bc a922 57bd
000001d0: 606d 003c 1cc4 86bd 01b6 8dbc 9e0d f1bc
000001e0: 34e8 90bd 4127 78bd 163b 543d fcba a4bb
000001f0: c102 7e3d 3250 093b 6bbe 67bd a33d 8bbb
00000200: c088 183d 30dc a7bd e946 6fbc 02f1 b8bc
00000210: 5e30 3ebd 370d 9bbd c88a 65bd 8e96 6d3c
00000220: 08ed 8dbd 9148 f83c 162d 44bd efd9 54bd
00000230: 9b2f d43c a86f 873b e797 98bd 089a 363d
00000240: cf85 babc 318b e73c 94d5 68bd b464 e6bc
00000250: 8ca7 d3bc 6cd3 573d 6cca 54bd 1dfa 0b3d
00000260: 5bfd 77bd 2334 743d 9e69 94bd e4e2 75bd
00000270: 5cb1 233b 6827 a1bd 1fa9 423d 6346 ecbc
00000280: 0282 99bb e1d3 6a3d 0019 753d ac7c 61bd
00000290: f918 4d3c 48c7 aabb c2d3 8d3d f1a0 943d
000002a0: ab9d 9f3d 469f 3b3d 0f48 d53c 8c4c f83a
000002b0: d279 11bd 5655 78bd 2e99 273d a8f8 7c3d
000002c0: f262 773d e962 9cbd 818f 47bd e887 37bd
000002d0: 4844 25bd a4ed 4dbd 0853 1a3d 5992 e33c
000002e0: 3b5e ae3d e644 ccbc 3f93 593c 7aa1 71bd
000002f0: 5238 0dbd aeee 15bd 8b4d 8ebd 743c 0c3d
00000300: 1ab3 eabc 68ec cfbc 5a61 13bd bb5b 88bd
00000310: 0203 9b3d fb0b 3dbd 0689 543c bfb5 8fbd
00000320: 5fd0 81bd 29b3 b03c aa1e af3c 1b27 38bc
00000330: 96fe 9cbd cba8 9b3c 7b7d 243d f2c0 7d3c
00000340: 34bc 48bd 2eac 11bd fbc5 3e3d 37ab 3a3d
00000350: a4c4 b83c 972e eebc 4587 0c3d 4a99 3fbd
00000360: 0776 1a3d 1a70 c4bc 20dd 943d 66b9 97bc
00000370: 7f92 89bd df44 843d c52b 803d e8b6 b4bc
00000380: 8db1 a0bc 590a 963c 3922 f0b9 2229 7cbc
00000390: 0644 74bd f23a a83b b838 633c 9c7a fb3b
000003a0: 82c5 c33b eec4 0d3d 4e2e 87bc 3f5c 7abb
000003b0: 6081 3c3d cb77 dfbc eb87 323c e8e2 5fbc
000003c0: 0e51 4dbc f81d af3c 412f 003d 925e 33bd
000003d0: 17a0 92bd d7dd b1bc 6c20 8a3c e233 8e3d
000003e0: 290f 5d3d 1d33 8cbd 6fd4 44bd 2aba 4b3c
000003f0: 2a81 a0bd 77ff 4a3d bb50 973b cd93 58bd

fc3.bias f4 [34]
-0.03610669 0.034679346 0.046460703 -0.0072343694 -0.0057828124 0.03236892 0.022969784 0.015766388
-0.016764339 0.033363435 0.031404555 0.01495592 0.07316553 0.0363639 0.06837792 -0.0038292145
-0.053139646 -0.044670038 -0.047304146 -0.023543172 -0.053836357 -0.05446522 0.028655417 -0.004195987
0.015594503 0.015411008 -0.027582085 0.040608812 0.045173004 -0.05967388 0.0053675715 0.06464239
-0.047265705 -0.05616222
00000000: 9ce4 13bd ee0b 0e3d 944d 3e3d 4a0e edbb
00000010: bf7d bdbb 4695 043d 212b bc3c 8328 813c
00000020: 5e55 89bc 19a8 083d 10a2 003d ad09 753c
00000030: cfd7 953d 50f2 143d b909 8c3d 8ff3 7abb
00000040: f5a8 59bd eef7 36bd fec1 41bd 9cdd c0bc
00000050: 8383 5cbd ec16 5fbd c4be ea3c 7d7e 89bb
00000060: 1680 7f3c 747e 7c3c d3f3 e1bc 6d55 263d
00000070: 5407 393d 996c 74bd 74e2 af3b 3b63 843d
00000080: af99 41bd 5b0a 66bd
